isaacgym/legged_gym/logs/flat_anymal_c/Mar26_18-40-16_/model_50.pt (torch, 418700 bytes, 48 tensors)

std f4 [12]
0.7581357 0.88468724 0.84144336 0.776694 0.8796116 0.8062304 0.7512405 0.908482
0.82179314 0.7421249 0.8392361 0.85537213
00000000: 2e15 423f dd7a 623f d568 573f 6bd5 463f
00000010: 3a2e 613f 1e65 4e3f 4c51 403f 4792 683f
00000020: 0961 523f e6fb 3d3f 2dd8 563f abf9 5a3f

actor.0.weight f4 [128, 48]
0.00870851 0.15021458 -0.09838222 0.23665586 0.564186 0.3614477 0.7899058 -0.72626823
0.1435136 -0.01261537 0.08676727 -0.43647423 0.47791448 0.17750616 -0.13979824 0.15574887
0.33342797 -0.20780839 -0.24522236 -0.18673377 0.2574754 0.20192967 0.22283515 0.39263606
0.071065664 -0.10182813 -0.13719417 0.24606855 0.032733917 0.33995306 -0.048215635 -0.0940389
0.18404992 -0.15167244 0.016047698 -0.09058133 -0.2192547 -0.039490778 -0.0061320825 0.029791633
-0.18326977 0.31469363 -0.051844396 -0.030413594 -0.18022417 -0.14309327 -0.027277635 -0.08097081
-0.15956615 -0.034108575 0.03384554 -0.5082783 0.77606106 0.5708153 0.85742223 0.4915889
0.041946087 0.2233702 -0.20613162 -1.1218685 0.29190204 -0.4217586 -0.2420645 -0.2623927
0.47327608 0.25201768 -0.2876408 -0.17693813 0.2652223 -0.085806705 -0.39098993 -0.22750294
0.3104381 -0.19919454 -0.12877156 -0.03367803 -0.101482645 0.20057954 0.30148867 -0.115697496
-0.06609581 -0.74728805 -0.30755645 -0.41528714 0.16906579 0.035759535 0.12764634 0.072689034
0.0025532153 0.11086128 -0.024035139 -0.02921908 0.021566195 -0.057284806 0.03108602 0.042557497
-0.016121686 -0.12458009 0.1582907 0.5488942 -0.51946235 0.63505816 -0.17114325 -0.35217628
0.045625933 -0.20697613 0.32616872 -0.7960675 0.44291112 0.05758656 0.015965786 0.32192492
-0.36508206 -0.32969704 0.6735346 -0.40937147 -0.24541213 -0.5771149 -0.029617567 0.1330821
0.23813893 0.14616127 0.058528878 0.49806398 -0.36770403 -0.20621692 0.71559584 0.38828084
-0.15436383 0.16164663 0.047003854 -0.28919467 -0.2103882 -0.046029087 0.06977538 -0.090332516
-0.0040639387 0.1030901 0.014665109 0.16186164 -0.19047676 -0.09716138 -0.19490735 0.01784037
-0.31495744 0.37403512 0.0023738316 -0.44419822 -0.254992 -0.75965947 -0.19092079 0.44035488
-0.0016929129 0.4399236 -0.40262595 0.7564799 -0.111671634 -0.38708854 0.09450362 0.05846992
0.28734323 -0.13977972 -0.4996814 0.089277714 0.22545092 0.030630516 -0.07442648 0.18854822
-0.06528614 -0.32912415 -0.2887303 0.7261556 0.11038543 -0.25566855 0.0548929 0.15129952
0.24165942 -0.2993672 -0.497325 -0.28378394 0.17408435 0.047813613 -0.08082983 0.27379316
0.28922388 0.042947493 -0.20078777 -0.08095667 0.04158079 0.030097526 -0.066455394 -0.12569885
-0.12500899 -0.034356978 0.0061955154 -0.23141173 -0.65394044 0.4400591 0.31043485 -0.24204044
0.09744769 -0.12449357 -0.14611126 -0.8294366 0.44226974 0.29144254 -0.1673578 0.10934984
-0.059360847 -0.032888725 0.21160123 -0.05408865 0.24341108 0.15158859 0.3921345 0.5220965
0.49284092 0.9989207 -0.30979666 -0.14486301 -0.16249837 0.34885684 0.26792186 -0.41343045
-0.011674806 0.37453818 -0.05159745 0.21865374 0.106607504 0.0093736155 0.13462059 0.10042706
0.046799727 0.000779069 -0.14598589 -0.0045239725 -0.058526054 0.065687075 0.22973569 -0.11895584
-0.12803744 -0.04560676 -0.08817472 -0.122529656 0.66849774 0.058058243 -0.5392584 -0.10815808
-0.03786733 0.033359036 0.01880535 -0.65611416 0.5352239 -0.091216415 0.024265572 0.2051413
00000000: 23ae 0e3c dad1 193e 9e7c c9bd ea55 723e
00000010: 7e6e 103f ac0f b93e 4437 4a3f b7ec 39bf
00000020: 3bf5 123e b2b0 4ebc 0ab3 b13d 8d79 dfbe
00000030: 35b1 f43e 2dc4 353e 4527 0fbe a27c 1f3e
00000040: 12b7 aa3e b9cb 54be 921b 7bbe 2337 3fbe
00000050: d1d3 833e a7c6 4e3e e62e 643e 9807 c93e
00000060: e08a 913d 448b d0bd a17c 0cbe 65f9 7b3e
00000070: 0014 063d 540e ae3e c27d 45bd 7897 c0bd
00000080: 9577 3c3e 0550 1bbe 7676 833c b482 b9bd
00000090: 4e84 60be 15c1 21bd a3ef c8bb 950d f43c
000000a0: 12ab 3bbe 861f a13e ca5a 54bd ee25 f9bc
000000b0: af8c 38be 0b87 12be 5975 dfbc 06d4 a5bd
000000c0: 4f65 23be 6fb5 0bbd 9fa1 0a3d 871e 02bf
000000d0: f0ab 463f f420 123f 0680 5b3f 8ab1 fb3e
000000e0: a9cf 2b3d 28bb 643e 2b14 53be 6399 8fbf
000000f0: 2f74 953e bef0 d7be c2df 77be 5658 86be
00000100: 3e51 f23e 7608 813e a845 93be 452f 35be
00000110: 38cb 873e 6dbb afbd d52f c8be 88f6 68be
00000120: bef1 9e3e a7f9 4bbe b1dc 03be f9f1 09bd
00000130: 22d6 cfbd b964 4d3e b95c 9a3e cff2 ecbd
00000140: 3d5d 87bd 454e 3fbf 0a78 9dbe 84a0 d4be
00000150: 951f 2d3e 9778 123d b9b5 023e fddd 943d
00000160: d853 273b 3d0b e33d 57e5 c4bc da5c efbc
00000170: 97ab b03c 79a3 6abd 1ca8 fe3c c550 2e3d
00000180: a011 84bc d923 ffbd f516 223e 5584 0c3f
00000190: 7cfb 04bf 2c93 223f 2d40 2fbe 7350 b4be
000001a0: 42e2 3a3d 8df1 53be 96ff a63e 14cb 4bbf
000001b0: 3fc5 e23e e2df 6b3d aeca 823c 58d3 a43e
000001c0: 09ec babe 0dce a8be c36c 2c3f 2399 d1be
000001d0: 514d 7bbe cdbd 13bf 8aa0 f2bc ad46 083e
000001e0: b1da 733e 4dab 153e fabb 6f3d 3e02 ff3e
000001f0: b443 bcbe 872a 53be 4a31 373f bfcc c63e
00000200: 8d11 1ebe b286 253e 1d87 403d 5311 94be
00000210: 0170 57be ff88 3cbd 65e6 8e3d 4100 b9bd
00000220: ca2a 85bb e720 d33d ed45 703c 0fbf 253e
00000230: 570c 43be 8cfc c6bd cb95 47be f825 923c
00000240: 1a42 a1be 8881 bf3e 4992 1b3b f36d e3be
00000250: 508e 82be 0b79 42bf bd80 43be 3276 e13e
00000260: bbe4 ddba ab3d e13e fd24 cebe aba8 413f
00000270: 19b4 e4bd 7830 c6be 1d8b c13d 287e 6f3d
00000280: a71e 933e 6a22 0fbe 3ed6 ffbe 3cd7 b63d
00000290: 9bdc 663e d9ec fa3c e96c 98bd c912 413e
000002a0: bdb4 85bd f682 a8be 75d4 93be 55e5 393f
000002b0: c211 e23d fde6 82be 61d7 603d 43ee 1a3e
000002c0: 9175 773e a846 99be 62a1 febe 214c 91be
000002d0: 2b43 323e 35d8 433d 1c8a a5bd 9e2e 8c3e
000002e0: 2715 943e b6e9 2f3d 4f9b 4dbe 9ccc a5bd
000002f0: 9e50 2a3d 168f f63c c419 88bd 33b7 00be
00000300: 5b02 00be e7b9 0cbd c003 cb3b 32f7 6cbe
00000310: a468 27bf 6d4f e13e 51f1 9e3e 73d9 77be
00000320: a892 c73d 7cf6 febd 319e 15be f555 54bf
00000330: 2e71 e23e f537 953e d85f 2bbe cff2 df3d
00000340: 5c24 73bd 54b6 06bd fead 583e 0f8c 5dbd
00000350: c140 793e 0a3a 1b3e dac5 c83e 1ea8 053f
00000360: a555 fc3e 44b9 7f3f ab9d 9ebe f856 14be
00000370: f965 26be 5d9d b23e 0e2d 893e 28ad d3be
00000380: af47 3fbc 78c3 bf3e d957 53bd c4e6 5f3e
00000390: 0955 da3d cb93 193c fbd9 093e b4ac cd3d
000003a0: 12b1 3f3d 703a 4c3a 537d 15be d53d 94bb
000003b0: 04b9 6fbd f286 863d d53f 6b3e 1f9f f3bd
000003c0: 3f1c 03be 27ce 3abd f394 b4bd d4f0 fabd
000003d0: ab22 2b3f 7bce 6d3d d70c 0abf fc81 ddbd
000003e0: c61a 1bbd 7ca3 083d ad0d 9a3c 19f7 27bf
000003f0: 6f04 093f accf babd 98c8 c63c 9010 523e

actor.0.bias f4 [128]
0.049923103 -0.05937127 -0.029622573 -0.096779205 -0.16645409 -0.021574238 -0.25057414 -0.22049133
-0.21351688 -0.17908753 -0.16460581 0.106160805 -0.035516024 0.049759742 -0.032616425 -0.017268734
0.008335131 -0.17917196 -0.011662788 -0.037846297 -0.019867744 -0.10108421 -0.112964645 -0.03282344
0.062265556 0.016800342 -0.17688166 -0.12802239 -0.27234712 0.1392536 -0.099196605 -0.030996408
0.0132311145 0.062998995 -0.14996038 0.07121751 0.03893159 -0.049132545 0.10472816 0.110391885
0.05856212 -0.0038047065 -0.04432484 -0.032040685 -0.081152394 -0.13709442 -0.06418009 -0.17847204
0.047977272 0.06480228 0.06972033 0.057567608 -0.06188795 0.0011359374 -0.06384105 -0.015196315
-0.10510172 -0.10232221 -0.08277697 0.041942198 -0.07928204 -0.009260162 -0.08304945 -0.014214422
-0.057126395 -0.27064145 -0.1425999 -0.09761497 -0.23719063 0.00698525 0.11170747 -0.024320213
-0.22746305 0.07545081 -0.12442236 0.04843251 -0.01204732 -0.09506843 -0.06992648 -0.0023561353
0.03334088 -0.15929033 0.023801703 -0.16319247 -0.08342955 -0.050663155 0.028651336 -0.25348863
-0.14639474 -0.13982384 0.07554731 -0.21480353 -0.13152847 -0.2928456 -0.039612904 -0.04135715
-0.17275633 0.1256431 -0.19721079 -0.22686324 0.024474215 -0.0018046906 -0.09728574 -0.07560407
-0.053600922 0.0069115153 0.024268746 -0.27412212 -0.17784445 -0.01387412 -0.3041572 0.09970763
-0.09538246 0.19663133 -0.020568786 -0.19069594 -0.24725044 -0.1028943 -0.09691351 0.13157812
0.027496673 0.16647904 0.080521606 -0.1797205 -0.29930347 -0.19282883 -0.13186412 -0.019750422
00000000: 2b7c 4c3d 4a2f 73bd 0aab f2bc 2d34 c6bd
00000010: f172 2abe 75bc b0bc 414b 80be 7bc8 61be
00000020: 2ba4 5abe b962 37be 6d8e 28be d66a d93d
00000030: 4079 11bd dfd0 4b3d cd98 05bd 2977 8dbc
00000040: 1390 083c db78 37be 4715 3fbc b804 1bbd
00000050: aec1 a2bc 3d05 cfbd 025a e7bd df71 06bd
00000060: 2b0a 7f3d dfa0 893c 7720 35be 4d18 03be
00000070: 1571 8bbe 7f98 0e3e 9727 cbbd 2eec fdbc
00000080: 51c7 583c 9e05 813d 378f 19be 7cda 913d
00000090: bb76 1f3d 353f 49bd b87b d63d 2415 e23d
000000a0: d5de 6f3d 6258 79bb f78d 35bd 183d 03bd
000000b0: 3a33 a6bd 7b62 0cbe da70 83bd 60c1 36be
000000c0: d183 443d 0fb7 843d 88c9 8e3d 03cc 6b3d
000000d0: 387e 7dbd bce3 943a 19bf 82bd f7f9 78bc
000000e0: 923f d7bd 4f8e d1bd f986 a9bd 95cb 2b3d
000000f0: 9f5e a2bd efb7 17bc d415 aabd 9be3 68bc
00000100: 5efd 69bd 8491 8abe b505 12be 5bea c7bd
00000110: 1ae2 72be 86e4 e43b e3c6 e43d 2f3b c7bc
00000120: 13ec 68be f485 9a3d 26d1 febd 2b61 463d
00000130: 1f62 45bc 3db3 c2bd 9d35 8fbd 6469 1abb
00000140: 7290 083d 011d 23be cafb c23c ed1b 27be
00000150: 1ddd aabd 2b84 4fbd 35b6 ea3c 43c9 81be
00000160: 81e8 15be fb2d 0fbe 8cb8 9a3d 75f5 5bbe
00000170: 66af 06be dcef 95be 2441 22bd 1d66 29bd
00000180: 09e7 30be 96a8 003e a0f1 49be d64e 68be
00000190: 267e c83c 5e8b ecba bf3d c7bd 4fd6 9abd
000001a0: a48c 5bbd fe79 e23b 40cf c63c bc59 8cbe
000001b0: db1c 36be 4750 63bc 7eba 9bbe 8433 cc3d
000001c0: e157 c3bd b959 493e df7f a8bc cc45 43be
000001d0: 382f 7dbe 3fba d2bd 977a c6bd 6abc 063e
000001e0: b440 e13c 7b79 2a3e 83e8 a43d a708 38be
000001f0: 4e3e 99be ec74 45be 6307 07be a3cb a1bc

actor.2.weight f4 [64, 128]
-0.10113607 0.25380406 -0.1573735 0.13602336 -0.12155804 0.37950745 -0.09141254 0.22024375
0.28920734 -0.020121096 -0.14338614 -0.0149745215 0.15628593 -0.06279868 0.21997127 -0.12690006
0.017951837 -0.07554066 -0.06786583 0.07493294 0.15437643 0.06789584 -0.12653533 -0.15216258
0.3827597 0.11230024 0.07891927 0.16364546 0.046618953 -0.020035427 0.00697514 -0.10326869
-0.027591798 0.12476519 0.10183568 0.19309826 -0.011185182 -0.09631531 0.14254019 -0.09683328
0.022265727 -0.018172462 0.026640685 -0.26326448 -0.13334736 0.17861204 0.08112499 -0.079500504
0.18920802 0.06902831 0.12685166 0.17533405 0.0044776592 0.1422065 0.03215861 0.019743843
0.10213061 -0.24320512 -0.09805292 0.14248103 -0.16293377 0.03738446 -0.03355499 -0.029745683
-0.33324277 0.124565504 -0.014139474 0.004368503 0.33766282 0.022784105 -0.0111191515 0.053254917
-0.087969564 0.108850464 0.1705158 0.12328766 0.1819686 0.21177736 0.0937493 0.16566704
-0.12733988 0.02111526 0.29518747 -0.0036573058 0.045365896 -0.16742964 -0.03321272 0.0059529077
0.26178578 -0.40799755 0.15238187 0.08998738 -0.011579362 0.19524884 0.23110192 -0.004770763
-0.0113068 -0.15486953 -0.18428512 -0.09214599 0.28172472 0.10380204 -0.06143502 -0.070375875
-0.097421795 0.05946872 -0.23925872 -0.033817418 -0.0033924794 -0.07055958 0.42314422 -0.18573011
-0.12161455 -0.059670195 0.14566188 0.12989374 -0.02757299 0.04136133 -0.16306521 0.058871876
0.11474991 0.08651732 -0.078952305 0.08731875 0.05305317 0.44208738 0.008116005 -0.34692678
-0.024784459 -0.31693274 -0.14183271 0.0947055 -0.12249606 -0.3167411 -0.14933234 -0.08410339
-0.2228007 -0.20588398 0.013073993 -0.038477823 0.11970947 -0.1844663 0.25254434 -0.049500093
-0.13196217 -0.3303988 0.17383996 -0.054812975 -0.17616378 0.15573207 -0.098269045 -0.13068609
-0.19598931 -0.33232588 0.09131829 0.12686707 -0.175672 0.03493585 0.13964896 -0.19800384
0.013278467 -0.095902465 -0.07925925 -0.20106485 0.058291078 0.23887609 0.018961629 -0.19638367
-0.08049644 -0.03950371 0.06837684 -0.029752372 -0.06742253 -0.095246084 -0.20439416 0.48934492
-0.49803966 0.023336828 -0.113012195 -0.35925612 0.106108464 0.08946236 -0.09732757 -0.106706105
0.40031072 -0.20625055 0.143329 0.15435387 0.08467235 0.09700847 -0.06537421 0.51276267
0.12348219 0.0981718 0.10441662 0.08394148 -0.2432907 -0.05822543 0.063871615 0.01793277
0.040805474 -0.10637395 0.20558894 -0.03843691 -0.2960142 0.23345442 0.16390689 -0.013822964
0.11707414 -0.05321387 0.042387977 -0.1240534 0.22515382 -0.10135276 0.066396885 0.022591306
0.1046792 -0.06333717 -0.057005957 0.12822543 0.094866656 0.18603723 -0.101089075 -0.08172662
-0.23496464 -0.079899244 0.2177889 0.03464209 -0.31269947 -0.37335452 0.051821105 -0.006878544
0.11206317 -0.1534238 -0.13288914 0.26433071 0.08229751 0.16813916 -0.14153865 -0.044517297
0.30288005 0.061864253 -0.3540271 -0.24309735 0.15680656 0.016031804 0.45439738 -0.018218838
0.26705635 -0.052574642 0.07497771 -0.018541973 -0.16193794 0.05990799 -0.13897514 -0.24151428
00000000: 6e20 cfbd 9bf2 813e 8526 21be b549 0b3e
00000010: 6cf3 f8bd cd4e c23e 7f36 bbbd 9487 613e
00000020: fc12 943e ffd4 a4bc d1d3 12be b257 75bc
00000030: 6b09 203e 989c 80bd 2640 613e 17f2 01be
00000040: bb0f 933c 10b5 9abd 3efd 8abd 7176 993d
00000050: db14 1e3e f90c 8b3d 7a92 01be 82d0 1bbe
00000060: 14f9 c33e abfd e53d 6da0 a13d ad92 273e
00000070: 84f3 3e3d 5621 a4bc b78f e43b 897e d3bd
00000080: 3208 e2bc e484 ff3d 3a8f d03d 8dbb 453e
00000090: 0e42 37bc f640 c5bd 0ef6 113e 8750 c6bd
000000a0: 9d66 b63c 6ade 94bc 913d da3c 9aca 86be
000000b0: 368c 08be 13e6 363e dc24 a63d 29d1 a2bd
000000c0: bfbf 413e b75e 8d3d 67e5 013e c58a 333e
000000d0: 54b9 923b 959e 113e bfb8 033d d7bd a13c
000000e0: da29 d13d c30a 79be f8cf c8bd 8ce6 113e
000000f0: 1cd8 26be 7320 193d f570 09bd 38ad f3bc
00000100: cc9e aabe 331c ff3d 41a9 67bc a925 8f3b
00000110: 24e2 ac3e bba5 ba3c 1a2d 36bc d421 5a3d
00000120: 6329 b4bd feec de3d b29b 2e3e 3e7e fc3d
00000130: fa55 3a3e 2adc 583e a2ff bf3d 9fa4 293e
00000140: 6365 02be e9f9 ac3c d022 973e 69af 6fbb
00000150: 97d1 393d ad72 2bbe 100a 08bd 9c10 c33b
00000160: c908 863e 0ee5 d0be fe09 1c3e 4e4b b83d
00000170: 5db7 3dbc 50ef 473e fba5 6c3e 1054 9cbb
00000180: 2840 39bc 1e96 1ebe 3db5 3cbe 09b7 bcbd
00000190: 393e 903e 2a96 d43d 4aa3 7bbd 3a21 90bd
000001a0: 1485 c7bd 7995 733d 3d00 75be 2284 0abd
000001b0: 5c54 5ebb 8b81 90bd 5ca6 d83e 0930 3ebe
000001c0: 0d11 f9bd bc68 74bd 6328 153e dd02 053e
000001d0: c0e0 e1bc 7f6a 293d 91fa 26be a323 713d
000001e0: 0002 eb3d fe2f b13d bfb1 a1bd 2cd4 b23d
000001f0: 484e 593d 4759 e23e fef8 043c 63a0 b1be
00000200: c708 cbbc 0245 a2be 983c 11be f5f4 c13d
00000210: 37df fabd e42b a2be 94ea 18be 663e acbd
00000220: de25 64be 40d3 52be 4d34 563c ec9a 1dbd
00000230: 3d2a f53d bce4 3cbe 7e4d 813e 9cc0 4abd
00000240: 1721 07be 082a a9be 1a03 323e 9283 60bd
00000250: 4764 34be 3a78 1f3e 4841 c9bd 93d2 05be
00000260: 6cb1 48be 9e26 aabe 1505 bb3d 71e9 013e
00000270: 5ce3 33be e518 0f3d 2300 0f3e 85c1 4abe
00000280: ed8d 593c 8368 c4bd ac52 a2bd f2e3 4dbe
00000290: a0c2 6e3d ef9b 743e 6b55 9b3c cd18 49be
000002a0: 51db a4bd a4ce 21bd 2809 8c3d 3fbb f3bc
000002b0: d314 8abd 6110 c3bd b44c 51be 6b8b fa3e
000002c0: 0eff febe e02c bf3c f072 e7bd 6bf0 b7be
000002d0: 654f d93d 0b38 b73d ad53 c7bd bb88 dabd
000002e0: 87f5 cc3e 5833 53be d6c4 123e f10e 1e3e
000002f0: b268 ad3d 60ac c63d eae2 85bd 6a44 033f
00000300: 3be4 fc3d 4c0e c93d 62d8 d53d 83e9 ab3d
00000310: 3221 79be ca7d 6ebd 1fcf 823d bfe7 923c
00000320: a423 273d 96da d9bd e885 523e 0570 1dbd
00000330: 2c8f 97be ad0e 6f3e 35d7 273e b779 62bc
00000340: 91c4 ef3d c9f6 59bd 049f 2d3d b50f febd
00000350: b98e 663e 0992 cfbd 17fb 873d 6711 b93c
00000360: 0c62 d63d ebb6 81bd 147f 69bd 874d 033e
00000370: 7349 c23d 8b80 3e3e ca07 cfbd 4960 a7bd
00000380: 929a 70be 37a2 a3bd 0e04 5f3e dde4 0d3d
00000390: 251a a0be 5328 bfbe 5e42 543d 6965 e1bb
000003a0: 6081 e53d 211b 1dbe 1714 08be 5b56 873e
000003b0: 998b a83d ac2c 2c3e 82ef 10be c557 36bd
000003c0: 1813 9b3e 5f65 7d3d 0a43 b5be 83ee 78be
000003d0: e691 203e 2155 833c c6a6 e83e ac3f 95bc
000003e0: 9cbb 883e 8258 57bd ea8d 993d 56e5 97bc
000003f0: 0fd3 25be 1562 753d 804f 0ebe 854f 77be

actor.2.bias f4 [64]
-0.06017112 -0.09443363 -0.105687305 -0.18681188 -0.06675611 0.0079752365 -0.011885635 0.015768075
-0.15872744 -0.2112149 -0.024677763 0.10945943 -0.23830292 -0.12512833 -0.30435866 -0.06023262
-0.16122828 -0.051368326 -0.08914579 -0.12805869 -0.08864828 0.100950986 -0.16363636 -0.27169415
-0.18940708 -0.10765968 -0.21306916 -0.02454159 -0.11403077 -0.08253196 -0.034399454 -0.14504369
-0.23743066 -0.0006212295 0.012133812 -0.11831841 -0.19427902 -0.07428266 0.11736999 -0.1826055
-0.19310473 -0.13727532 -0.061563887 -0.1173529 -0.03016333 -0.18335116 -0.036525812 -0.14397636
-0.19474043 -0.11991685 0.033965595 -0.10722629 -0.16769084 -0.06944185 -0.15991798 -0.23388553
-0.13136594 -0.20973308 -0.15082559 0.031181728 -0.19896527 -0.08903386 -0.008446029 -0.10111027
00000000: fe75 76bd 6b66 c1bd 9672 d8bd 9d4b 3fbe
00000010: 6db7 88bd 91aa 023c f7bb 42bc 0d2c 813c
00000020: 7289 22be b848 58be 0529 cabc 442c e03d
00000030: ae05 74be a421 00be e6d4 9bbe 7bb6 76bd
00000040: 0719 25be 9867 52bd 1192 b6bd d121 03be
00000050: 3b8d b5bd 64bf ce3d 4a90 27be 7f1b 8bbe
00000060: eef3 41be ae7c dcbd cd2e 5abe 720b c9bc
00000070: f788 e9bd 8406 a9bd 71e6 0cbd 5586 14be
00000080: 0621 73be 02da 22ba e5cc 463c ec50 f2bd
00000090: 14f1 46be 8221 98bd ad5f f03d f0fc 3abe
000000a0: 3fbd 45be e791 0cbe 6a2a 7cbd b856 f0bd
000000b0: 1619 f7bc 68c0 3bbe 179c 15bd 8a6e 13be
000000c0: 096a 47be f796 f5bd 821f 0b3d 7599 dbbd
000000d0: 26b7 2bbe 8737 8ebd 8ac1 23be b07f 6fbe
000000e0: cb84 06be 45c4 56be 0672 1abe d370 ff3c
000000f0: 8dbd 4bbe 6257 b6bd 3761 0abc e712 cfbd

actor.4.weight f4 [32, 64]
0.161584 0.06893343 0.06580302 0.2612573 -0.07624795 -0.24328722 0.12647928 -0.07209457
0.08188142 0.029350173 -0.41151935 -0.0064232377 -0.12575808 -0.12054019 0.1682815 0.006973161
0.020751065 -0.17583211 -0.03366162 0.049875237 0.12675335 -0.21341696 0.14579572 0.045260265
-0.18287931 -0.061398033 -0.069684304 -0.06919297 -0.13605495 -0.0023370953 0.11523685 -0.17463717
0.15733494 -0.18679567 -0.057894707 -0.017207377 0.1198506 0.055547718 -0.09432176 0.07893654
-0.10659428 -0.091782115 -0.1142877 0.29731527 0.0052743526 -0.0868902 -0.088632 -0.14959733
0.0030660965 -0.011649572 -0.05727437 0.062354222 0.12101663 -0.13157131 -0.19024107 0.048128504
0.029262671 -0.09211709 0.056509487 0.06760292 0.022662226 0.039187673 -0.15387185 -0.08792227
-0.1390255 0.008891572 -0.11018507 -0.014688084 0.18347184 -0.05909704 0.1542847 -0.05027295
-0.004843258 0.11941993 -0.07220347 0.0031561113 0.20646617 -0.15013464 0.27997866 0.01234661
0.01043379 -0.097840056 0.02980195 -0.089719735 -0.06567177 0.14485194 0.0036203368 -0.08345553
0.05091424 -0.14798726 0.014895472 -0.16881041 -0.20162399 -0.08698116 -0.013500186 -0.18353377
0.19700857 0.18362257 -0.0017597876 -0.05827125 -0.22867395 -0.10930821 -0.06863829 0.09637218
0.21223404 -0.08780341 -0.19388065 -0.12861994 0.040951498 0.017164517 -0.06479768 -0.040434647
-0.088197745 -0.029860593 0.107669674 0.14823273 0.14181249 0.023569861 -0.033838425 -0.08882045
0.11262805 -0.074166216 0.05320826 -0.11859687 0.14635979 0.1691319 0.011808336 -0.16468605
0.16703144 -0.041487634 -0.2062428 -0.008198316 0.09245427 0.04378074 -0.051269233 0.112562716
0.106855 0.10795914 -0.27138013 0.024115238 -0.24183868 0.124394365 0.1179847 0.16646853
0.15047193 -0.22066426 -0.1520994 -0.10343928 -0.21289219 -0.10353308 -0.14925186 0.079268135
0.10623402 -0.10051678 0.08117582 -0.09820274 0.18951277 -0.013481421 -0.16659586 0.009434453
0.27532914 0.083299324 -0.051128283 -0.085214004 0.022447046 0.0036872947 0.071804546 -0.05654001
-0.086957134 0.08234947 0.03734683 0.005381339 0.045454707 -0.04137832 0.089649014 0.024680112
-0.2540764 -0.21903759 -0.19086617 -0.16604152 -0.17837498 -0.17775744 0.2702647 0.066604964
-0.009016451 0.104576685 0.023684217 -0.09289965 -0.12522207 -0.03414114 -0.07476279 0.10426115
0.08614107 -0.14824209 -0.049535334 -0.07226612 -0.03144851 -0.044456095 0.01497591 0.15271986
-0.01091958 0.16855952 -0.00739688 -0.103354454 -0.0655246 0.13112254 -0.19150485 0.0777963
0.13123439 0.051010065 0.028477907 -0.012961955 -0.247019 -0.22422451 0.06628834 0.016854037
0.16586608 0.05918217 -0.12984204 0.05977008 0.10233435 -0.1021731 -0.045099955 -0.21162081
0.010196711 -0.07272523 -0.12960832 0.14446902 0.10518642 -0.008705414 -0.068892695 0.17436294
-0.12466118 -0.14800358 -0.21270232 -0.17596728 -0.027771974 -0.16341192 -0.0006702039 0.016879192
0.03230437 -0.313331 0.12355982 -0.10433071 -0.11322996 -0.07769592 -0.017057579 0.17115502
-0.09510558 0.17136554 -0.058132675 -0.24488288 0.07952874 -0.060745955 -0.07329954 -0.20063591
00000000: 4776 253e f82c 8d3d bcc3 863d 84c3 853e
00000010: e327 9cbd 4920 79be c983 013e 51a6 93bd
00000020: 72b1 a73d c66f f03c aab2 d2be 067a d2bb
00000030: bac6 00be c6dd f6bd fc51 2c3e 1d7f e43b
00000040: 23fe a93c 550d 34be c4e0 09bd fa49 4c3d
00000050: a1cb 013e fa89 5abe 794b 153e d462 393d
00000060: b744 3bbe 817c 7bbd a5b6 8ebd 0bb5 8dbd
00000070: fd51 0bbe f429 19bb 4c01 ec3d 16d4 32be
00000080: 691c 213e 5d47 3fbe 0023 6dbd 7cf6 8cbc
00000090: 3b74 f53d 0186 633d c42b c1bd 7ba9 a13d
000000a0: 1a4e dabd 43f8 bbbd ab0f eabd b539 983e
000000b0: 7ad4 ac3b 7df3 b1bd b284 b5bd 0b30 19be
000000c0: 90f0 483b d9dd 3ebc 8898 6abd 2467 7f3d
000000d0: 91d7 f73d a1ba 06be 8ece 42be 6522 453d
000000e0: 45b8 ef3c e3a7 bcbd 7e76 673d 6673 8a3d
000000f0: 22a6 b93c 4183 203d 9590 1dbe 9710 b4bd
00000100: b35c 0ebe f5ad 113c b6a8 e1bd 4aa6 70bc
00000110: 0be0 3b3e bd0f 72bd cffc 1d3e 02eb 4dbd
00000120: 31b4 9ebb 7092 f43d 6adf 93bd c3d6 4e3b
00000130: de6b 533e e5bc 19be 5d59 8f3e 7049 4a3c
00000140: 7df2 2a3c 5e60 c8bd 3823 f43c fbbe b7bd
00000150: ec7e 86bd 1154 143e 2c43 6d3b bcea aabd
00000160: 738b 503d f989 17be 230c 743c a3dc 2cbe
00000170: 8576 4ebe 2e23 b2bd e22f 5dbc 47f0 3bbe
00000180: 9dbc 493e 8e07 3c3e aca8 e6ba d6ad 6ebd
00000190: 8129 6abe fcdc dfbd 3b92 8cbd c75e c53d
000001a0: e153 593e 46d2 b3bd a688 46be f2b4 03be
000001b0: c2bc 273d 9a9c 8c3c a5b4 84bd cd9e 25bd
000001c0: 05a1 b4bd 349e f4bc eb81 dc3d 52ca 173e
000001d0: 4b37 113e 9515 c13c 299a 0abd 7fe7 b5bd
000001e0: 89a9 e63d 75e4 97bd e8f0 593d eae2 f2bd
000001f0: 57df 153e ea30 2d3e c077 413c 76a3 28be
00000200: 4a0a 2b3e f0ee 29bd 5031 53be 3b52 06bc
00000210: aa58 bd3d 6f53 333d b0ff 51bd 4887 e63d
00000220: cbd6 da3d ae19 dd3d 56f2 8abe 528d c53c
00000230: 8fa4 77be 79c2 fe3d f6a1 f13d ba76 2a3e
00000240: 5015 1a3e d0f5 61be f2bf 1bbe f9d7 d3bd
00000250: 6900 5abe 2709 d4bd 7bd5 18be 5557 a23d
00000260: 3991 d93d bedb cdbd 823f a63d 851e c9bd
00000270: a30f 423e 2ee1 5cbc 1b98 2abe f792 1a3c
00000280: f1f7 8c3e d698 aa3d e46b 51bd ae84 aebd
00000290: dee2 b73c 8aa6 713b 430e 933d 7f96 67bd
000002a0: 9516 b2bd d7a6 a83d fdf8 183d f255 b03b
000002b0: b72e 3a3d 507c 29bd e799 b73d f22d ca3c
000002c0: 4d16 82be 644b 60be 6c72 43be ca06 2abe
000002d0: eea7 36be 0c06 36be 2260 8a3e 2f68 883d
000002e0: bdb9 13bc 4d2c d63d 6705 c23c 2c42 bebd
000002f0: 373a 00be 94d7 0bbd 3c1d 99bd df86 d53d
00000300: bb6a b03d c6cc 17be 90e5 4abd 4200 94bd
00000310: 27d0 00bd 9817 36bd 855d 753c 9862 1c3e
00000320: 0ae8 32bc de9a 2c3e 8761 f2bb 80ab d3bd
00000330: c331 86bd fd44 063e d919 44be ab53 9f3d
00000340: 4f62 063e eeef 503d 804a e93c 615e 54bc
00000350: 8cf2 7cbe 1c9b 65be 2ec2 873d 7a11 8a3c
00000360: ccd8 293e 0169 723d 50f5 04be 79d1 743d
00000370: ac94 d13d 2140 d1bd bbba 38bd 20b3 58be
00000380: 1b10 273c f7f0 94bd 0bb8 04be b0ef 133e
00000390: fa6b d73d 27a1 0ebc 9d17 8dbd 338c 323e
000003a0: 5c4e ffbd 408e 17be a3ce 59be c430 34be
000003b0: 0d82 e3bc 7455 27be 9fb0 2fba 3b46 8a3c
000003c0: 9651 043d ec6c a0be ee0c fd3d 57ab d5bd
000003d0: 1ce5 e7bd 0a1f 9fbd 56bc 8bbc 4343 2f3e
000003e0: b7c6 c2bd 737a 2f3e 871c 6ebd 94c2 7abe
000003f0: f7df a23d c0d0 78bd 121e 96bd 8073 4dbe

actor.4.bias f4 [32]
-0.006974512 0.08960181 -0.33037686 -0.1275788 -0.11334811 -0.10484309 0.022176685 -0.033929046
-0.19745927 0.1625829 -0.26551145 -0.067844994 -0.113349564 -0.059000783 -0.109158516 -0.13932706
-0.19828096 -0.18399929 -0.1681064 0.06744584 0.12691143 -0.15029162 -0.16231032 -0.15215181
-0.09668774 -0.0605692 -0.20776749 -0.08964865 -0.14618975 0.0717022 -0.08370285 -0.16231614
00000000: 728a e4bb 2781 b73d 2827 a9be 04a4 02be
00000010: 0e23 e8bd f9b7 d6bd e1ab b53c 2ff9 0abd
00000020: c332 4abe 227c 263e 1ef1 87be 51f2 8abd
00000030: d123 e8bd ceaa 71bd 808e dfbd c1ab 0ebe
00000040: 2a0a 4bbe 4f6a 3cbe 1624 2cbe 0b21 8a3d
00000050: 12f5 013e 0ce6 19be ad34 26be afcd 1bbe
00000060: 3904 c6bd 6917 78bd 00c1 54be b699 b7bd
00000070: c4b2 15be 9ad8 923d 666c abbd 3436 26be

actor.6.weight f4 [12, 32]
-0.0038012029 -0.047114287 0.074417494 0.0446975 0.04340024 -0.042083442 0.04272992 -0.10527387
0.047378585 -0.040966745 0.09100084 -0.12731412 -0.022595523 0.058546726 0.050434526 0.030743595
0.0010648295 0.06203088 -0.15580074 0.020148637 0.014763167 0.0031675464 -0.01898687 0.06389344
0.13265072 0.041862372 -0.06885999 0.062751405 0.054964833 -0.1407667 -0.07907639 -0.117434055
-0.024923764 -0.13750355 -0.036010392 0.013392045 -0.06548083 0.062102452 0.010381101 -0.088862784
-0.020405974 0.036704972 -0.046979543 -0.15065686 -0.15084587 -0.005996524 -0.048447654 -0.03263619
-0.025159614 -0.04485893 0.10540403 0.03049268 0.017490178 0.016849333 0.041158892 0.002337787
0.20310098 0.053429153 0.10419099 0.07031315 -0.04481542 -0.087674625 0.0737714 0.079507954
0.048510704 -0.0025597843 0.017016908 -0.058140878 -0.0336329 -0.09503223 0.1104925 0.10422707
-0.020867096 0.05918336 0.07448341 -0.025050458 0.044724703 -0.0023697831 0.053267084 -0.098155476
-0.17746818 -0.007890322 -0.14314996 -0.02142956 0.13636783 -0.045249097 0.16800176 -0.09525902
-0.14276019 0.012725109 0.12777649 0.0962081 0.028953508 -0.031917557 -0.19522941 -0.000146123
0.04865947 -0.08860626 0.09364559 0.05775819 -0.00883979 -0.050437033 -0.081493504 -0.14184348
0.12606546 0.05230202 0.076491565 0.07628989 0.017645719 0.03889979 -0.05952362 -0.082444035
0.040624004 0.031490088 0.03385638 0.06022279 -0.057471745 0.0070239836 0.008302175 0.024465395
0.020744143 0.11410424 0.11437033 -0.19169188 0.047387354 0.035327923 -0.020489875 -0.088276386
0.13160698 -0.021513093 -0.12969059 -0.10000441 -0.028500874 -0.018261319 0.05668811 -0.08203321
-0.1094099 -0.0024722281 0.06389075 0.022625534 0.004557186 -0.04120969 -0.0005217665 0.05007247
-0.15992886 0.014868028 -0.11206743 0.10628799 -0.007163191 0.06675861 -0.048511 -0.06662352
0.13433114 0.014592866 0.0617439 0.10849218 -0.028550204 -0.016588395 -0.05066503 0.03618154
0.05195998 -0.058794294 -0.0110691395 0.13775985 -0.07546753 0.011742325 -0.016830845 0.048993923
0.0062144706 0.034246527 -0.12929381 0.02028505 0.07211749 0.048223022 -0.056201212 -0.13437806
0.09581285 0.016635552 0.18404052 -0.14893775 -0.013598879 0.0046933186 -0.09545149 0.043357145
-0.0548272 -0.1127534 -0.016961101 0.0666654 0.020949407 -0.075431794 0.015607601 -0.031077769
0.052922904 0.036829237 -0.029552989 0.02753355 0.0033451468 0.0018542173 0.08008688 -0.078832984
-0.021952976 0.0958635 -0.106517546 -0.0531073 0.05758398 -0.0031118991 0.001254677 -0.07718095
-0.08591731 0.047188655 -0.07156043 0.063992925 0.09166804 -0.00225546 0.02980947 -0.0714852
-0.07073368 0.00067474705 -0.1088771 0.15592556 0.008996722 0.07550724 -0.031579465 -0.06887696
-0.0063666534 0.09110736 0.06624068 -0.042362273 0.046679277 -0.04538834 0.00016273416 -0.006403753
0.019934528 0.14019859 -0.068177365 -0.05510832 -0.016126612 -0.011451542 -0.04667685 0.028772889
-0.2528026 0.014610847 0.050744858 -0.027869634 -0.030035466 0.09678663 0.014507804 -0.008058338
0.22160085 -0.03068461 0.051322844 -0.15147609 0.042286105 0.0037785326 0.058519542 0.055503238
00000000: 9a1d 79bb e9fa 40bd 3368 983d ba14 373d
00000010: 73c4 313d b05f 2cbd 9205 2f3d d499 d7bd
00000020: 0c10 423d bfcc 27bd a65e ba3d a25e 02be
00000030: 3f1a b9bc b1ce 6f3d 6f94 4e3d fed9 fb3c
00000040: c091 8b3a 1814 7e3d 3b8a 1fbe c10e a53c
00000050: 36e1 713c 9c96 4f3b 5a8a 9bbc 90da 823d
00000060: 97d5 073e e177 2b3d 7706 8dbd cf83 803d
00000070: ce22 613d 2525 10be cdf2 a1bd 4481 f0bd
00000080: ec2c ccbc bbcd 0cbe a27f 13bd 4f6a 5b3c
00000090: d01a 86bd 245f 7e3d 7e15 2a3c b1fd b5bd
000000a0: 6e2a a7bc f457 163d 9f6d 40bd cb45 1abe
000000b0: 5777 1abe 7d7e c4bb 0c71 46bd 87ad 05bd
000000c0: 891b cebc ffbd 37bd 11de d73d c9cb f93c
000000d0: 9047 8f3c 9d07 8a3c 3a96 283d 8f35 193b
000000e0: b4f9 4f3e 87d8 5a3d 1662 d53d 5700 903d
000000f0: 6090 37bd c18e b3bd 7615 973d 11d5 a23d
00000100: 29b3 463d 0ec2 27bb 0b67 8b3c 2125 6ebd
00000110: a7c2 09bd 42a0 c2bd e449 e23d 0175 d53d
00000120: 79f1 aabc 406a 723d c28a 983d 9e36 cdbc
00000130: 4031 373d 5d4e 1bbb 962e 5a3d bd05 c9bd
00000140: 38ba 35be 6946 01bc e795 12be 0b8d afbc
00000150: 02a4 0b3e 1e57 39bd a708 2c3e 2917 c3bd
00000160: ba2f 12be fa7c 503c d7d7 023e c108 c53d
00000170: e82f ed3c fcbb 02bd 38ea 47be 9838 19b9
00000180: 274f 473d 3377 b5bd 42c9 bf3d da93 6c3d
00000190: c4d4 10bc 1097 4ebd 11e6 a6bd 6b3f 11be
000001a0: 4e17 013e a53a 563d 9ca7 9c3d e03d 9c3d
000001b0: c18d 903c 6355 1f3d 0acf 73bd 6bd8 a8bd
000001c0: 5b65 263d c0fb 003d fdac 0a3d 2cac 763d
000001d0: 7e67 6bbd 7229 e63b d905 083c a76b c83c
000001e0: 9fef a93c 7caf e93d fe3a ea3d e04a 44be
000001f0: 3e19 423d 03b4 103d 62da a7bc 40ca b4bd
00000200: fbc3 063e 3a3c b0bc 9ccd 04be 1dcf ccbd
00000210: aa7a e9bc c398 95bc cb31 683d 0701 a8bd
00000220: 4c12 e0bd 1b05 22bb 27d9 823d 2f59 b93c
00000230: 7254 953b 7ecb 28bd 28c7 08ba ca18 4d3d
00000240: 64c4 23be 0899 733c 9c83 e5bd 85ad d93d
00000250: 34b9 eabb bdb8 883d 78b3 46bd e971 88bd
00000260: 1a8e 093e eb16 6f3c 2ce7 7c3d 2631 de3d
00000270: 1ee2 e9bc 63e4 87bc 2286 4fbd 1833 143d
00000280: fdd3 543d 49d2 70bd 565b 35bc eb10 0d3e
00000290: b88e 9abd e162 403c d7e0 89bc daad 483d
000002a0: c2a2 cb3b 1646 0c3d 9965 04be d52c a63c
000002b0: 56b2 933d 8185 453d 3e33 66bd 679a 09be
000002c0: 8739 c43d 4847 883c 1e75 3c3e 2383 18be
000002d0: d5cd 5ebc 69ca 993b 127c c3bd 4397 313d
000002e0: 7c92 60bd 41eb e6bd 02f2 8abc df87 883d
000002f0: 179e ab3c fc7b 9abd 06b7 7f3c ce96 febc
00000300: b0c5 583d 41da 163d 1c19 f2bc 0a8e e13c
00000310: 403a 5b3b 3509 f33a 9704 a43d 3073 a1bd
00000320: bad6 b3bc 1554 c43d df25 dabd 0a87 59bd
00000330: 2edd 6b3d 01f1 4bbb f973 a43a 0c11 9ebd
00000340: 6af5 afbd e448 413d 468e 92bd b90e 833d
00000350: 74bc bb3d 57d0 13bb fd32 f43c d566 92bd
00000360: d2dc 90bd 82e1 303a f5fa debd f3aa 1f3e
00000370: fd66 133c 8aa3 9a3d 7859 01bd 5d0f 8dbd
00000380: 5c9f d0bb 7f96 ba3d 32a9 873d 1084 2dbd
00000390: c532 3f3d 20e9 39bd 9ea3 2a39 93d6 d1bb
000003a0: bc4d a33c 3890 0f3e 93a0 8bbd 43b9 61bd
000003b0: f51b 84bc 409f 3bbc 3a30 3fbd 1fb5 eb3c
000003c0: 586f 81be 5662 6f3c d7d9 4f3d dc4e e4bc
000003d0: f00c f6bc 1238 c63d 24b2 6d3c 1f07 04bc
000003e0: 55eb 623e 4b5e fbbc e737 523d 8c1c 1bbe
000003f0: 3234 2d3d 42a1 773b 30b2 6f3d 5d57 633d

actor.6.bias f4 [12]
-0.10123652 0.05906954 0.11611819 -0.08199516 -0.16537745 -0.13757512 0.14606655 0.011582405
-0.06698374 0.20449871 -0.093356565 -0.16913815
00000000: 1855 cfbd e7f2 713d 60cf ed3d 14ed a7bd
00000010: b558 29be 7ee0 0cbe 7892 153e 21c4 3d3c
00000020: c52e 89bd 1c68 513e ba31 bfbd 8d32 2dbe

critic.0.weight f4 [128, 48]
-0.0457347 -0.08645479 0.05900363 -0.23515408 0.3584453 -0.6334896 0.4983773 0.82885295
0.04954342 0.07410787 -0.19411254 0.80284745 0.055574786 -0.074976206 0.11609845 -0.23315725
-0.36750033 -0.6581047 0.29202083 0.42263684 0.40669727 -0.09833687 -0.19619554 -0.0159985
-0.3554112 0.06390837 -0.0042804987 -0.053459916 -0.263511 -0.14634632 -0.122977175 0.27728054
0.071459085 -0.1751557 0.24050556 -0.037601348 0.08023208 0.03346631 -0.015144835 0.095414266
0.03005022 -0.043370288 0.008119324 0.020324098 0.066033185 0.048668593 0.034854084 0.0022145365
0.17354448 0.07637719 0.12973495 -0.21184145 -0.013869519 0.020956816 0.012071235 0.37001914
0.0056660934 -0.19355577 0.113716274 -0.32775334 0.13439965 -0.101674445 0.18177305 0.2590635
0.008584693 -0.007707604 -0.2803547 -0.08612855 0.14496803 -0.030598553 -0.05212797 -0.07736964
-0.14157763 0.0321788 -0.09057363 -0.124799095 0.044043638 -0.04438519 -0.10931044 -0.12639432
-0.043220628 -0.29977748 -0.1207967 -0.053070508 -0.12857255 -0.08385263 -0.023271812 0.037119135
0.07605999 -0.0118688885 0.020467717 -0.08470447 -0.09292259 0.035458248 -0.083405495 -0.070234865
-0.01748394 0.12768318 -0.0010061968 -0.012510787 0.077748604 0.22715063 -0.061931204 0.013978389
0.14753997 -0.15623021 0.024712924 0.14223611 -0.03691451 -0.22846885 -0.22634193 0.13123749
-0.21495816 0.06326962 0.18462442 0.012063581 0.10967783 -0.16814552 -0.21427904 -0.030154927
0.03446261 -0.06775106 -0.033756234 -0.13941607 0.07631417 -0.010454184 0.010768918 -0.0018271736
-0.006890362 -0.06991243 0.046135098 -0.10515429 0.12654409 0.014104396 0.05312976 -0.111141294
-0.028866196 0.014961421 -0.044322796 0.07081412 0.06444129 -0.020438783 0.06945226 -0.07046544
0.15173653 -0.59475195 0.08493976 -0.13753383 -0.19089748 -0.32730427 0.25818732 -1.7580382
0.08934876 -0.41620773 0.4946966 1.3109889 0.44840866 0.038185753 -0.2413255 0.72673184
0.12997192 0.41381362 -0.21119055 -0.2905309 0.17922792 0.33577797 0.3415971 -0.15389654
-0.21780513 -0.03337495 0.011073769 -0.32646766 -0.2546123 -0.05457981 -0.28841642 -0.21954653
-0.022522883 -0.23221458 0.10780716 0.039173245 0.013420527 0.001420753 -0.006054469 0.002150194
0.014975198 -0.00871893 -0.0017851584 -0.0033137244 -0.009000542 -0.03391121 0.0058623212 -0.006483449
0.063545175 -0.07191385 0.31855536 0.15838516 0.1944283 -0.12462745 -0.065860935 0.0654384
-0.0047208825 -0.23922408 0.1584249 -0.1362508 0.04059051 -0.100156344 -0.09143456 -0.3767404
0.092130125 -0.30446607 -0.044447143 0.0684227 0.02682847 -0.25469697 0.11577188 -0.09001683
0.1941381 0.1578324 -0.09725797 0.30231804 0.04078133 0.11940678 0.10691919 0.11063876
-0.0968181 0.0023540545 0.08933652 0.021955654 -0.013572134 -0.0046900595 0.030193726 -0.07168319
0.029357139 0.06621303 -0.02591996 0.027070504 -0.00944884 0.09689424 0.0050881826 0.10149776
0.048248995 -0.16542864 -0.13622405 0.17786762 -0.00032468376 0.10470625 -0.23272713 -0.28488734
-0.097764544 -0.0022145447 -0.03019828 0.03778666 0.050668582 0.0902231 -0.04404226 0.20039955
00000000: 4f54 3bbd 350f b1bd caad 713d 3bcc 70be
00000010: 2486 b73e 602c 22bf 4f2b ff3e b52f 543f
00000020: 0bee 4a3d dec5 973d 70c5 46be 6987 4d3f
00000030: 63a2 633d 208d 99bd 06c5 ed3d c6c0 6ebe
00000040: 0129 bcbe 8d79 28bf c183 953e db63 d83e
00000050: a03a d03e d764 c9bd 7ce7 48be 490f 83bc
00000060: 75f8 b5be 64e2 823d 6d43 8cbb c9f8 5abd
00000070: eaea 86be cfdb 15be 75db fbbd b7f7 8d3e
00000080: 2459 923d 045c 33be 1747 763e df03 1abd
00000090: b750 a43d f813 093d 0b22 78bc 8e68 c33d
000000a0: e12b f63c 0ba5 31bd ea06 053c b97e a63c
000000b0: 683c 873d b858 473d 28c3 0e3d c221 113b
000000c0: a5b5 313e a56b 9c3d 3dd9 043e f7ec 58be
000000d0: fb3c 63bc a1ad ab3c 6ec6 453c 2673 bd3e
000000e0: a3aa b93b 7c33 46be 14e4 e83d 49cf a7be
000000f0: 10a0 093e b13a d0bd b722 3a3e f9a3 843e
00000100: d0a6 0c3c 1290 fcbb a78a 8fbe 2a64 b0bd
00000110: 8072 143e d1a9 fabc 2384 55bd f973 9ebd
00000120: baf9 10be ebcd 033d ab7e b9bd ab96 ffbd
00000130: 1a67 343d 3fcd 35bd 27de dfbd 836d 01be
00000140: 1d08 31bd 6f7c 99be 4364 f7bd 7660 59bd
00000150: 86a8 03be edba abbd 87a4 bebc 3c0a 183d
00000160: 57c5 9b3d ba75 42bc eaab a73c 8a79 adbd
00000170: 334e bebd ab3c 113d 80d0 aabd 4cd7 8fbd
00000180: 7b3a 8fbc 61bf 023e 5de2 83ba 0bfa 4cbc
00000190: a93a 9f3d 2d9a 683e 93ab 7dbd 9d05 653c
000001a0: b814 173e d0fa 1fbe c272 ca3c 58a6 113e
000001b0: ab33 17bd bdf3 69be 2ec6 67be 1f63 063e
000001c0: fe1d 5cbe 8193 813d 2f0e 3d3e 53a6 453c
000001d0: c59e e03d 572e 2cbe f76b 5bbe 7707 f7bc
000001e0: aa28 0d3d 11c1 8abd fa43 0abd 16c3 0ebe
000001f0: 9b4a 9c3d 0748 2bbc 1e70 303c c67d efba
00000200: 8cc8 e1bb 402e 8fbd 28f8 3c3d 225b d7bd
00000210: c694 013e 2016 673c 979e 593d 0c9e e3bd
00000220: cd78 ecbc bf20 753c d28b 35bd fe06 913d
00000230: ccf9 833d 3c6f a7bc fd3c 8e3d 2f50 90bd
00000240: d260 1b3e aa41 18bf e6f4 ad3d abd5 0cbe
00000250: a17a 43be 6d94 a7be 2131 843e 6507 e1bf
00000260: 7cfc b63d 2e19 d5be df48 fd3e 7cce a73f
00000270: d295 e53e aa68 1c3d 081e 77be 190b 3a3f
00000280: 5c17 053e 61df d33e 5642 58be 77c0 94be
00000290: 8687 373e 17eb ab3e d1e5 ae3e 0e97 1dbe
000002a0: 4f08 5fbe 2cb4 08bd c16e 353c c526 a7be
000002b0: 8b5c 82be 148f 5fbd 51ab 93be ced0 60be
000002c0: e981 b8bc a9c9 6dbe 00ca dc3d 2074 203d
000002d0: c5e1 5b3c 8f38 ba3a 9164 c6bb 45ea 0c3b
000002e0: 885a 753c d8d9 0ebc fafb e9ba 122b 59bb
000002f0: 0277 13bc 7be6 0abd b718 c03b 1d73 d4bb
00000300: f923 823d 9247 93bd b019 a33e b82f 223e
00000310: 3618 473e ad3c ffbd 19e2 86bd 9104 863d
00000320: a2b1 9abb 28f7 74be 233a 223e 5485 0bbe
00000330: 3c42 263d c51e cdbd 0b42 bbbd 1ee4 c0be
00000340: b8ae bc3d fae2 9bbe 350e 36bd 3321 8c3d
00000350: 61c7 db3c a467 82be cf19 ed3d be5a b8bd
00000360: 23cc 463e d19e 213e 302f c7bd 6ec9 9a3e
00000370: 530a 273d 8b8b f43d 73f8 da3d 9396 e23d
00000380: 9148 c6bd 7b46 1a3b 11f6 b63d 58dc b33c
00000390: a85d 5ebc 12af 99bb d558 f73c a3ce 92bd
000003a0: 627e f03c b29a 873d 1956 d4bc f6c2 dd3c
000003b0: 4fcf 1abc 7d70 c63d c5ba a63b 0fde cf3d
000003c0: bda0 453d 2066 29be 517e 0bbe ee22 363e
000003d0: 513a aab9 3b70 d63d 0550 6ebe c1dc 91be
000003e0: c738 c8bd e521 11bb 6262 f7bc 2fc6 1a3d
000003f0: dc89 4f3d e3c6 b83d a865 34bd 8a35 4d3e

critic.0.bias f4 [128]
0.031454675 0.008998136 -0.18424395 -0.2955164 -0.042549368 0.11488862 -0.12427862 0.064212166
0.08206219 -0.033768326 -0.18246606 0.04543219 -0.04741973 0.07315282 0.025675813 0.032312844
0.12915954 -0.114762865 0.07785978 -0.17054048 0.074341945 -0.08706076 -0.025198717 0.039881047
-0.074004434 -0.18602045 0.017807962 0.061331533 -0.0114944875 -0.22304977 -0.086160816 -0.1600628
-0.18505761 -0.18356027 -0.08845745 -0.008312422 0.124334976 -0.011075582 -0.12592676 -0.08450702
0.06482704 -0.15675223 0.0073380326 -0.21421066 -0.15296632 -0.24740608 -0.016887568 -0.0419856
-0.21614793 -0.14015065 -0.084497415 -0.060547918 -0.15841796 -0.10470574 -0.020810863 0.07312159
-0.15185376 0.047670208 -0.22042108 0.04715252 -0.03603276 -0.001267784 -0.23086174 -0.06784658
-0.0780446 0.010391966 0.10504072 -0.017893165 -0.0023209653 0.060966156 0.03552343 0.112047836
-0.19810472 -0.06169207 -0.016987812 -0.21706967 -0.04418965 -0.14070562 0.045537908 -0.14003594
0.08996018 -0.040310156 -0.15951155 -0.058886476 0.1241892 0.11039851 -0.1281891 -0.22750308
0.113727905 -0.0023447827 0.022354338 -0.13613875 -0.014264121 -0.11023657 -0.0076681743 -0.20116106
-0.016546937 0.009653587 -0.014431043 -0.07803868 0.074014515 -0.24172615 -0.12213237 -0.028717613
0.060499948 0.06518802 -0.25704113 -0.17278925 0.12509796 -0.053928383 -0.09325707 -0.057048406
0.086329035 0.0831831 -0.21638568 0.098276705 0.10681389 -0.07429387 -0.017046649 0.08314223
-0.25480258 -0.14227578 -0.12579317 0.007203714 -0.20368513 -0.096014336 0.042786494 -0.3228103
00000000: 9ed6 003d eb6c 133c 72aa 3cbe ed4d 97be
00000010: 3f48 2ebd ba4a eb3d ca85 febd ab81 833d
00000020: 3910 a83d a850 0abd 62d8 3abe 1b17 3a3d
00000030: 313b 42bd 25d1 953d 1556 d23c 795a 043d
00000040: 6642 043e cb08 ebbd f374 9f3d 2aa2 2ebe
00000050: 9740 983d e94c b2bd 8a6d cebc 4f5a 233d
00000060: a38f 97bd 257c 3ebe 01e2 913c c636 7b3d
00000070: 6053 3cbc 2967 64be 1575 b0bd 81e7 23be
00000080: be7f 3dbe 39f7 3bbe 2e29 b5bd d330 08bc
00000090: 56a3 fe3d 5c76 35bc f2f2 00be 0412 adbd
000000a0: 0ac4 843d a883 20be e173 f03b 0a5a 5bbe
000000b0: 34a3 1cbe 0558 7dbe cc57 8abc 18f9 2bbd
000000c0: e255 5dbe a783 0fbe fb0c adbd 1801 78bd
000000d0: 5138 22be f76f d6bd 8b7b aabc c6c0 953d
000000e0: 8d7f 1bbe d641 433d 10b6 61be 0023 413d
000000f0: 1697 13bd c62b a6ba 0567 6cbe 26f3 8abd
00000100: d9d5 9fbd 1143 2a3c 971f d73d b094 92bc
00000110: 561b 18bb a6b7 793d 0481 113d 5679 e53d
00000120: f7db 4abe d3b0 7cbd 062a 8bbc 8347 5ebe
00000130: 3500 35bd 2215 10be f585 3a3d 9565 0fbe
00000140: 0b3d b83d 431c 25bd ff56 23be f232 71bd
00000150: e856 fe3d 9d18 e23d 0144 03be 91f6 68be
00000160: 2dea e83d edaa 19bb 7220 b73c f567 0bbe
00000170: 0fb4 69bc b6c3 e1bd 4f45 fbbb 2afd 4dbe
00000180: 718d 87bc 142a 1e3c 2e70 6cbc bed2 9fbd
00000190: ec94 973d 0f87 77be 8920 fabd 3341 ebbc
000001a0: cbce 773d 4c81 853d e59a 83be aaef 30be
000001b0: ae19 003e 02e4 5cbd 90fd bebd 97ab 69bd
000001c0: 47cd b03d e75b aa3d 3594 5dbe 4c45 c93d
000001d0: 3ec1 da3d 6227 98bd 6aa5 8bbc 7946 aa3d
000001e0: 7c75 82be beb0 11be edcf 00be 220d ec3b
000001f0: d692 50be 2aa3 c4bd e440 2f3d 6447 a5be

critic.2.weight f4 [64, 128]
0.21039443 -0.004269295 0.007834073 -0.06317791 -0.076106146 -0.084188975 0.0022160101 -0.04624536
0.046961814 -0.051462427 0.020938307 -0.07712836 -0.12803742 -0.15747492 0.069161564 -0.0072416957
0.06344613 -0.004190153 -0.02206978 0.0572627 0.010044402 -0.011061154 -0.10376143 0.0011944023
-0.009142145 -0.06455663 0.03396141 -0.019766564 0.09703105 -0.1219806 -0.058635376 0.04282883
0.031068018 0.12704031 0.029139556 0.021089591 -0.054186933 0.080411024 -0.10887237 0.027183777
0.06591415 0.092424676 -0.008349672 0.12080494 0.041847438 0.06138938 -0.22985584 0.057117485
0.06168284 -0.0269074 0.064343676 0.035827156 0.09700611 0.020978343 -0.03698048 -0.019454785
0.038705893 -0.15726699 -0.07066957 0.012806129 0.060421098 0.032298665 -0.025135987 -0.050912302
-0.14691676 -0.015346624 0.018976612 -0.0596619 -0.034378745 0.038275048 0.04466278 0.05469556
-0.17216906 0.08312555 0.016349575 0.040482618 0.017906675 -0.15262079 -0.022703402 -0.012144741
-0.03283977 -0.14754659 0.036842257 0.07763573 0.07590346 0.02298882 -0.2195756 -0.15545478
0.09344777 0.0024697739 -0.061685894 -0.019854601 -0.020467931 0.023017284 0.077428274 0.02877959
-0.021915715 0.093331456 0.052881874 -0.039490696 -0.17041606 0.15886545 0.038216338 0.006951223
-0.068605654 0.060916133 0.030512262 0.0019958122 0.073743 -0.07645031 -0.06108103 0.050680533
-0.027984183 -0.05497985 0.08596403 0.036958203 -0.04639646 -0.033368766 0.056404904 -0.006042819
-0.011711725 0.057776187 0.012887314 0.0050916458 -0.028980874 -0.16687979 0.0036302435 0.0045947675
0.19022758 -0.07491965 0.08876117 -0.024167676 -0.026323827 -0.08351718 0.02377493 0.07876268
-0.009746738 -0.16470057 -0.014405845 -0.11398543 0.20328918 0.10985244 -0.023552127 0.044168256
-0.0020389664 -0.08774311 0.18379457 0.18814927 0.04136503 0.15594004 0.063486315 -0.09579116
-0.20980133 0.16445613 -0.01871164 0.00023383001 -0.011110077 0.2138621 -0.13445356 0.06413369
0.18035394 0.13693717 -0.08788103 -0.0041102273 0.003051695 -0.122924075 0.045517467 -0.00057215226
-0.06592459 0.06275758 -0.0379491 0.14057767 -0.016302487 0.21341267 0.13993123 -0.10463136
0.02978684 0.12827456 0.008545042 0.06873231 0.07170049 0.14978957 0.02058904 -0.03367464
0.17732121 -0.037666045 0.05683762 -0.002356531 -0.035727244 0.0065235975 0.10904473 0.045131788
0.058960695 0.048311245 -0.027694484 -0.032935787 -0.027645813 -0.008210332 -0.05586383 -0.006012992
0.09202955 0.051057346 0.022901407 0.05402223 0.0141716 0.16364622 -0.102335274 0.12529631
-0.078499235 0.17212184 0.28051427 0.083759435 -0.07689509 -0.018920017 -0.11430977 0.0025839708
0.04429861 -0.15730368 0.21052413 0.16703677 -0.10107105 0.015356112 -0.03013733 0.09858599
0.051420067 -0.043167204 0.07793669 0.07797701 -0.02839426 -0.014215325 0.025165979 -0.123958886
0.082283236 -0.13533491 0.1959605 0.11399202 -0.11042405 -0.040429246 -0.16596228 0.14702503
0.0056158924 0.13191235 0.109313086 -0.215905 0.1635575 0.0016579294 0.061756864 -0.08407133
0.056342486 -0.0551607 -0.03488002 -0.015959559 0.17981622 0.110669196 -0.026488515 0.06269465
00000000: a371 573e 71e5 8bbb 7c5a 003c 6c63 81bd
00000010: 8add 9bbd 456b acbd 7b3a 113b c66b 3dbd
00000020: 085b 403d 44ca 52bd d086 ab3c 79f5 9dbd
00000030: 3e1c 03be 1b41 21be 94a4 8d3d bf4b edbb
00000040: 0bf0 813d 8d4d 89bb afcb b4bc 4b8c 6a3d
00000050: 4791 243c d839 35bc df80 d4bd 7e8d 9c3a
00000060: efc8 15bc 4436 84bd 1f1b 0b3d 7ded a1bc
00000070: 37b8 c63d f7d0 f9bd a62b 70bd 496d 2f3d
00000080: 5b82 fe3c db16 023e 14b6 ee3c 14c4 ac3c
00000090: 1ef3 5dbd 89ae a43d 7af8 debd 83b0 de3c
000000a0: fffd 863d 2649 bd3d 10cd 08bc 9568 f73d
000000b0: 3868 2b3d 6e73 7b3d 545f 6bbe 06f4 693d
000000c0: 25a7 7c3d e86c dcbc 9ec6 833d 7fbf 123d
000000d0: 24ab c63d c6da ab3c d878 17bd a45f 9fbc
000000e0: 128a 1e3d 990a 21be 35bb 90bd ccd0 513c
000000f0: 1d7c 773d 9b4b 043d fce9 cdbc 6b89 50bd
00000100: 5971 16be 6870 7bbc d774 9b3c 0960 74bd
00000110: bad0 0cbd 4cc6 1c3d 52f0 363d 7408 603d
00000120: 164d 30be ba3d aa3d 8bef 853c 1ad1 253d
00000130: 05b1 923c a048 1cbe 7cfc b9bc bcfa 46bc
00000140: ff82 06bd 7416 17be e8e7 163d 7bff 9e3d
00000150: 4673 9b3d 0d53 bc3c 6dd8 60be 8a2f 1fbe
00000160: 8b61 bf3d eedb 213b 59aa 7cbd 1ea6 a2bc
00000170: 5dac a7bc be8e bc3c b792 9e3d 2dc3 eb3c
00000180: 9688 b3bc 9024 bf3d aa9a 583d ffc0 21bd
00000190: 8c81 2ebe a0ad 223e bc88 1c3d 16c7 e33b
000001a0: 1f81 8cbd 3283 793d daf4 f93c 2ccc 023b
000001b0: 9206 973d fb91 9cbd 1a30 7abd 6496 4f3d
000001c0: 163f e5bc 8d32 61bd e90d b03d 7c61 173d
000001d0: 370a 3ebd b0ad 08bd d408 673d d702 c6bb
000001e0: 89e2 3fbc b9a6 6c3d 5025 533c d2d7 a63b
000001f0: 4c69 edbc 89e2 2abe 61e9 6d3b b48f 963b
00000200: 05cb 423e 796f 99bd 6bc8 b53d 4afb c5bc
00000210: 11a5 d7bc 0e0b abbd a4c3 c23c 544e a13d
00000220: c8b0 1fbc 44a7 28be 7e06 6cbc 3171 e9bd
00000230: 0a2b 503e 51fa e03d 64f0 c0bc c6e9 343d
00000240: 2ea0 05bb a9b2 b3bd a534 3c3e 34aa 403e
00000250: 616e 293d bfae 1f3e 1d05 823d 282e c4bd
00000260: 29d6 56be 3067 283e 2749 99bc 4430 7539
00000270: 0a07 36bc abfe 5a3e 32ae 09be 8658 833d
00000280: b4ae 383e 4239 0c3e f8fa b3bd 16af 86bb
00000290: f2fe 473b 9ebf fbbd 8670 3a3d 7dfc 15ba
000002a0: 7903 87bd 0c87 803d 8470 1bbd 98f3 0f3e
000002b0: cb8c 85bc da88 5a3e 224a 0f3e f748 d6bd
000002c0: 8803 f43c 685a 033e 8100 0c3c 86c3 8c3d
000002d0: b5d7 923d 7062 193e 59aa a83c 6bee 09bd
000002e0: b193 353e b647 1abd 90ce 683d 0870 1abb
000002f0: bb56 12bd e7c3 d53b d852 df3d 1cdc 383d
00000300: c580 713d 03e2 453d 8bdf e2bc ade7 06bd
00000310: 7979 e2bc a184 06bc 79d1 64bd a208 c5bb
00000320: fd79 bc3d 8221 513d bb9b bb3c 6a46 5d3d
00000330: 0030 683c e092 273e 2895 d1bd ad4d 003e
00000340: 35c4 a0bd b540 303e 919f 8f3e 118a ab3d
00000350: 2c7b 9dbd 27fe 9abc 3e1b eabd d657 293b
00000360: 7672 353d 3714 21be a393 573e b00b 2b3e
00000370: 57fe cebd 3498 7b3c 90e2 f6bc 74e7 c93d
00000380: d99d 523d 18d0 30bd 459d 9f3d 69b2 9f3d
00000390: 149b e8bc 65e7 68bc e228 ce3c 28de fdbd
000003a0: 1d84 a83d 3c95 0abe dfa9 483e a674 e93d
000003b0: 0126 e2bd 2399 25bd 04f2 29be bb8d 163e
000003c0: 8505 b83b 0814 073e 8adf df3d 3316 5dbe
000003d0: 9e7b 273e e14e d93a c4f4 7c3d 972d acbd
000003e0: 61c7 663d 30f0 61bd 5ade 0ebd 9fbd 82bc
000003f0: be21 383e 88a6 e23d 71fe d8bc 0d66 803d

critic.2.bias f4 [64]
-0.08600688 0.023362854 0.024880938 -0.021801105 0.009269907 0.0291008 -0.07460028 -0.06472688
0.023960082 -0.12202712 -0.22777371 0.009782428 -0.19476862 -0.038302142 0.100342914 0.05238225
-0.04680127 -0.046543267 0.040099278 -0.14872585 -0.058360994 0.055257853 0.076678984 -0.1740342
0.11253492 0.020715198 -0.022621905 0.07955668 -0.1652555 -0.06633914 0.04590067 0.08687504
-0.15707333 -0.20310265 -0.055170085 -0.096824996 -0.0811454 -0.13912502 0.016055433 -0.15005505
0.027110556 -0.13836041 -0.083610654 -0.18208954 -0.27438974 -0.10183221 -0.14171895 -0.07277326
0.06902856 0.018181598 0.054523382 0.026545051 0.14679608 -0.0812691 -0.106174834 -0.117632344
0.060756426 0.037924383 -0.07702783 0.1276487 0.02351658 -0.007042253 -0.00027693217 -0.2433538
00000000: 6024 b0bd 7563 bf3c 1cd3 cb3c 3b98 b2bc
00000010: cfe0 173c cd64 ee3c 08c8 98bd 878f 84bd
00000020: ef47 c43c 5be9 f9bd 833d 69be 7a46 203c
00000030: 6d71 47be b5e2 1cbd 9680 cd3d c58e 563d
00000040: b0b2 3fbd 27a4 3ebd 243f 243d 974b 18be
00000050: f00b 6fbd 0f56 623d df09 9d3d 0536 32be
00000060: b578 e63d ebb2 a93c 9351 b9bc 9dee a23d
00000070: bd38 29be d1dc 87bd 5702 3c3d 8aeb b13d
00000080: d5d7 20be 24fa 4fbe 07fa 61bd 2f4c c6bd
00000090: 8f2f a6bd ca76 0ebe af86 833c 08a8 19be
000000a0: f516 de3c 5aae 0dbe 103c abbd ae75 3abe
000000b0: d07c 8cbe 688d d0bd c61e 11be 260a 95bd
000000c0: d85e 8d3d 93f1 943c e953 5f3d 0275 d93c
000000d0: b651 163e 6a70 a6bd 3172 d9bd 3ae9 f0bd
000000e0: bbdb 783d 9956 1b3d c4c0 9dbd 57b6 023e
000000f0: d8a5 c03c b3c2 e6bb 3531 91b9 bd31 79be
