isaacgym/legged_gym/logs/flat_anymal_c/Mar26_18-44-56_/model_250.pt (torch, 418700 bytes, 48 tensors)

std f4 [12]
0.4322234 0.52195716 0.43985042 0.42023116 0.5285346 0.47571015 0.41889068 0.5384971
0.47637057 0.40128714 0.51255786 0.46494785
00000000: 634c dd3e fc9e 053f 1334 e13e 8a28 d73e
00000010: 0b4e 073f 4890 f33e d778 d63e f2da 093f
00000020: d8e6 f33e 8275 cd3e fe36 033f a50d ee3e

actor.0.weight f4 [128, 48]
0.11695964 0.100949965 0.002352335 0.06278528 0.93241125 0.13929461 1.5820861 -0.7401659
0.23868582 -0.12794301 0.24468778 -0.6705503 0.5243866 0.34420282 -0.21245952 -0.42547417
0.44476146 -0.28435925 -0.6459767 -0.6370683 0.39664784 0.586709 0.17748101 0.48465213
-0.30450448 -0.015270076 -0.10627265 0.42653027 0.10975978 0.014959528 -0.1178189 -0.5516338
0.34632078 -0.20932364 -0.11501993 0.04185633 -0.30757004 -0.16235729 0.15298189 0.12411441
-0.18280272 0.70332694 -0.18497816 -0.18202366 -0.26807982 -0.082867876 -0.11515224 -0.053346824
-0.13622354 0.033406086 0.32873923 -0.34484816 0.47232014 0.66755676 0.8539182 -0.19704054
0.06064591 0.18146357 -0.22352068 -1.3056983 0.48285958 -0.36041453 -0.2128882 -0.3024905
0.40528718 0.30003667 -0.33993414 -0.026362186 0.26142818 -0.2472254 -0.53257495 -0.48649064
0.33406135 -0.15558739 0.06961052 0.101298116 0.32704276 0.069767386 0.2240794 -0.035391957
-0.20655508 -0.6232876 0.047046535 -0.3613433 0.09059143 0.09472955 -0.047022447 0.21920826
-0.05448054 0.10761791 -0.03989812 -0.0072546913 0.005796007 -0.010832388 0.21462977 -0.15003069
0.17576724 -0.21144328 0.23038682 0.37132847 -0.6488364 0.8090908 0.00623463 -0.32117006
0.033161663 -0.22404954 0.2903381 -0.7079378 0.5315044 0.16916233 -0.021099314 0.368162
-0.5067093 -0.38368818 0.6659857 -0.60566556 -0.24351823 -0.6017228 -0.0846648 0.06222339
0.14488311 0.11912103 -0.06873064 0.25746992 -0.6457526 -0.40898067 1.1181793 0.2762258
0.009984313 0.10800006 0.00028693172 -0.18742259 -0.18066221 -0.027647784 0.122852154 -0.117185205
-0.06573693 0.058000088 0.014479118 0.19622034 -0.012012356 -0.15438955 -0.042106103 0.11164441
-0.2837288 0.4069307 0.10546974 -0.12826382 -0.4210184 -1.1857238 -0.097443506 0.23378703
0.039500065 0.5447558 -0.3762912 0.6269659 -0.2538473 -0.30700547 0.022134349 0.24426565
0.6137545 -0.15680379 -0.29981342 0.26667616 0.29774824 -0.017976498 -0.24057063 0.1044874
0.022941323 -0.32355237 -0.48710677 0.67988664 0.42222896 -0.35277626 -0.019864772 0.063671835
0.32549784 -0.07604304 -0.5059688 -0.31108007 0.21542446 0.10431674 0.014763326 0.3102139
0.039109256 0.09961161 -0.08727992 -0.055695936 0.03448307 0.036544885 -0.038346935 -0.16338822
-0.1446078 -0.17551185 -0.07666498 -0.06874362 -1.0743108 0.34193236 -0.12060229 -0.42481577
0.1247564 -0.07974424 -0.11433367 -1.1695035 0.27825814 0.32610884 -0.4877902 0.0844343
-0.24149546 -0.38604203 0.1954368 -0.28553462 0.435552 0.35179654 0.3304534 0.8968424
0.43566567 0.95056975 -0.11634599 -0.3918926 -0.35391217 -0.0046242457 0.041192 -0.66938025
0.15113112 0.083918735 0.38009867 0.45593506 -0.015684305 -0.10828981 0.15665805 0.058018994
-0.05358926 -0.025930231 -0.28465822 0.10796032 0.07472489 0.04211992 0.12453831 -0.066909485
-0.19192982 -0.02415023 -0.07802919 -0.18970335 0.093384445 0.48968446 -0.7176292 -0.49986008
-0.049544066 -0.039067682 -0.072300114 -0.52917916 0.6813261 -0.15753847 -0.011369029 0.6143013
00000000: 8988 ef3d dbbe ce3d a229 1a3b 9295 803d
00000010: 81b2 6e3f 3fa3 0e3e cc81 ca3f 837b 3dbf
00000020: 0e6a 743e 7e03 03be 6f8f 7a3e 2fa9 2bbf
00000030: 333e 063f 5a3b b03e fd8e 59be c0d7 d9be
00000040: c6b7 e33e 8997 91be bb5e 25bf e816 23bf
00000050: 6d15 cb3e 9032 163f 95bd 353e 5324 f83e
00000060: 03e8 9bbe 572f 7abc 7aa5 d9bd 2d62 da3e
00000070: bcc9 e03d cf18 753c 094b f1bd df37 0dbf
00000080: f550 b13e f058 56be 928f ebbd 8b71 2b3d
00000090: d279 9dbe fd40 26be 49a7 1c3e b22f fe3d
000000a0: a330 3bbe 3c0d 343f ea6a 3dbe 6964 3abe
000000b0: c241 89be a2b6 a9bd f0d4 ebbd 3382 5abd
000000c0: 2f7e 0bbe d2d4 083d 8250 a83e f08f b0be
000000d0: f2d3 f13e 00e5 2a3f 629a 5a3f ffc4 49be
000000e0: d967 783d 96d1 393e 9be2 64be 1f21 a7bf
000000f0: 5f39 f73e 4188 b8be 5dff 59be 09e0 9abe
00000100: cd81 cf3e 689e 993e d90b aebe 83f5 d7bc
00000110: ead9 853e a828 7dbe d556 08bf 4d15 f9be
00000120: 170a ab3e 4d52 1fbe f68f 8e3d 6375 cf3d
00000130: 2672 a73e 34e2 8e3d 1275 653e 28f7 10bd
00000140: 2d83 53be c78f 1fbf deb3 403d fd01 b9be
00000150: 0088 b93d 9101 c23d 9c9a 40bd 2178 603e
00000160: fd26 5fbd c766 dc3d 366c 23bd c3b8 edbb
00000170: 6eec bd3b 547a 31bc e8c7 5b3e a5a1 19be
00000180: 54fc 333e 9684 58be 86ea 6b3e c41e be3e
00000190: 241a 26bf 9320 4f3f de4b cc3b 6770 a4be
000001a0: 86d4 073d 3e6d 65be 32a7 943e 693b 35bf
000001b0: ac10 083f e438 2d3e 78d8 acbc bb7f bc3e
000001c0: b3b7 01bf c772 c4be 0a7e 2a3f e60c 1bbf
000001d0: d85c 79be 810a 1abf bd64 adbd f4dd 7e3d
000001e0: 3d5c 143e baf5 f33d a6c2 8cbd 19d3 833e
000001f0: 0b50 25bf ea65 d1be 8020 8f3f 786d 8d3e
00000200: 3e95 233c 232f dd3d 536f 9639 b5eb 3fbe
00000210: 84ff 38be 9b7d e2bc e999 fb3d ccfe efbd
00000220: 15a1 86bd 8091 6d3d d339 6d3c fced 483e
00000230: 79cf 44bc 4b18 1ebe 7377 2cbd d3a5 e43d
00000240: e744 91be 3959 d03e 8500 d83d 9757 03be
00000250: b98f d7be ccc5 97bf 7690 c7bd de65 6f3e
00000260: d2ca 213d 1e75 0b3f 3da9 c0be d680 203f
00000270: 46f8 81be d22f 9dbe 1853 b53c c620 7a3e
00000280: 041f 1d3f 2c91 20be 2581 99be c789 883e
00000290: 7572 983e 7343 93bc 2658 76be 7dfd d53d
000002a0: 71ef bb3c a8a8 a5be 0f66 f9be 0d0d 2e3f
000002b0: 652e d83e 179f b4be 72bb a2bc 6166 823d
000002c0: a7a7 a63e 74bc 9bbd 2c87 01bf e345 9fbe
000002d0: 3b98 5c3e 04a4 d53d e1e1 713c 5bd4 9e3e
000002e0: 0731 203d 2c01 cc3d d1bf b2bd 6c21 64bd
000002f0: 1f3e 0d3d 17b0 153d ad11 1dbd 3e4f 27be
00000300: 1114 14be 61b9 33be 8702 9dbd 74c9 8cbd
00000310: 0483 89bf c211 af3e 55fe f6bd 7481 d9be
00000320: 4980 ff3d f350 a3bd c527 eabd 4ab2 95bf
00000330: da77 8e3e bdf7 a63e a3bf f9be e4eb ac3d
00000340: 964a 77be 4da7 c5be 9620 483e 9831 92be
00000350: ac00 df3e ad1e b43e 3031 a93e 7797 653f
00000360: 920f df3e 8a58 733f ce46 eebd 26a6 c8be
00000370: fa33 b5be fc86 97bb f1b8 283d 815c 2bbf
00000380: 1ec2 1a3e 96dd ab3d 4b9c c23e 5270 e93e
00000390: 5f7c 80bc 0cc7 ddbd f86a 203e 53a5 6d3d
000003a0: 6980 5bbd a36b d4bc b9be 91be 4d1a dd3d
000003b0: 5d09 993d f085 2c3d f10d ff3d d707 89bd
000003c0: 4089 44be b4d6 c5bc c5cd 9fbd 9841 42be
000003d0: 5840 bf3d ecb7 fa3e 8cb6 37bf a9ed ffbe
000003e0: b8ee 4abd 6f05 20bd 1512 94bd 4978 07bf
000003f0: 636b 2e3f c451 21be 2a45 3abc da42 1d3f

actor.0.bias f4 [128]
-0.03580872 -0.075991295 -0.016806444 -0.14137088 -0.20752744 -0.016361462 -0.28622547 -0.26348725
-0.29164737 -0.18439776 -0.20296647 0.0670578 -0.14399569 -0.07335433 -0.11216009 -0.039182622
0.045487955 -0.17094229 -0.0494109 -0.08898728 -0.046525113 -0.07355019 -0.14367282 0.057003856
0.09107113 0.033667464 -0.24205929 -0.1870596 -0.2670388 0.10771798 -0.10467272 -0.027325712
0.032907657 0.017063428 -0.17665087 -0.01106203 -0.02586013 -0.061007533 0.061376736 0.09302403
-0.03301188 -0.0038358665 -0.06742296 -0.06177328 -0.09354046 -0.15686832 -0.15358019 -0.19483414
0.035834946 -0.019675871 0.027202066 0.10146003 -0.07861479 -0.03352118 -0.059972867 -0.0056545422
-0.13142738 -0.11429121 -0.07744605 -0.044882677 -0.0943335 -0.08802776 -0.08824342 -0.032665208
-0.16196837 -0.34847793 -0.24382241 -0.1492606 -0.3789631 -0.015110401 0.10543402 -0.05591774
-0.2667644 0.0596399 -0.14327171 0.07655895 0.004841689 -0.17987625 -0.158505 -0.06334096
0.020748345 -0.19454972 0.0011733592 -0.22063576 -0.09575174 -0.07266707 0.020071104 -0.32011235
-0.20516114 -0.14173484 0.07673517 -0.2784839 -0.17075096 -0.3471114 -0.07740281 -0.046552014
-0.18528226 0.12115867 -0.2889019 -0.24590947 0.039700687 0.019568507 -0.082092665 -0.07494584
-0.0871146 0.0017885094 0.121014476 -0.3138826 -0.20127094 -0.014313096 -0.439048 0.13157898
-0.102695525 0.12555958 -0.015252329 -0.23883651 -0.27889165 -0.07214522 -0.13926658 0.10743579
-0.00573381 0.12421188 0.17741299 -0.25524533 -0.3109797 -0.22338505 -0.22574088 -0.02114951
00000000: 2aac 12bd 53a1 9bbd abad 89bc 87c3 10be
00000010: 1382 54be 7908 86bc 258c 92be cde7 86be
00000020: ce52 95be c4d2 3cbe 71d6 4fbe 9a55 893d
00000030: 9b73 13be cc3a 96bd 30b4 e5bd f57d 20bd
00000040: 9451 3a3d 7f0b 2fbe 1563 4abd f73e b6bd
00000050: 1e91 3ebd 7ba1 96bd f81e 13be e07c 693d
00000060: 8083 ba3d e5e6 093d 64de 77be 8d8c 3fbe
00000070: 4fb9 88be 3f9b dc3d a75e d6bd 2cda dfbc
00000080: 2eca 063d 9ac8 8b3c f7e3 34be 843d 35bc
00000090: a0d8 d3bc 09e3 79bd 2c66 7b3d 6283 be3d
000000a0: 7737 07bd 2963 7bbb 0d15 8abd fb05 7dbd
000000b0: 2492 bfbd 17a2 20be 2044 1dbe 9a82 47be
000000c0: aac7 123d 4b2f a1bc ded6 de3c 47ca cf3d
000000d0: cb00 a1bd 814d 09bd 1ca6 75bd bd49 b9bb
000000e0: e694 06be 8311 eabd 099c 9ebd e6d6 37bd
000000f0: ec31 c1bd e647 b4bd f7b8 b4bd f4cb 05bd
00000100: 09db 25be b36b b2be 95ac 79be c5d7 18be
00000110: 7407 c2be 9e91 77bc cbed d73d 000a 65bd
00000120: 5895 88be f848 743d d2b5 12be f0ca 9c3d
00000130: 08a7 9e3b 7b31 38be 224f 22be e8b8 81bd
00000140: 6ff8 a93c 0b38 47be 67cb 993a 57ee 61be
00000150: 7d19 c4bd 79d2 94bd 286c a43c c4e5 a3be
00000160: c315 52be f022 11be 5427 9d3d 7195 8ebe
00000170: 57d9 2ebe 96b8 b1be 5d85 9ebd 53ad 3ebd
00000180: a2ba 3dbe 0922 f83d f3ea 93be b1cf 7bbe
00000190: 309d 223d 224e a03c 3320 a8bd 347d 99bd
000001a0: 2469 b2bd 6b6c ea3a 70d6 f73d 38b5 a0be
000001b0: f819 4ebe 7a81 6abc e6ca e0be a4bc 063e
000001c0: 0852 d2bd b192 003e e8e4 79bc 8f91 74be
000001d0: e3ca 8ebe e0c0 93bd e69b 0ebe 4c07 dc3d
000001e0: afe2 bbbb cc62 fe3d c0ab 353e 84af 82be
000001f0: bb38 9fbe 0dbf 64be 9e28 67be bd41 adbc

actor.2.weight f4 [64, 128]
-0.025946109 0.27372876 -0.15790337 0.26533762 -0.048636906 0.119534895 -0.12565735 0.0653442
0.2802286 -0.1633004 0.065874666 -0.23409526 -0.0028334751 -0.21200389 0.2946166 -0.15234655
-0.23751608 -0.090601 0.07647052 0.020131983 0.020852992 0.052254584 -0.21658452 -0.3328248
0.34323776 -0.009410526 -0.057111494 0.0921294 0.05291103 -0.12285368 -0.057509877 -0.12417727
0.08725278 0.19451854 0.09585521 0.112539366 -0.07638043 -0.12237556 0.22777006 -0.29479015
-0.07906387 -0.05045023 0.08945924 -0.04344235 -0.16144976 0.25689745 0.18700215 -0.25976452
0.2536198 -0.0138088325 -0.19822705 0.3306227 -0.15505506 -0.020895308 -0.03295946 0.022092506
0.05646769 -0.28578678 -0.2181013 0.3240509 -0.110308856 0.05609559 -0.28599364 -0.09935576
-0.18045326 0.04612035 -0.14638701 0.0807462 0.32310718 -0.1672057 -0.2841911 0.11105886
-0.21903212 0.2860025 0.30382094 0.04133936 0.030348705 0.269407 0.19742052 -0.10039578
-0.08290455 -0.18585595 0.18257684 -0.021942673 -0.018931974 -0.37075195 -0.06623555 -0.08264484
0.19365598 -0.45531493 -0.052607857 -0.028675735 -0.2008137 0.10586394 0.17146425 -0.033912934
-0.017838579 -0.24217364 -0.27058706 -0.11998184 0.142512 0.21041575 -0.03740564 -0.20161347
-0.11045744 -0.03045657 -0.39233783 0.01941375 0.008927853 -0.1924639 0.56497043 -0.27750668
-0.039371315 -0.002902514 -0.009680212 0.14889121 0.17078026 -0.045740932 -0.18267304 0.020711115
0.1397133 0.16227448 -0.4039799 0.009558529 0.24187544 0.16508217 -0.049367204 -0.38340837
-0.017977938 -0.284396 -0.18972015 0.09060927 -0.08812559 -0.17596681 -0.08352466 -0.067980476
-0.16318779 -0.28951058 -0.049484536 0.037203766 0.04402409 -0.23104753 0.31560642 -0.119425066
-0.22475252 -0.3727502 0.14487186 -0.0288343 -0.17971142 0.23948625 0.00015962611 -0.20210175
-0.2449036 -0.23612767 0.16021068 0.088731796 0.02503724 -0.06122072 0.18857974 -0.14029585
-0.049715947 -0.22885081 -0.15137906 -0.22301804 -0.12453087 0.07510286 -0.04509512 -0.22533996
0.00524088 0.03651864 0.016001804 -0.08217178 -0.039584354 -0.17009142 -0.24000822 0.440118
-0.4941093 -0.17020126 -0.17379494 -0.4548192 0.08949005 0.074941084 -0.106891945 -0.12686096
0.4858564 -0.31882653 0.04556175 0.10936227 0.10202353 0.047282834 0.050697442 0.5915856
0.18030167 0.07875626 0.0116936015 0.055843275 -0.25399065 0.07584829 0.13949881 0.08778736
0.0847188 -0.17819603 0.11341515 0.05190343 -0.35156077 0.21685122 0.12994635 -0.015034304
0.12691058 -0.11610419 0.09122015 -0.12354064 0.12550943 -0.0880394 0.023768913 0.009059972
0.13610314 -0.28083658 -0.034208942 0.092852496 0.25849423 0.15678224 -0.08871278 -0.20887084
-0.1616467 -0.098530814 0.24506629 0.05187723 -0.32295188 -0.50702447 -0.012739666 -0.048895895
0.04351397 -0.13552938 -0.16270396 0.3206846 0.075664006 0.39976102 -0.17648786 -0.1076535
0.33264714 0.049714085 -0.36642325 -0.3867047 0.09424961 -0.039434757 0.49086326 0.019738361
0.3520731 -0.11585707 0.30717713 0.016516868 -0.33188757 0.10670806 -0.13536292 -0.23902377
00000000: ef8c d4bc 2d26 8c3e 6cb1 21be 55da 873e
00000010: 7e37 47bd b6ce f43d 52ac 00be 2ed3 853d
00000020: 207a 8f3e 3838 27be 4ce9 863d abb6 6fbe
00000030: d3b1 39bb 8c17 59be fdd7 963e bc00 1cbe
00000040: 6a37 73be 048d b9bd 939c 9c3d d4eb a43c
00000050: e5d3 aa3c e708 563d 55c8 5dbe 0368 aabe
00000060: dcbc af3e 9b2e 1abc beed 69bd 57ae bc3d
00000070: 3cb9 583d b69a fbbd 7a8f 6bbd a750 febd
00000080: 96b1 b23d de2f 473e bd4f c43d 0a7b e63d
00000090: 586d 9cbd 0aa0 fabd 8e3c 693e bcee 96be
000000a0: 3dec a1bd e6a4 4ebd 6836 b73d 9bf0 31bd
000000b0: 1653 25be 1088 833e 7e7d 3f3e dbff 84be
000000c0: 74da 813e 713e 62bc 08fc 4abe 6147 a93e
000000d0: c1c6 1ebe a32c abbc 8000 07bd 58fb b43c
000000e0: aa4a 673d a552 92be f255 5fbe 00ea a53e
000000f0: 9ce9 e1bd 7dc4 653d c26d 92be 087b cbbd
00000100: bdc8 38be b1e8 3c3d 7ae6 15be 445e a53d
00000110: 4e6e a53e f937 2bbe 7f81 91be d472 e33d
00000120: f549 60be eb6e 923e 6b8e 9b3e 7653 293d
00000130: d99d f83c b7ef 893e 9b28 4a3e 4d9c cdbd
00000140: dcc9 a9bd 0651 3ebe 6cf5 3a3e 1fc1 b3bc
00000150: 3a17 9bbc 33d3 bdbe 81a6 87bd b341 a9bd
00000160: c14d 463e 0a1f e9be 567b 57bd 60e9 eabc
00000170: 1ba2 4dbe 32cf d83d 5394 2f3e 4ae8 0abd
00000180: 3622 92bc 5efc 77be 638a 8abe 0ab9 f5bd
00000190: aaee 113e 3a77 573e a836 19bd c373 4ebe
000001a0: 8337 e2bd 0f80 f9bc 81e0 c8be 9609 9f3c
000001b0: 2146 123c 4215 45be e7a1 103f 5b15 8ebe
000001c0: d143 21bd 1b38 3ebb c099 1ebc f076 183e
000001d0: 05e1 2e3e d85a 3bbd a40e 3bbe 5baa a93c
000001e0: 0111 0f3e 482b 263e 74d6 cebe 609b 1c3c
000001f0: 32ae 773e 4d0b 293e 4435 4abd 1a4e c4be
00000200: 7846 93bc 5a9c 91be 0046 42be 5a91 b93d
00000210: 307b b4bd a530 34be fa0e abbd 5939 8bbd
00000220: b31a 27be bb3a 94be 4cb0 4abd fa62 183d
00000230: 9b52 343d b997 6cbe 2a97 a13e 2195 f4bd
00000240: 8625 66be 1dd9 bebe 4a59 143e e935 ecbc
00000250: 4506 38be e23b 753e 4f61 2739 c3f3 4ebe
00000260: 02c8 7abe 74cb 71be 450e 243e 04b9 b53d
00000270: e61a cd3c 94c2 7abd 0c1b 413e b7a9 0fbe
00000280: f3a2 4bbd de57 6abe 1d03 1bbe d75e 64be
00000290: 0a0a ffbd 87cf 993d a9b5 38bd 85bf 66be
000002a0: b0bb ab3b 9294 153d 3716 833c ae49 a8bd
000002b0: 3423 22bd 722c 2ebe b7c4 75be 2657 e13e
000002c0: e5fb fcbe 3d49 2ebe 4df7 31be 10de e8be
000002d0: 8f46 b73d b67a 993d 2aea dabd d7e7 01be
000002e0: 2cc2 f83e 3b3d a3be f59e 3a3d 53f9 df3d
000002f0: b6f1 d03d a5ab 413d 1fa8 4f3d 2772 173f
00000300: 00a1 383e f64a a13d 8596 3f3c ebbb 643d
00000310: 100b 82be 5956 9b3d c7d8 0e3e dcc9 b33d
00000320: 0d81 ad3d 0579 36be 3446 e83d b198 543d
00000330: c6ff b3be 3f0e 5e3e a810 053e 7152 76bc
00000340: d9f4 013e 09c8 edbd a1d1 ba3d e002 fdbd
00000350: 8b85 003e 004e b4bd 06b7 c23c 4770 143c
00000360: 9f5e 0b3e d0c9 8fbe ad1e 0cbd 7329 be3d
00000370: 5b59 843e 868b 203e 0caf b5bd 3de2 55be
00000380: b686 25be 86ca c9bd a8f2 7a3e 387d 543d
00000390: f359 a5be 5bcc 01bf 08ba 50bc 1047 48bd
000003a0: b43b 323d 37c8 0abe de9b 26be c630 a43e
000003b0: bbf5 9a3d 7aad cc3e 3cb9 34be 7079 dcbd
000003c0: ba50 aa3e ffa0 4b3d d49b bbbe 29fe c5be
000003d0: f105 c13d 5786 21bd 6e52 fb3e 58b2 a13c
000003e0: ed42 b43e 7946 edbd 5246 9d3e 624e 873c
000003f0: 2bed a9be c189 da3d 949c 0abe a6c2 74be

actor.2.bias f4 [64]
-0.085753836 -0.083718814 -0.10767911 -0.2373042 -0.100253224 -0.011397048 -0.027693273 0.038680688
-0.35080186 -0.2397455 -0.05003268 0.10322355 -0.2654653 -0.21256511 -0.3084786 -0.076602764
-0.1799391 -0.14460842 -0.0964589 -0.25528893 -0.16628271 0.15972711 -0.19649537 -0.35770774
-0.19060591 -0.14084886 -0.21946079 -0.060287558 -0.09051651 -0.12150925 -0.035132363 -0.188054
-0.31056014 0.027215313 -0.0059644054 -0.15173846 -0.30497575 -0.10734095 0.03596758 -0.18215638
-0.23255126 -0.25237104 -0.09822956 -0.2343295 -0.03612956 -0.2261984 -0.0745387 -0.25053698
-0.25683874 -0.1447538 -0.047524735 -0.1632494 -0.13584147 -0.08042466 -0.18536499 -0.2978977
-0.13247004 -0.24148268 -0.18919441 0.03127969 -0.20759307 -0.08513395 -0.07368906 -0.18933782
00000000: b59f afbd c574 abbd dd86 dcbd dfff 72be
00000010: 9051 cdbd afba 3abc 01dd e2bc a46f 1e3d
00000020: 4d9c b3be d87f 75be 11ef 4cbd de66 d33d
00000030: 11eb 87be abaa 59be e8f0 9dbe e9e1 9cbd
00000040: f541 38be 3b14 14be 3e8c c5bd 3bb5 82be
00000050: 0446 2abe 818f 233e 1536 49be 7825 b7be
00000060: 322e 43be af3a 10be 54ba 60be 16f0 76bd
00000070: b860 b9bd d7d9 f8bd f4e6 0fbd 3a91 40be
00000080: bd01 9fbe a6f2 de3c 0f71 c3bb 5461 1bbe
00000090: c825 9cbe 92d5 dbbd be52 133d 3487 3abe
000000a0: eb21 6ebe c736 81be 942c c9bd 13f4 6fbe
000000b0: 97fc 13bd 8ea0 67be bfa7 98bd 6246 80be
000000c0: 5e80 83be 573a 14be 4ca9 42bd da2a 27be
000000d0: 071a 0bbe afb5 a4bd 52d0 3dbe 0c86 98be
000000e0: 3aa6 07be 3c47 77be 2ebc 41be 221f 003d
000000f0: 4793 54be b55a aebd 4aea 96bd c6e1 41be

actor.4.weight f4 [32, 64]
0.11968508 -0.06497591 -0.082916945 0.39916486 -0.114037074 0.022431046 0.107329145 -0.18077426
0.09615155 -0.0715981 -0.31620595 -0.052702706 -0.08775732 -0.09107128 0.17907067 -0.16097659
0.048693083 -0.13091385 0.021210538 -0.073472604 0.22921008 -0.2879787 0.26847434 0.06372964
-0.04317216 -0.025527775 -0.07529671 -0.15746455 -0.124301344 0.04985048 0.1836464 -0.08825357
0.35475037 -0.32738036 -0.034830075 0.026795525 0.1541643 0.13771117 -0.029967494 0.006462532
-0.13874461 -0.12581451 0.06925959 0.241404 0.17006515 -0.085738175 0.012949079 -0.17031546
-0.0080474885 -0.038867056 -0.19625519 0.013683393 0.030145422 -0.0960888 -0.2873716 0.0981643
-0.2100399 -0.20370187 0.030396288 0.06832913 0.006823095 -0.15735619 0.10435978 0.14811707
-0.15621437 0.057720743 -0.17266051 0.041088596 0.30588186 -0.10090148 0.18771502 -0.037218325
0.08349888 0.07120486 -0.0026182989 -0.052896712 0.19745286 -0.15054108 0.21778135 0.16992927
-0.08640087 0.094253704 0.0037050035 -0.3191428 -0.09289844 0.073440336 0.017820992 0.16260383
0.14991774 -0.09551565 -0.020366207 -0.24403358 -0.120530404 0.08635093 -0.027913686 -0.056819547
0.10067796 0.1929506 0.02108056 -0.20369586 -0.1958263 0.010056469 -0.084112436 -0.14695682
0.2188803 -0.106159635 -0.16255213 -0.030136956 0.10237693 0.13705416 -0.05995346 -0.008400839
-0.13001457 -0.13748553 -0.05514817 0.183048 0.22300662 -0.07349744 -0.00640865 -0.32942712
0.16388482 -0.025530545 0.20740823 -0.17088163 0.009760453 0.199755 -0.0031300285 -0.2413793
0.15258273 0.21153075 -0.05136636 0.022545932 -0.012684987 0.10183042 -0.1797081 0.13241571
0.3021294 -0.073991895 -0.045949224 -0.024884373 -0.1850664 0.14022127 0.11425053 0.17258108
0.15341407 -0.10376805 -0.2337579 -0.12643877 -0.05866109 -0.04442135 -0.00890835 0.13993603
0.22439133 -0.0676783 0.059345253 -0.04010309 0.13520662 -0.11873313 -0.25858697 0.2068269
0.355093 0.18255003 -0.12592582 -0.10494498 0.054690115 -0.09781204 0.14053223 0.0634001
-0.17904809 0.18700714 0.2006155 0.057339136 0.039120827 0.13191885 0.21791013 0.009002187
-0.3099482 -0.12973067 -0.19429766 -0.07696461 -0.35979044 -0.34573424 0.1153145 0.1247804
0.053783704 0.06565678 -0.06216376 0.033342686 -0.21657765 0.07064547 -0.059807554 0.030946176
0.08473294 -0.038490135 -0.15861447 0.08571331 0.065739185 -0.008243769 0.05787005 0.2279587
0.003995829 0.21802847 -0.101616025 -0.08296273 -0.058320183 0.1881519 -0.36351398 -0.026899844
0.12028437 0.048017096 -0.04761253 -0.05526849 -0.2132524 -0.2682276 0.12981448 0.062314402
0.16160753 0.10852523 -0.23014408 -0.01692789 0.101772755 0.19208717 -0.08314993 -0.18600392
0.050932787 0.025791926 -0.073329106 0.18568642 0.17243493 0.08332123 0.10168484 0.1318031
-0.18407865 -0.13812944 -0.08563648 -0.079323664 0.010664788 -0.14259169 0.15578835 -0.029677315
0.22045825 -0.3194218 0.20957369 -0.07911747 0.0002197455 0.12634173 0.16511661 0.17798655
-0.049385745 0.12685277 -0.08062456 -0.2244357 0.025018571 -0.027213832 0.04012856 -0.19140397
00000000: 741d f53d 1712 85bd 5cd0 a9bd 565f cc3e
00000010: 458c e9bd 50c1 b73c 62cf db3d e31c 39be
00000020: 1beb c43d 06a2 92bd bfe5 a1be cbde 57bd
00000030: 1cba b3bd 9483 babd 4d5e 373e 0cd7 24be
00000040: 6672 473d 480e 06be b9c1 ad3c ce78 96bd
00000050: 0cb6 6a3e f271 93be 7875 893e af84 823d
00000060: 4ad5 30bd a01f d1bc 2935 9abd 633e 21be
00000070: b491 febd 0430 4c3d cd0d 3c3e 4abe b4bd
00000080: d7a1 b53e 669e a7be fba9 0ebd 4a82 db3c
00000090: 3fdd 1d3e 2804 0d3e 647e f5bc a6c3 d33b
000000a0: 1113 0ebe 85d5 00be f9d7 8d3d 9c32 773e
000000b0: 8f25 2e3e 7f97 afbd 6028 543c 2d67 2ebe
000000c0: 9dd9 03bc 1033 1fbd 1ff7 48be 4f30 603c
000000d0: 88f3 f63c 34ca c4bd 5f22 93be 5d0a c93d
000000e0: b314 57be 3997 50be a301 f93c 25f0 8b3d
000000f0: 4594 df3b fb21 21be 95ba d53d 00ac 173e
00000100: a9f6 1fbe 966c 6c3d ebcd 30be 844c 283d
00000110: 8c9c 9c3e 6fa5 cebd 5e38 403e 3e72 18bd
00000120: 7601 ab3d dbd3 913d c497 2bbb 39aa 58bd
00000130: 1531 4a3e 7127 1abe 1302 5f3e f001 2e3e
00000140: f0f2 b0bd 1608 c13d a5cf 723b af66 a3be
00000150: 8a41 bebd e367 963d 54fd 913c 9e81 263e
00000160: 0984 193e b69d c3bd 08d7 a6bc f0e3 79be
00000170: a5d8 f6bd c2d8 b03d 3eab e4bc 9dbb 68bd
00000180: 3f30 ce3d d894 453e 23b1 ac3c a695 50be
00000190: b186 48be e3c3 243c 2443 acbd d97b 16be
000001a0: 2822 603e 396a d9bd 1174 26be c7e1 f6bc
000001b0: ffaa d13d ed57 0c3e c291 75bd aca3 09bc
000001c0: 8a22 05be 02c9 0cbe 0ce3 61bd ef70 3b3e
000001d0: d95b 643e d385 96bd a7ff d1bb acaa a8be
000001e0: 6cd1 273e 6f25 d1bc d362 543e 98fb 2ebe
000001f0: 4fea 1f3c 938c 4c3e 2a21 4dbb 232c 77be
00000200: a63e 1c3e 849b 583e 8865 52bd 3fb2 b83c
00000210: b1d4 4fbc 788c d03d 6605 38be fc97 073e
00000220: b4b0 9a3e 1089 97bd 4135 3cbd 50da cbbc
00000230: 0c82 3dbe 2a96 0f3e 2ffc e93d 18b9 303e
00000240: 9418 1d3e 5884 d4bd 3b5e 6fbe 2a79 01be
00000250: 9c46 70bd 29f3 35bd 54f4 11bc 644b 0f3e
00000260: d7c6 653e ec9a 8abd 0214 733d 2343 24bd
00000270: 9b73 0a3e 5b2a f3bd 8365 84be 6eca 533e
00000280: c0ce b53e 65ee 3a3e b3f2 00be 65ed d6bd
00000290: be02 603d ae51 c8bd aee7 0f3e e9d7 813d
000002a0: 6258 37be cd7e 3f3e 266e 4d3e 71dc 6a3d
000002b0: 293d 203d bc15 073e d523 5f3e e97d 133c
000002c0: 88b1 9ebe 1ed8 04be f7f5 46be 9f9f 9dbd
000002d0: 7436 b8be 1404 b1be 022a ec3d de8c ff3d
000002e0: 4d4c 5c3d 1077 863d 6d9f 7ebd 5792 083d
000002f0: 88c6 5dbe 92ae 903d c4f8 74bd d682 fd3c
00000300: 7788 ad3d d5a7 1dbd d56b 22be 768a af3d
00000310: 44a2 863d e010 07bc 2509 6d3d 016e 693e
00000320: 71ef 823b db42 5f3e 101c d0bd 5de8 a9bd
00000330: 25e1 6ebd e4aa 403e 811e babe 105d dcbc
00000340: a757 f63d 93ad 443d 5b05 43bd 3661 62bd
00000350: d65e 5abe 2155 89be 16ee 043e 633d 7f3d
00000360: 727c 253e 7a42 de3d e4aa 6bbe 5cac 8abc
00000370: 3c6e d03d 80b2 443e 834a aabd d077 3ebe
00000380: e69e 503d 9749 d33c 922d 96bd 9524 3e3e
00000390: c892 303e 52a4 aa3d 2440 d03d 64f7 063e
000003a0: 1d7f 3cbe ce71 0dbe 2e62 afbd 7274 a2bd
000003b0: 5dbb 2e3c 8e03 12be fb86 1f3e d71d f3bc
000003c0: cfbf 613e 418b a3be 7c9a 563e 5708 a2bd
000003d0: 7c6b 6639 ba5f 013e 5414 293e 1b42 363e
000003e0: b548 4abd b1e5 013e 7d1e a5bd 79d2 65be
000003f0: bff3 cc3c 8bef debc d85d 243d 67ff 43be

actor.4.bias f4 [32]
-0.027966449 0.16150902 -0.33579654 -0.21331544 -0.14776194 -0.09377982 0.04165243 0.01635699
-0.27636522 0.16599676 -0.3925866 -0.0999129 -0.111270815 -0.06841946 -0.14824873 -0.2130129
-0.17491242 -0.2542809 -0.14856766 0.03803507 0.1706816 -0.15574954 -0.17762169 -0.25337324
-0.09096275 -0.13493566 -0.1744246 0.009371267 -0.1708104 0.066432506 -0.15845302 -0.08234811
00000000: e519 e5bc 9f62 253e 86ed abbe 5d6f 5abe
00000010: e84e 17be a20f c0bd bd9b 2a3d 18ff 853c
00000020: be7f 8dbe 0efb 293e 1c01 c9be 229f ccbd
00000030: f4e1 e3bd 801f 8cbd 84ce 17be 0e20 5abe
00000040: 3e1c 33be 1b31 82be 1f22 18be a9ca 1b3d
00000050: 28c7 2e3e cf7c 1fbe 76e2 35be 23ba 81be
00000060: ae4a babd 932c 0abe 5d9c 32be f189 193c
00000070: ece8 2ebe c40d 883d 8241 22be 20a6 a8bd

actor.6.weight f4 [12, 32]
-0.012723928 -0.0111471545 0.07147218 0.06745673 0.11968035 -0.053144347 0.10616982 -0.12282861
0.07325364 -0.04155725 0.18561687 -0.16231856 0.05537693 0.031151924 0.0712701 0.1421629
-0.017185517 0.040788352 -0.15699407 -0.016395463 -0.10403174 0.0010279444 -0.03795654 0.08001471
0.07573286 0.009943473 -0.036967702 0.09876916 0.051844396 -0.15964909 -0.10169493 -0.19630188
-0.035846952 -0.18843417 -0.014812365 0.022070648 -0.084591694 0.0067335516 -0.05610204 -0.16588546
0.03881718 0.060761135 -0.0017418234 -0.21952593 -0.18776113 0.007961087 -0.05536764 0.03074596
-0.017498733 -0.06561668 0.14510277 -0.0015373484 0.10003756 0.072502874 0.054725368 -0.012101953
0.14859065 -0.00080041576 0.090639554 0.09447893 -0.061909582 -0.07683972 0.055355303 0.12901947
-0.013577669 -0.028770985 -0.017350623 -0.0068324064 -0.020324366 -0.06285932 0.13106345 0.1332501
0.10215847 0.00023877835 0.022077663 0.07531059 0.1163673 -0.07402151 0.036958516 -0.040552292
-0.14494728 0.025078928 -0.10773512 -0.033561565 0.1243316 0.061842535 0.29411837 -0.09307776
-0.1366975 0.028056528 0.13379976 0.06464172 -0.036692787 0.0023305446 -0.3314199 -0.016251186
-0.014815899 -0.13409042 0.07380728 -0.01372084 0.0034304855 -0.076151535 -0.084057905 -0.09706007
0.11386324 0.026448388 0.08670149 0.09929538 0.100486256 -0.04442839 -0.1752222 -0.10635722
0.025034986 0.009133408 0.06169159 0.0438801 -0.057161767 -0.05629093 -0.0058050477 -0.08063173
0.023711484 0.11047976 0.10059577 -0.0866706 0.0028772687 0.16399887 0.049136873 -0.050495915
0.1279421 -0.054995585 -0.16841216 -0.10812571 -0.049113944 0.0071158316 0.09736919 -0.09924282
-0.067632616 -0.09287693 0.03320053 -0.034988917 0.06078576 -0.033665262 -0.0029828744 0.12785748
-0.19194323 0.023990134 -0.07141698 0.09588543 0.027728496 -0.0093309255 -0.19442174 -0.04468206
0.16591786 0.04312744 0.080488995 0.086592846 -0.01589148 0.05880117 0.018486785 0.0010489458
0.08456143 -0.08020877 -0.03106633 0.09721419 -0.17691074 0.063225046 0.028254349 0.0652564
0.07551241 0.077916205 -0.15145984 0.18629959 0.14446425 0.11827741 -0.10939558 -0.2635769
0.03454436 -0.007726495 0.13422605 -0.15585268 -0.052922577 -0.010035232 -0.0796493 -0.0017029225
-0.05403765 -0.04538789 0.008486081 0.03456992 0.046407122 -0.24113834 0.020151159 -0.039773997
0.024350937 0.04923453 -0.11688395 0.037562337 0.11483756 0.07191992 0.012124818 -0.09287546
-0.0585186 0.16589122 -0.06817261 -0.070533566 0.022542097 -0.015674254 0.04186407 -0.06666171
-0.07185154 0.06386724 -0.042768337 0.06851596 0.07761453 -0.080616616 0.06405533 -0.09125736
-0.066028215 -0.060837734 -0.079478346 0.18027201 0.0024901156 0.14516228 -0.010735095 0.018034332
0.0045539783 0.15937611 0.0128722545 -0.045339238 0.035079233 0.01967227 0.00666758 0.0026505545
0.0023888731 0.12575676 0.08187751 0.044791605 0.00015646596 -0.066824995 -0.11903724 0.017726185
-0.2745649 -0.07213627 0.0140521 -0.09632097 -0.03622868 0.06442767 -0.049310867 0.0031980758
0.24057752 -0.078275636 0.11576255 -0.12796825 0.03299507 0.022647224 0.04495242 0.08378072
00000000: 0678 50bc 8ea2 36bc 0260 923d c126 8a3d
00000010: f91a f53d e3ad 59bd 906f d93d 918d fbbd
00000020: 0106 963d ef37 2abd 5912 3e3e d636 26be
00000030: ebd2 623d 5232 ff3c 0ff6 913d 2793 113e
00000040: a4c8 8cbc b011 273d 0ec3 20be c74f 86bc
00000050: 980e d5bd 17bc 863a 5178 1bbd c1de a33d
00000060: d419 9b3d f3e9 223c 726b 17bd 7c47 ca3d
00000070: ca5a 543d 0d7b 23be 6e45 d0bd 5c03 49be
00000080: 41d4 12bd e3f4 40be 90af 72bc 81cd b43c
00000090: 693e adbd 20a5 dc3b 41cb 65bd e1dd 29be
000000a0: c3fe 1e3d abe0 783d e54d e4ba 68cb 60be
000000b0: 7444 40be 386f 023c 2ec9 62bd f4de fb3c
000000c0: 8159 8fbc 0a62 86bd d295 143e da80 c9ba
000000d0: 7ee0 cc3d 637c 943d b527 603d 4547 46bc
000000e0: 2628 183e fed2 51ba 3ba1 b93d 2b7e c13d
000000f0: e794 7dbd 255e 9dbd 3ebc 623d ae1d 043e
00000100: df74 5ebc 21b1 ebbc e522 8ebc 61e2 dfbb
00000110: 497f a6bc 63bc 80bd 7f35 063e b772 083e
00000120: 7638 d13d 9360 7a39 37dc b43c 703c 9a3d
00000130: fb51 ee3d 9798 97bd d061 173d 291a 26bd
00000140: 0f6d 14be 5372 cd3c 3ba4 dcbd da77 09bd
00000150: 91a1 fe3d 994e 7d3d af96 963e 8d9f bebd
00000160: 6efa 0bbe ced6 e53c ce02 093e e162 843d
00000170: 2d4b 16bd 0dbc 183b deaf a9be 3521 85bc
00000180: 62be 72bc 004f 09be 4528 973d 60cd 60bc
00000190: ffd1 603b 56f5 9bbd 8d26 acbd 6ec7 c6bd
000001a0: 2131 e93d 4aaa d83c 8d90 b13d 605b cb3d
000001b0: bdcb cd3d 8bfa 35bd 736d 33be d0d1 d9bd
000001c0: 2c16 cd3c 4aa4 153c 52b0 7c3d 9fbb 333d
000001d0: 7522 6abd 5191 66bd 4538 bebb 4022 a5bd
000001e0: 963e c23c 3643 e23d 2805 ce3d 5b80 b1bd
000001f0: 8f90 3c3b 52ef 273e bf43 493d ced4 4ebd
00000200: 4103 033e 0d43 61bd 3d74 2cbe 0371 ddbd
00000210: b42b 49bd ec2b e93b 7f69 c73d d23f cbbd
00000220: f882 8abd 4336 bebd 47fd 073d 8a50 0fbd
00000230: 7dfa 783d 96e4 09bd 547c 43bb 12ed 023e
00000240: c48c 44be f586 c43c 1143 92bd 955f c43d
00000250: df26 e33c bde0 18bc 7e16 47be 8904 37bd
00000260: 5fe6 293e 66a6 303d 6ad7 a43d 9757 b13d
00000270: d92e 82bc 7fd9 703d 9971 973c c87c 893a
00000280: 8b2e ad3d 7f44 a4bd d17e febc 3c18 c73d
00000290: 1728 35be 227c 813d aa75 e73c 26a5 853d
000002a0: 40a6 9a3d 8892 9f3d 4a18 1bbe 52c5 3e3e
000002b0: 70ee 133e 6d3b f23d ca0a e0bd 8df3 86be
000002c0: 637e 0d3d 8a2e fdbb 8e72 093e d897 1fbe
000002d0: 58c5 58bd d06a 24bc 2c1f a3bd 9934 dfba
000002e0: 9556 5dbd a7e8 39bd 3409 0b3c 3099 0d3d
000002f0: 6515 3e3d f8ec 76be 0b14 a53c 0fea 22bd
00000300: 9e7b c73c 26aa 493d da60 efbd f7da 193d
00000310: f42f eb3d c04a 933d 2ca7 463c 7d35 bebd
00000320: 33b1 6fbd 63df 293e 159e 8bbd e773 90bd
00000330: 34aa b83c 4b67 80bc a979 2b3d ef85 88bd
00000340: e626 93bd d4cc 823d da2d 2fbd 1852 8c3d
00000350: 5ef4 9e3d 531a a5bd 712f 833d 24e5 babd
00000360: cd39 87bd fd30 79bd 8bc5 a2bd 3a99 383e
00000370: 3531 233b 6ca5 143e 40e2 2fbc bcbc 933c
00000380: 8a39 953b 7e33 233e 26e6 523c a3b5 39bd
00000390: 3eaf 0f3d be27 a13c b77b da3b edb4 2d3b
000003a0: a48e 1c3b 61c6 003e 65af a73d 6777 373d
000003b0: 0311 2439 8bdb 88bd ccc9 f3bd 8136 913c
000003c0: c593 8cbe 2ebc 93bd c73a 663c ee43 c5bd
000003d0: 8664 14bd a7f2 833d 31fa 49bd cf96 513b
000003e0: f459 763e fa4e a0bd ea14 ed3d 1c0a 03be
000003f0: d725 073d ac86 b93c 0720 383d 3a95 ab3d

actor.6.bias f4 [12]
-0.21534057 0.08677079 0.1343453 -0.13884771 -0.17506376 -0.05508007 0.17505592 0.039315775
-0.124034375 0.25089538 -0.12049215 -0.19575645
00000000: 3d82 5cbe e2b4 b13d d091 093e 182e 0ebe
00000010: ea43 33be a49b 61bd dc41 333e 9409 213d
00000020: bc05 febd 5c75 803e 97c4 f6bd 6174 48be

critic.0.weight f4 [128, 48]
-0.048746604 0.016604137 0.33177763 -0.38377696 0.47444975 -0.6252971 0.8369662 1.1933672
0.08953285 0.09464137 -0.1687897 0.76010156 0.19893944 0.16424099 0.33870673 -0.42650184
-0.8474229 -0.7118931 0.092619956 0.77416694 0.65744305 -0.23087832 -0.32926977 -0.15466118
-0.16119502 -0.13144976 0.18621287 -0.37065116 -0.6786958 -0.054249324 -0.4307624 0.70851755
0.23374894 -0.121806495 0.58551913 -0.16346423 0.023678638 0.011025568 0.017968146 0.01835526
-0.014776737 -0.01662543 -0.057263304 0.040461488 0.010065041 0.0049762176 0.041389864 0.013742787
0.17193682 0.1557225 0.20199902 -0.09394982 -0.09489392 -0.1598943 0.28267556 0.6162083
-0.1248976 -0.25186694 -0.04126658 -0.29781866 0.34802395 -0.18227778 0.26819164 0.49031788
0.2524934 -0.060342122 0.045535393 -0.007639908 0.2893093 -0.2535253 -0.16681236 0.2958748
-0.066774026 0.28816733 -0.08702041 -0.0700798 -0.041376688 -0.066862784 0.07760278 -0.63403577
0.4896548 0.034657624 -0.41133463 0.11401097 -0.07125112 0.045239106 0.06448328 0.067934744
0.020746546 0.07595715 0.0320555 -0.07300246 -0.23268965 0.064487316 -0.041389935 -0.13070092
0.013583083 0.03051206 0.01820749 0.008948283 0.2625153 0.09713697 0.07308655 0.14197433
0.09186807 -0.18535367 -0.028794229 -0.21109681 0.09588913 -0.50055265 -0.13446926 0.18740858
-0.24307796 0.05406318 0.082990244 0.031688247 0.04242101 -0.38417327 -0.47742853 -0.041958455
0.31237155 -0.15495268 -0.030843468 -0.097951405 0.26219678 0.10709067 -0.09288783 0.04147268
-0.06697995 -0.0735779 -0.27646127 -0.15417638 0.12021421 0.0022049323 0.027118914 -0.11684737
-0.034279987 -0.0066436366 -0.019807724 0.04293513 0.05438642 0.014976838 -0.049436837 -0.049173802
0.25784987 -0.4510093 -0.1994425 0.044574752 -0.35861754 -0.54798406 0.34643167 -2.2318056
0.023727028 -0.39587626 0.5444807 1.5080009 0.46714714 0.11673409 -0.18968365 0.8868838
0.16880772 0.6296968 0.09280298 -0.17398882 0.19137987 0.26849332 0.29816633 -0.054411903
-0.09702842 0.00023446763 0.020414317 0.071893 -0.21923058 0.08906865 -0.114416525 -0.32654828
0.026165998 -0.13810292 -0.117448166 0.042994242 -0.016619127 -0.011329396 0.04293071 -0.03813681
0.01182014 -0.03055185 -0.01581745 -0.020864902 -0.053289734 -0.019641384 -0.025940955 0.013953123
0.09203794 -0.15148097 0.2259198 -0.02494526 0.38633788 0.4149777 0.38519722 0.49447656
0.00040723305 -0.19105552 0.06479395 -0.077206224 0.14766121 -0.20512693 -0.13561898 -0.6753003
0.15707445 -0.2916349 -0.17723887 0.03835939 -0.013361962 -0.32660735 0.032694716 -0.0446793
0.14726782 0.049746383 0.21895806 0.1236518 0.1905909 0.20036776 -0.15742621 -0.15633334
0.17408808 -0.68464065 -0.11601198 0.03520939 -0.029956121 0.0051489803 -0.0034318983 0.025861891
-0.05781578 0.10317995 -0.017240776 0.014062092 -0.010621522 0.08190257 0.05075734 0.09048164
0.0068092314 -0.075283416 -0.1054307 0.33214954 0.37977445 0.31015378 -0.031716667 -0.7981482
-0.08807711 0.051616415 0.0850315 0.43051895 0.23792656 0.0682434 -0.095592156 0.044570602
00000000: 85aa 47bd 6605 883c c2de a93e 6a7e c4be
00000010: 14eb f23e 7913 20bf 6b43 563f 42c0 983f
00000020: 005d b73d 56d3 c13d 35d7 2cbe 0496 423f
00000030: c8b6 4b3e ca2e 283e f86a ad3e 735e dabe
00000040: b5f0 58bf a03e 36bf 88af bd3d ce2f 463f
00000050: 304e 283f 5e6b 6cbe 0c96 a8be 805f 1ebe
00000060: 4f10 25be c49a 06be 96ae 3e3e fdc5 bdbe
00000070: 02bf 2dbf 8a34 5ebd e48c dcbe 6861 353f
00000080: e25b 6f3e af75 f9bd 95e4 153f 2b63 27be
00000090: b4f9 c13c 95a4 343c ef31 933c c55d 963c
000000a0: 211a 72bc 0e32 88bc ed8c 6abd f2ba 253d
000000b0: d7e7 243c 8a0f a33b 6b88 293d 6d29 613c
000000c0: 3510 303e b875 1f3e d5d8 4e3e c368 c0bd
000000d0: be57 c2bd 55bb 23be daba 903e d4bf 1d3f
000000e0: 50ca ffbd b4f4 80be 2507 29bd b07b 98be
000000f0: 3230 b23e 07a7 3abe 6a50 893e f20a fb3e
00000100: d146 813e 4d29 77bd 5283 3a3d 3258 fabb
00000110: 5920 943e 11ce 81be dcd0 2abe e77c 973e
00000120: d2c0 88bd ab8a 933e c237 b2bd 0086 8fbd
00000130: 9a7a 29bd 5bef 88bd 35ee 9e3d 2b50 22bf
00000140: 09b4 fa3e 27f5 0d3d 749a d2be 957e e93d
00000150: 1bec 91bd a44c 393d cf0f 843d 5f21 8b3d
00000160: a9f4 a93c 6c8f 9b3d a14c 033d 5082 95bd
00000170: 3246 6ebe ed11 843d 7e88 29bd 76d6 05be
00000180: 948b 5e3c 6df4 f93c e027 953c d29b 123c
00000190: 6868 863e bfef c63d 67ae 953d b861 113e
000001a0: 5425 bc3d 5acd 3dbe e0e1 ebbc c329 58be
000001b0: 8561 c43d 3824 00bf 4fb2 09be 09e8 3f3e
000001c0: 6ee9 78be 5a71 5d3d caf6 a93d 89cb 013d
000001d0: a7c1 2d3d 5cb2 c4be 8371 f4be a1dc 2bbd
000001e0: 2aef 9f3e eaab 1ebe 71ab fcbc bf9a c8bd
000001f0: a83e 863e 5a52 db3d fa3b bebd 42df 293d
00000200: c92c 89bd 03b0 96bd 558c 8dbe 6ae0 1dbe
00000210: de32 f63d a080 103b 7c28 de3c ad4d efbd
00000220: 2c69 0cbd ddb2 d9bb cf43 a2bc bfdc 2f3d
00000230: 4bc4 5e3d 6961 753c 487e 4abd 786a 49bd
00000240: e604 843e b1ea e6be a83a 4cbe 0494 363d
00000250: b89c b7be af48 0cbf 7e5f b13e e7d5 0ec0
00000260: 2f5f c23c 4bb0 cabe 1663 0b3f 2c06 c13f
00000270: e92d ef3e 4812 ef3d 6e3c 42be d10a 633f
00000280: eedb 2c3e cf33 213f 7d0f be3d 202a 32be
00000290: 16f9 433e f577 893e 42a9 983e 04df 5ebd
000002a0: d6b6 c6bd 6ddb 7539 ed3b a73c a33c 933d
000002b0: fb7d 60be a069 b63d 3653 eabd 5631 a7be
000002c0: 135a d63c da6a 0dbe aa88 f0bd bb1a 303d
000002d0: d624 88bc ee9e 39bc 1dd8 2f3d 5835 1cbd
000002e0: 43a9 413c e047 fabc 9993 81bc dfec aabc
000002f0: 5646 5abd f8e6 a0bc 2082 d4bc a49b 643c
00000300: 637e bc3d d41d 1bbe 8557 673e 005a ccbc
00000310: 14ce c53e f577 d43e 9238 c53e 082c fd3e
00000320: e581 d539 0fa4 43be b1b2 843d 4c1e 9ebd
00000330: 8034 173e cb0c 52be b4df 0abe 7be0 2cbf
00000340: 20d8 203e 2b51 95be 1b7e 35be bc1e 1d3d
00000350: 21ec 5abc 1439 a7be e5ea 053d a401 37bd
00000360: 60cd 163e ddc2 4b3d 8b36 603e 283d fd3d
00000370: 432a 433e 352d 4d3e 5634 21be d915 20be
00000380: 2544 323e 9c44 2fbf b097 edbd b937 103d
00000390: 8a66 f5bc c7b8 a83b b3e9 60bb 51dc d33c
000003a0: 3dd0 6cbd 0250 d33d 873c 8dbc b064 663c
000003b0: e405 2ebc 89bc a73d eee6 4f3d 704e b93d
000003c0: f91f df3b 312e 9abd 0dec d7bd 810f aa3e
000003d0: cc71 c23e 7acc 9e3e 56e9 01bd 7153 4cbf
000003e0: c661 b4bd bc6b 533d ff24 ae3d fb6c dc3e
000003f0: 05a3 733e 32c3 8b3d d2c5 c3bd aa8f 363d

critic.0.bias f4 [128]
-0.12422128 0.2102017 -0.21220858 -0.34425372 0.015844282 0.15245678 -0.19994138 -0.011465478
0.1094718 -0.17660335 -0.26173383 0.097370565 -0.25267494 -0.08244529 0.07435483 0.10472564
0.22928376 -0.14173497 0.0591363 -0.24460837 0.22749458 -0.028308827 -0.0020090893 -0.02806258
-0.16310053 -0.33166754 0.0984358 0.07842813 0.057577413 -0.31197664 -0.16109611 -0.24119799
-0.22796682 -0.35888186 -0.11023216 0.006305325 0.09894705 -0.05124784 -0.20564876 -0.124693096
0.15116201 -0.25318015 0.008256679 -0.33231974 -0.22995299 -0.40457362 -0.042354323 -0.12961544
-0.32332107 -0.23505586 -0.25105512 -0.06612799 -0.2643117 -0.19338639 -0.1433218 0.043905064
-0.2917815 0.08902698 -0.34806636 0.21990429 0.0114512965 0.038276758 -0.35208258 -0.12830524
-0.24672972 -0.0029677977 0.09462122 0.0913846 0.02766889 0.18241364 0.1272618 0.15411681
-0.27974454 -0.17142276 -0.063572355 -0.29707837 -0.15218262 -0.22813067 0.14383076 -0.20531076
0.21852398 -0.25937676 -0.16473742 -0.16319387 0.14290082 0.18588659 -0.25211158 -0.301459
0.09441304 -0.028106468 -0.05561434 -0.18633871 0.116097145 -0.25592366 0.058636624 -0.31984994
-0.014383333 -0.0039171334 0.05018129 -0.049805727 0.1402757 -0.36055624 -0.2569719 -0.068809435
0.12127597 0.20037338 -0.3774921 -0.31540924 0.17100294 -0.0880519 -0.17024873 -0.07121147
0.081229575 0.26924452 -0.3359154 -0.089947045 0.026080493 -0.19211362 0.047059584 0.09797881
-0.30404836 -0.1903453 -0.20771803 0.0035599375 -0.31645823 -0.13954216 0.07754475 -0.42642015
00000000: ba67 febd 1d3f 573e 354d 59be 0642 b0be
00000010: decb 813c a11d 1c3e 6fbd 4cbe b3d9 3bbc
00000020: c032 e03d 82d7 34be fa01 86be 386a c73d
00000030: 9c5e 81be 14d9 a8bd 5847 983d 657a d63d
00000040: 5dc9 6a3e f922 11be e838 723d 9e7a 7abe
00000050: 57f4 683e eae7 e7bc edaa 03bb 7fe3 e5bc
00000060: d303 27be 54d0 a9be b598 c93d ed9e a03d
00000070: 4bd6 6b3d 67bb 9fbe 61f6 24be 9bfc 76be
00000080: 2270 69be 5dbf b7be 66c1 e1bd e69c ce3b
00000090: c0a4 ca3d 41e9 51bd 9795 52be 185f ffbd
000000a0: 37ca 1a3e d4a0 81be 0647 073c d025 aabe
000000b0: cc78 6bbe 4624 cfbe ba7b 2dbd e9b9 04be
000000c0: 578a a5be 7cb2 70be 4c8a 80be 1d6e 87bd
000000d0: dd53 87be 1507 46be f3c2 12be ccd5 333d
000000e0: 6364 95be c753 b63d c135 b2be 972e 613e
000000f0: 389e 3b3c 17c8 1c3d 2b44 b4be 7362 03be
00000100: b7a6 7cbe 627f 42bb c5c8 c13d d927 bb3d
00000110: dea9 e23c a4ca 3a3e eb50 023e ccd0 1d3e
00000120: ad3a 8fbe 7389 2fbe 3932 82bd a81a 98be
00000130: c3d5 1bbe 169b 69be 5f48 133e fc3c 52be
00000140: c0c4 5f3e 08cd 84be edb0 28be 4b1c 27be
00000150: 9854 123e 0e59 3e3e c514 81be d658 9abe
00000160: a05b c13d 893f e6bc ddcb 63bd 93cf 3ebe
00000170: 57c4 ed3d 6d08 83be f52c 703d 5fc3 a3be
00000180: 12a8 6bbc 4c5b 80bb e58a 4d3d 1701 4cbd
00000190: 6fa4 0f3e d49a b8be d291 83be f6eb 8cbd
000001a0: 895f f83d ae2e 4d3e a546 c1be 527d a1be
000001b0: 651b 2f3e 8e54 b4bd af55 2ebe 52d7 91bd
000001c0: b15b a63d 6bda 893e 1afd abbe 2836 b8bd
000001d0: c2a6 d53c 6fb9 44be 8dc1 403d 1da9 c83d
000001e0: 3aac 9bbe e1e9 42be 09b4 54be d74d 693b
000001f0: d006 a2be 24e4 0ebe c8cf 9e3d be53 dabe

critic.2.weight f4 [64, 128]
0.2657079 0.029072315 -0.010290956 -0.22721395 -0.070461385 -0.12002918 0.019781614 0.06194454
0.042146314 -0.05869809 0.2657102 -0.28111106 -0.12474339 -0.21983704 0.10396228 0.09255692
0.114063434 0.11490934 0.006399953 0.044367157 0.08315714 0.22210091 -0.13040091 0.06245209
0.029257467 -0.11861282 0.030215332 0.094488226 0.063657254 0.08219828 -0.115815744 0.05277106
0.17869364 0.2515911 -0.07210038 0.081629686 -0.009058044 0.10788986 -0.059082057 0.057426162
0.08129701 0.18927717 0.04327661 0.29936138 0.09362329 0.13392603 -0.505969 0.05251498
0.08565957 0.034667477 0.20418756 0.04815601 0.083552554 0.0330841 -0.003937501 0.0020787243
0.08528793 -0.22905849 -0.08895618 0.022880144 0.019288987 0.02855123 0.11365951 -0.0859524
-0.14477088 -0.02031104 0.027819376 -0.12256187 0.06553864 0.015232643 0.10332005 0.053546272
-0.1412352 0.23794034 0.040808946 0.054194327 -0.07674484 -0.18756759 -0.04764477 -0.046151455
-0.121414006 -0.07460715 -0.105326585 0.116609834 0.14135599 0.02697955 -0.41942957 -0.14839502
0.15344353 0.06713994 -0.019712606 0.034671128 -0.013813599 0.01742246 0.083338745 0.17314613
0.033477586 0.017716367 0.102358535 -0.012988761 -0.15305813 0.12576514 0.043703355 -0.027054748
-0.07296411 0.018466745 -0.016772132 0.08572173 0.08618534 0.14038819 -0.029957227 0.16359036
-0.014364019 -0.085194804 0.13560338 -0.014024983 -0.013035465 -0.059247598 0.09489364 0.030903952
-0.033773825 0.09877426 0.089327395 0.019799447 0.07577891 -0.1774954 0.008394336 0.13037795
0.4922409 -0.25233614 0.06551871 0.3710534 0.061836656 -0.018106626 0.0069086575 0.2845664
-0.022050858 0.13304812 0.24688694 -0.22650915 0.7474911 0.49180716 0.034499656 0.10992797
-0.13026284 -0.14069761 0.20063713 0.5817008 0.04933305 0.15881246 0.22713865 0.109162256
0.115598716 0.44481838 -0.047174342 0.09420876 -0.10593304 0.60827786 -0.012881787 0.11894173
0.6097328 0.4890896 0.09246059 0.066376455 0.15328236 0.0067429384 0.24737918 0.09259713
-0.068416074 0.16566704 0.07686592 0.3178752 0.10327659 0.5434179 0.6765352 -0.13108414
0.23045048 0.25820792 0.16958368 0.025035203 0.06168246 0.29492235 0.25453487 0.04165196
0.27705222 -0.021048484 0.48886043 -0.062219385 0.08410921 0.16521192 0.35802686 0.09881513
0.33627352 -0.028264161 -0.06040781 0.06247798 0.13307834 -0.2520255 -0.046570066 -0.08132604
0.44929326 0.20817576 0.03853948 0.29835746 -0.05711679 0.18507533 -0.18135762 0.012844297
-0.2759251 0.36834905 0.65639526 0.23764063 0.01220517 -0.12646955 0.13288118 0.034699228
0.01777098 0.01073441 0.2537516 0.5113431 -0.17028506 0.21238114 0.0025732573 0.3633788
0.2816546 -0.32384464 0.15394112 0.16618574 -0.2122541 0.083700575 0.15971735 0.14564037
0.057917558 -0.22602476 0.7282721 0.45070854 -0.04110387 0.31007347 0.14546622 0.1591173
0.011170587 0.032264184 0.42316663 0.018167673 0.19242904 0.369083 -0.010085409 0.116499946
0.19134808 0.084134586 0.20454845 0.238617 0.3427863 0.075378664 -0.07600876 0.30019557
00000000: de0a 883e 1029 ee3c 669b 28bc c6aa 68be
00000010: 0f4e 90bd dcd1 f5bd 0d0d a23c 8fb9 7d3d
00000020: 9da1 2c3d 696d 70bd 2b0b 883e caed 8fbe
00000030: 7679 ffbd f61c 61be 2dea d43d 7c8e bd3d
00000040: 179a e93d 9755 eb3d b2b6 d13b 56ba 353d
00000050: 4a4e aa3d 6c6e 633e d187 05be c3cd 7f3d
00000060: 5bad ef3c 47eb f2bd 2586 f73c 0b83 c13d
00000070: bc5e 823d 9257 a83d ce30 edbd 7826 583d
00000080: 77fb 363e 8cd0 803e 5da9 93bd 772d a73d
00000090: 3168 14bc 5cf5 dc3d 0700 72bd b237 6b3d
000000a0: 0c7f a63d e0d1 413e d142 313d e545 993e
000000b0: 91bd bf3d e823 093e 2f87 01bf f319 573d
000000c0: 496e af3d 7cff 0d3d 8b16 513e 3d3f 453d
000000d0: 9a1d ab3d 3183 073d 2706 81bb 353b 083b
000000e0: 70ab ae3d 4f8e 6abe a82e b6bd 246f bb3c
000000f0: f003 9e3c 45e4 e93c 51c6 e83d d007 b0bd
00000100: d13e 14be 5763 a6bc 76e5 e33c b801 fbbd
00000110: 1f39 863d 5692 793c 7699 d33d 5653 5b3d
00000120: f69f 10be a2a6 733e 4827 273d dffa 5d3d
00000130: 662c 9dbd b811 40be 2a27 43bd 4f09 3dbd
00000140: e8a7 f8bd a2cb 98bd 77b5 d7bd 23d1 ee3d
00000150: a0bf 103e 3804 dd3c 79bf d6be ddf4 17be
00000160: 4d20 1d3e aa80 893d 557c a1bc 5003 0e3d
00000170: 6f52 62bc 8cb9 8e3c 81ad aa3d 384d 313e
00000180: cb1f 093d ea21 913c 5aa1 d13d d0ce 54bc
00000190: 45bb 1cbe 94c8 003e 4a02 333d eba1 ddbc
000001a0: 356e 95bd 9247 973c b665 89bc e08e af3d
000001b0: f181 b03d ecc1 0f3e dc68 f5bc 3b84 273e
000001c0: 1057 6bbc 9d7a aebd 9ddb 0a3e 0bc9 65bc
000001d0: b492 55bc 9cad 72bd 9957 c23d 492a fd3c
000001e0: 6c56 0abd 294a ca3d 48f1 b63d 7332 a23c
000001f0: f931 9b3d 5bc1 35be 6688 093c cc81 053e
00000200: 0007 fc3e 3432 81be ac2e 863d b6fa bd3e
00000210: 6f48 7d3d 5954 94bc 0562 e23b b0b2 913e
00000220: 00a4 b4bc c43d 083e eecf 7c3e 04f2 67be
00000230: 945b 3f3f 26ce fb3e 834f 0d3d ea21 e13d
00000240: 9f63 05be 0913 10be d273 4d3e 58ea 143f
00000250: 7411 4a3d bc9f 223e 0997 683e 7690 df3d
00000260: 05bf ec3d 3cbf e33e e239 41bd 86f0 c03d
00000270: 6cf3 d8bd 19b8 1b3f 210e 53bc b997 f33d
00000280: 7317 1c3f f469 fa3e fa5b bd3d 61f0 873d
00000290: 0df6 1c3e def3 dc3b f850 7d3e 90a3 bd3d
000002a0: ba1d 8cbd 9fa4 293e e16b 9d3d 8ac0 a23e
000002b0: ad82 d33d 6f1d 0b3f 6931 2d3f ec3a 06be
000002c0: 36fb 6b3e d433 843e 58a7 2d3e a016 cd3c
000002d0: bfa6 7c3d 1000 973e 6552 823e 3f9b 2a3d
000002e0: cad9 8d3e df6d acbc ea4b fa3e c1d9 7ebd
000002f0: 7341 ac3d 502d 293e 4c4f b73e 965f ca3d
00000300: 0b2c ac3e 3e8a e7bc 2e6e 77bd e9e8 7f3d
00000310: b045 083e 7d09 81be 41c0 3ebd 448e a6bd
00000320: c409 e63e 072c 553e 93db 1d3d 4fc2 983e
00000330: 4cf3 69bd 6384 3d3e d0b5 39be e370 523c
00000340: 0e46 8dbe 3f98 bc3e 8509 283f 1158 733e
00000350: 31f8 473c 3c81 01be 0112 083e c720 0e3d
00000360: 7294 913c 61df 2f3c bbeb 813e 62e7 023f
00000370: 355f 2ebe 717a 593e 18a4 283b c90c ba3e
00000380: 0835 903e f7ce a5be bea2 1d3e 982c 2a3e
00000390: 2459 59be 356b ab3d f28c 233e c022 153e
000003a0: f63a 6d3d 0973 67be 0a70 3a3f 45c3 e63e
000003b0: 885c 28bd f3c1 9e3e 19f5 143e a5ef 223e
000003c0: d604 373c 7327 043d 4ca9 d83e 5fd4 943c
000003d0: 1e0c 453e 72f8 bc3e 453d 25bc 8697 ee3d
000003e0: c0f0 433e c14e ac3d 2675 513e 0458 743e
000003f0: b081 af3e 2160 9a3d 7baa 9bbd 3cb3 993e

critic.2.bias f4 [64]
-0.042179115 -0.04457739 -0.046649527 -0.0168261 -0.054576162 0.10268925 -0.09308201 -0.084590584
-0.06033691 -0.008309709 -0.3110402 0.037722375 -0.39339253 -0.070099965 0.043401856 0.15434659
-0.010184361 0.010574675 0.018092861 -0.1936708 -0.0011162969 0.038336992 0.0004722057 -0.2091614
0.13476871 0.06677721 -0.011089292 0.093820035 -0.2092282 -0.13869919 0.085412875 0.14296487
-0.18096672 -0.25585738 -0.18685709 -0.3886877 -0.10382513 -0.14853 0.059063822 -0.21081102
0.080608554 -0.22334197 -0.10976191 -0.2161432 -0.3845614 -0.1818437 -0.20549956 -0.0062559308
-0.010490778 0.02410566 0.09651522 0.017725496 0.22976534 -0.06818346 -0.08472783 -0.22661717
0.017614897 0.08373305 -0.11306963 0.24774246 0.016057748 0.002623484 0.012068458 -0.35658476
00000000: 02c4 2cbd c896 36bd 9313 3fbd e4d6 89bc
00000010: 418b 5fbd be4e d23d c8a1 bebd d43d adbd
00000020: d623 77bd 7225 08bc a940 9fbe c782 1a3d
00000030: bf6a c9be 9290 8fbd 25c6 313d 080d 1e3e
00000040: 4edc 26bc 6741 2d3c 7b37 943c a351 46be
00000050: b550 92ba 4007 1d3d 6092 f739 682e 56be
00000060: cf00 0a3e 7dc2 883d ddaf 35bc b824 c03d
00000070: eb3f 56be 2907 0ebe f2ec ae3d 6265 123e
00000080: 574f 39be bdff 82be 7757 3fbe 1302 c7be
00000090: 45a2 d4bd 4018 18be e8ec 713d d8de 57be
000000a0: 1916 a53d c2b3 64be daca e0bd a554 5dbe
000000b0: 3be5 c4be 3c35 3abe 7a6e 52be 8dfe ccbb
000000c0: 83e1 2bbc 3c79 c53c c6a9 c53d 0f35 913c
000000d0: 9b47 6b3e c5a3 8bbd c985 adbd 550e 68be
000000e0: 1e4d 903c 3c7c ab3d 0d91 e7bd 33b0 7d3e
000000f0: 8a8b 833c c2ee 2b3b c8ba 453c 4792 b6be
