isaacgym/legged_gym/logs/flat_anymal_c/Mar26_18-44-56_/model_0.pt (torch, 418700 bytes, 48 tensors)

std f4 [12]
1.0041218 1.0046133 1.0028162 1.006862 1.0043129 1.0091758 1.0063776 1.0029473
1.005027 1.0064343 1.003796 1.0058534
00000000: 1087 803f 2b97 803f 485c 803f dbe0 803f
00000010: 538d 803f ac2c 813f fbd0 803f 9460 803f
00000020: baa4 803f d7d2 803f 637c 803f cebf 803f

actor.0.weight f4 [128, 48]
-0.11638083 -0.06207309 0.019669106 0.047727656 0.051112864 0.05965991 -0.13384968 -0.09938301
0.12330126 -0.11845246 -0.03926547 0.09619205 0.098441295 0.07601989 -0.051119033 0.048956037
0.06329904 -0.10254832 -0.07286103 0.01987677 0.1352088 -0.035587665 0.04156495 0.10650646
0.08820092 0.03921531 -0.04719942 0.07798028 -0.1395962 0.033244103 -0.002133223 -0.04746392
0.15604442 -0.13790895 -0.08214593 0.12479692 -0.040689014 0.018290108 0.012642158 0.113688014
0.012321101 -0.044524483 -0.048879877 -0.045050398 -0.095562406 0.04396554 -0.010783128 -0.09196113
-0.042991787 -0.03540432 0.03991325 -0.10924978 0.1517354 -0.12349086 0.12858865 0.0072443937
0.045554824 0.046847988 -0.12564759 -0.13470392 0.029226933 -0.015165026 -0.045638334 -0.06422792
-0.09542551 0.07110912 -0.10028893 -0.066917114 0.06888194 0.062408477 -0.077479385 -0.13236958
0.0984252 0.09587773 -0.06285142 0.12507331 -0.10139954 0.121293135 0.042648554 -0.1440181
0.041263465 -0.06395568 -0.021154702 0.0029226555 -0.10564262 0.063536085 0.10501241 -0.03171034
0.06464657 -0.13650101 0.015484805 -0.07783716 0.010067375 -0.0511073 -0.07537476 -0.031117268
-0.13290597 -0.05674062 -0.05636206 0.13741347 -0.06106187 -0.032910157 -0.023669297 -0.11590304
0.04098825 -0.11181668 0.05192158 -0.05351256 0.05119029 0.086933084 0.10776894 0.13386537
-0.043687034 -0.14987954 -0.05969708 -0.16584596 0.030751957 -0.1324959 -0.024295382 0.113527216
-0.021038363 0.030537663 0.113643155 -0.07201714 -0.117359936 0.068410434 0.12584318 -0.019738749
-0.09623338 0.019841442 0.06332347 -0.1280556 -0.062307622 -0.002368821 0.078181356 7.039145e-05
0.14560215 0.14121182 0.029519876 -0.07752558 -0.07504838 -0.033337098 0.011613266 -0.08185222
-0.14087564 -0.036753558 -0.101516135 0.046679404 -0.06594644 -0.035051476 0.04751948 0.01837979
0.0017147023 0.08729198 -0.104622 0.042288624 0.0070925234 -0.16280997 0.021314034 -0.09168705
-0.03851328 -0.06812598 -0.13932335 0.0852499 0.08349986 0.016026888 -0.08030566 0.13737825
-0.054748837 -0.100021064 -0.12140912 0.023906734 -0.064490736 -0.02768094 -0.13917674 -0.05561249
-0.13379768 -0.106410116 -0.13296157 -0.07032559 0.11451726 -0.0403663 -0.09415301 0.13759358
0.015605694 -0.11535352 -0.10741473 0.016637674 -0.09253462 0.06204905 -0.11919453 -0.12675454
0.0857371 -0.0021424873 0.049804404 -0.047215234 -0.07439203 0.091912664 -0.011176954 0.09036145
-0.0405517 -0.03368452 -0.014559509 -0.059760913 0.04078392 0.024905583 -0.06015204 -0.07537118
0.12428321 -0.0096639935 -0.00969635 -0.09693563 0.09901414 0.09814249 0.060604017 0.13063157
0.09436227 0.11851701 -0.06406717 -0.06310878 -0.021658234 -0.099917226 0.06256554 -0.071140274
0.049120173 0.08686782 -0.028155556 0.13027042 -0.06351849 0.061217327 0.09889928 -0.08817383
4.369851e-06 0.109712206 -0.11179454 -0.07941836 -0.14398976 0.09884136 0.08729252 0.026286626
0.024526091 -0.14091612 0.05710297 -0.07542786 0.0633056 -0.091733515 -0.10651348 0.123250216
0.040499512 -0.04003484 -0.1019673 -0.14548267 0.10473252 -0.029396728 0.038191553 0.08215286
00000000: 1359 eebd 5a40 7ebd 1b21 a13c 137e 433d
00000010: b95b 513d f35d 743d e40f 09be 5289 cbbd
00000020: 5f85 fc3d 3497 f2bd d4d4 20bd 5600 c53d
00000030: 979b c93d 51b0 9b3d 3162 51bd 2086 483d
00000040: eda2 813d db04 d2bd 2a38 95bd 9cd4 a23c
00000050: 2d74 0a3e 5fc4 11bd 0240 2a3d 0f20 da3d
00000060: afa2 b43d 3ca0 203d 2e54 41bd 20b4 9f3d
00000070: 4ef2 0ebe f82a 083d 8bcd 0bbb 8769 42bd
00000080: 1cca 1f3e 0138 0dbe 203c a8bd 8795 ff3d
00000090: 86a9 26bd 23d5 953c 0e21 4f3c 43d5 e83d
000000a0: 71de 493c 4e5f 36bd 4436 48bd c486 38bd
000000b0: 39b6 c3bd 3615 343d b8ab 30bc 1e56 bcbd
000000c0: 2818 30bd 1f04 11bd 137c 233d 59be dfbd
000000d0: 8660 1b3e c7e8 fcbd beac 033e 6162 ed3b
000000e0: b297 3a3d ade3 3f3d c3a9 00be d3ef 09be
000000f0: 526d ef3c bb76 78bc 43ef 3abd ed89 83bd
00000100: 736e c3bd a9a1 913d 4864 cdbd d70b 89bd
00000110: f911 8d3d 08a0 7f3d 83ad 9ebd e48b 07be
00000120: 2793 c93d 8b5b c43d 3fb8 80bd 3813 003e
00000130: 90aa cfbd 8968 f83d 40b0 2e3d 7b79 13be
00000140: e103 293d 32fb 82bd a04c adbc 068a 3f3b
00000150: 285b d8bd 351f 823d bf10 d73d b4e2 01bd
00000160: 6c65 843d ecc6 0bbe fbb3 7d3c 1769 9fbd
00000170: a2f1 243c e355 51bd 155e 9abd a4e9 febc
00000180: 8118 08be da68 68bd e7db 66bd 1eb6 0c3e
00000190: 031c 7abd cdcc 06bd 1de6 c1bc 935e edbd
000001a0: 4ce3 273d 2500 e5bd b9ab 543d fc2f 5bbd
000001b0: e9ac 513d f909 b23d f6b5 dc3d 0114 093e
000001c0: 2df1 32bd 067a 19be ed84 74bd 86d3 29be
000001d0: 87eb fb3c 01ad 07be 1c07 c7bc f580 e83d
000001e0: a558 acbc 1f2a fa3c bebd e83d b97d 93bd
000001f0: 685a f0bd c51a 8c3d 09dd 003e 28b3 a1bc
00000200: 0216 c5bd 858a a23c bcaf 813d 0221 03be
00000210: 4736 7fbd 393e 1bbb 8c1d a03d 1f9f 9338
00000220: bb18 153e d599 103e abd3 f13c bbc5 9ebd
00000230: f7b2 99bd 7b8c 08bd 9145 3e3c 23a2 a7bd
00000240: b441 10be e68a 16bd b1e7 cfbd e732 3f3d
00000250: ed0e 87bd 2392 0fbd c9a3 423d 3791 963c
00000260: ddbf e03a 23c6 b23d 0f44 d6bd d636 2d3d
00000270: 6668 e83b a8b7 26be c59a ae3c 6cc6 bbbd
00000280: 1ac0 1dbd a285 8bbd c8aa 0ebe 8097 ae3d
00000290: f901 ab3d d24a 833c 4b77 a4bd e2ac 0c3e
000002a0: 5140 60bd d8d7 ccbd 58a5 f8bd 0ed8 c33c
000002b0: b813 84bd 24c3 e2bc 5984 0ebe ecc9 63bd
000002c0: 4202 09be 8ced d9bd 1427 08be dd06 90bd
000002d0: 0688 ea3d 2257 25bd 4bd3 c0bd 55e5 0c3e
000002e0: 06af 7f3c 773e ecbd 41fc dbbd bb4b 883c
000002f0: ca82 bdbd 2527 7e3d 431c f4bd f1cb 01be
00000300: ef96 af3d f968 0cbb b4ff 4b3d c364 41bd
00000310: d95a 98bd b53c bc3d 8b1f 37bc 6d0f b93d
00000320: 8a19 26bd c7f8 09bd 028b 6ebc dcc7 74bd
00000330: 0a0d 273d cb06 cc3c fc61 76bd 355c 9abd
00000340: 3288 fe3d ba55 1ebc 71dd 1ebc 3086 c6bd
00000350: edc7 ca3d eefe c83d eb3b 783d 48c4 053e
00000360: 0141 c13d 0cb9 f23d a635 83bd 2d3f 81bd
00000370: 9c6c b1bc 67a1 ccbd 5d22 803d feb1 91bd
00000380: 3c32 493d c1e7 b13d 7ba6 e6bc 9c65 053e
00000390: fb15 82bd 05bf 7a3d b58b ca3d 7b94 b4bd
000003a0: bca0 9236 cbb0 e03d 89f4 e4bd 18a6 a2bd
000003b0: 0d72 13be 576d ca3d 6cc6 b23d 0d57 d73c
000003c0: f1ea c83c 514c 10be cee4 693d ec79 9abd
000003d0: 5ea6 813d c8de bbbd bd23 dabd 9c6a fc3d
000003e0: d1e2 253d 93fb 23bd 3bd4 d0bd 69f9 14be
000003f0: 017e d63d 68d1 f0bc bf6e 1c3d c23f a83d

actor.0.bias f4 [128]
0.059037182 -0.094222546 -0.04092792 -0.09554858 -0.0058401087 -0.1280418 -0.13498956 -0.13246551
-0.11651413 -0.106042184 -0.07848937 0.123869844 -0.017541053 0.14322855 0.011945287 0.0030402418
0.095921166 -0.12878236 0.047518246 0.14139305 -0.08748429 -0.10281471 -0.05802207 0.12596777
0.13776012 0.07364469 -0.06599274 -0.07373671 -0.1321216 0.016356824 0.025627362 -0.009689166
0.09370519 0.07526882 -0.13552493 0.102988444 0.099522114 0.11747489 0.123634346 -0.013802907
0.123674564 0.07381002 0.038565423 -0.04516483 0.0041347253 -0.04387141 0.061425354 -0.09259586
0.06032346 0.122027315 0.12242919 0.12347024 -0.012551944 0.07454677 0.08347439 0.018834477
-0.09101989 -0.1294347 0.065488264 0.13472001 -0.024202185 0.06954351 -0.025252217 0.038151156
0.08882403 -0.08706395 0.014641061 -0.021008125 -0.040837042 0.011759942 0.09304034 0.09721118
-0.058697753 0.117023684 -0.07505352 0.05196191 0.08864897 -0.0032273284 -0.015137184 0.06749912
0.13286805 -0.05364058 0.057664663 -0.047990877 -0.10893552 0.020545721 0.05617436 -0.14759806
-0.106449 -0.12649077 -0.005668032 -0.12920132 -0.07055113 -0.14600794 0.04940131 0.044891212
-0.082888044 0.08667182 0.038930427 -0.12691912 0.12786916 0.10303077 0.015472486 -0.037591156
-0.13440983 0.011859363 0.1321454 -0.11584794 -0.060407154 0.016739488 -0.13029772 0.067994475
0.10773631 0.11720229 -0.010982264 -0.14552678 -0.042007387 -0.016510589 0.010772689 0.12557131
-0.003490684 0.14147262 0.14001496 -0.113261715 -0.12958838 -0.0981394 -0.10868496 -0.030563956
00000000: f9d0 713d c0f7 c0bd 09a4 27bd f9ae c3bd
00000010: 625e bfbb 641d 03be b43a 0abe 0aa5 07be
00000020: f69e eebd a52c d9bd 09bf a0bd 79af fd3d
00000030: 41b2 8fbc 81aa 123e 2ab6 433c cb3e 473b
00000040: 5172 c43d 86df 03be 7ea2 423d 57c9 103e
00000050: f72a b3bd 8590 d2bd 8da8 6dbd b2fd 003e
00000060: fd10 0d3e 07d3 963d 3427 87bd 4603 97bd
00000070: e24a 07be bffe 853c 79f0 d13c 4fbf 1ebc
00000080: 82e8 bf3d 8a26 9a3d 0cc7 0abe 9beb d23d
00000090: 40d2 cb3d ad96 f03d 0134 fd3d 9725 62bc
000000a0: 1749 fd3d b529 973d c7f6 1d3d c2fe 38bd
000000b0: 977c 873b 82b2 33bd 2799 7b3d e6a2 bdbd
000000c0: bb15 773d 75e9 f93d 28bc fa3d f7dd fc3d
000000d0: aba6 4dbc faab 983d 9ff4 aa3d c34a 9a3c
000000e0: a368 babd 888a 04be b61e 863d 0bf4 093e
000000f0: a943 c6bc d46c 8e3d bddd cebc 6344 1c3d
00000100: 5fe9 b53d 964e b2bd 10e1 6f3c 3b19 acbc
00000110: be44 27bd c6ac 403c ef8b be3d a816 c73d
00000120: 0e6d 70bd 1daa ef3d a9b5 99bd 03d6 543d
00000130: 978d b53d 9681 53bb f401 78bc fb3c 8a3d
00000140: 900e 083e 3ab6 5bbd c831 6c3d 1592 44bd
00000150: 9619 dfbd 804f a83c 1617 663d f223 17be
00000160: ef01 dabd cc86 01be e6ba b9bb 5a4d 04be
00000170: 1c7d 90bd 1b83 15be 0759 4a3d d9df 373d
00000180: 35c1 a9bd ff80 b13d 8375 1f3d 16f7 01be
00000190: 22f0 023e cc01 d33d 4f80 7d3c 2ff9 19bd
000001a0: bba2 09be c64d 423c 2051 073e af41 edbd
000001b0: 7e6d 77bd 4021 893c c46c 05be b040 8b3d
000001c0: dba4 dc3d c107 f03d f4ee 33bc f904 15be
000001d0: f00f 2cbd 3741 87bc ef7f 303c c495 003e
000001e0: f6c3 64bb 33de 103e 1560 0f3e c2f5 e7bd
000001f0: d1b2 04be 4ffd c8bd 3896 debd 4361 fabc

actor.2.weight f4 [64, 128]
-0.06801353 -0.034438863 -0.05947851 0.044593707 -0.0108303595 0.050465222 0.017578155 0.05220432
0.014656025 -0.0114093255 -0.03707754 -0.04666634 -0.01948203 0.055608988 0.05149673 -0.08470905
-0.027965058 0.028844388 -0.05344272 0.06642502 0.059732568 -0.032223724 -0.072856724 0.020000126
0.07187153 0.064941704 0.09203694 0.008726616 0.086787574 -0.04932903 -0.028868817 -0.012808806
-0.059665855 -0.016886199 -0.07362806 0.071050905 0.020570297 -0.031120393 -0.009485341 -0.050898626
-0.079054244 -0.037101164 0.047306124 0.0006121708 0.0016030057 0.047567714 -0.0162617 -0.04047045
0.020232216 -0.013217236 -0.018413275 0.017204719 0.005393494 -0.0044996096 0.029632458 -0.019000588
0.04083068 -0.024785995 0.016487386 0.07598729 -0.03025576 -0.0468041 0.021518787 -0.020480126
-0.063996956 0.04622183 0.05936119 0.034839217 -0.0016024625 0.002722702 -0.084730856 -0.02136548
0.012610841 0.035768427 0.07485776 0.046569258 0.060786966 -0.09511687 0.03570307 0.02041026
-0.039836805 -0.082058735 0.07830218 -0.027883181 -0.07887321 -0.07438689 0.020731756 0.051625382
0.01322343 0.01569402 -0.015955416 0.0124016255 -0.000819 0.06648309 0.046662312 -0.030892696
0.028934505 -0.030505802 -0.055946223 -0.033305608 0.075169854 0.046858616 -0.07774754 0.07910491
-0.06223381 0.055796105 0.0042595575 -0.02644018 -0.0037600864 -0.043849573 0.08004682 -0.03574139
-0.027164118 -0.07551586 0.053201225 0.06815514 0.01978115 -0.015846787 0.0257895 -0.040298678
0.08700978 -0.029693315 0.033428043 0.07308499 -0.02013141 0.06972322 0.05626365 -0.0010290788
-0.036766138 0.063091174 0.020226715 0.006432198 -0.032420162 -0.08759464 -0.07338777 0.00029766327
-0.07526513 -0.09609403 -0.02370712 -0.0068396907 0.06367083 -0.061912566 -0.073433265 0.00013563172
-0.08126094 -0.008059743 0.063730925 -0.06318238 0.02457285 -0.028523088 0.09339991 -0.0015002349
-0.0020933344 -0.020468092 -0.041503724 0.075412825 -0.050889 0.07797279 0.056458823 -0.077928774
0.07062962 -0.007554766 0.057166066 -0.04365548 0.018166631 -0.00054925436 0.011379759 -0.010236298
-0.018442627 -0.052932434 0.06220091 0.03663373 -0.040951304 -0.0076278085 -0.074927434 -0.025507974
0.015118329 0.09034657 -0.0888586 -0.021270575 -0.05539147 0.06744871 -0.08298456 0.021490155
0.028647859 0.050727867 0.0144221485 0.012329673 0.0964566 -0.022188049 0.053217262 0.053858023
-0.021428524 -0.022505287 0.050830517 -0.03634525 0.008312214 -0.069663465 0.058672518 -0.06994318
0.016174873 -0.08069168 0.024537835 -0.018199548 -0.04414235 -0.030617785 0.018592004 -0.022062976
0.06241935 -0.07532799 0.058396664 -0.061501727 -0.024298811 -1.5116479e-05 -0.050545886 0.03658973
0.0855483 -0.028178956 -0.019422898 0.014687902 0.07814232 0.09416135 0.029174734 0.020627264
0.080917954 -0.046922382 0.050316926 -0.048090894 0.01085698 -0.090315714 -0.004911025 0.077628374
0.07881298 -0.024866495 -0.04207503 -0.009711218 0.053675074 0.020465992 -0.038793914 -0.03859031
0.0614931 -0.055303082 -0.024905574 -0.014458769 0.082852066 0.07228788 0.07393449 -0.06465953
0.04252033 -0.0020737986 0.045879662 0.05367054 -0.060499284 -0.07518756 0.006276654 -0.085834496
00000000: ad4a 8bbd c40f 0dbd bd9f 73bd e4a7 363d
00000010: d271 31bc 9fb4 4e3d 1000 903c 32d4 553d
00000020: d31f 703c 2eee 3abc 9ede 17bd 3425 3fbd
00000030: c798 9fbc 40c6 633d 3cee 523d f07b adbd
00000040: fa16 e5bc 114b ec3c c1e6 5abd d709 883d
00000050: 23aa 743d 06fd 03bd e835 95bd 4ed7 a33c
00000060: 6131 933d 2800 853d dd7d bc3d 15fa 0e3c
00000070: afbd b13d 3d0d 4abd 4c7e ecbc 07dc 51bc
00000080: 2f64 74bd ed54 8abc 4fca 96bd 2383 913d
00000090: 0a83 a83c 32f0 febc 6768 1bbc 147b 50bd
000000a0: 31e7 a1bd 64f7 17bd 11c4 413d 167a 203a
000000b0: f21b d23a 5dd6 423d 4237 85bc 58c4 25bd
000000c0: 08be a53c 1b8d 58bc 70d7 96bc e9f0 8c3c
000000d0: e8bb b03b 7671 93bb c5bf f23c 1fa7 9bbc
000000e0: 123e 273d 000c cbbc 8e10 873c 399f 9b3d
000000f0: edda f7bc a8b5 3fbd 2b48 b03c f0c5 a7bc
00000100: d610 83bd 1a53 3d3d b824 733d 91b3 0e3d
00000110: b809 d2ba 5c6f 323b 5f87 adbd a906 afbc
00000120: b39d 4e3c ea81 123d 064f 993d 68bf 3e3d
00000130: c1fb 783d a2cc c2bd 623d 123d 6b33 a73c
00000140: eb2b 23bd 690e a8bd e55c a03d 456b e4bc
00000150: 4788 a1bd 2758 98bd a5d5 a93c 2375 533d
00000160: 16a7 583c bf90 803c efb4 82bc 3030 4b3c
00000170: 29b2 56ba 4928 883d fb20 3f3d ae12 fdbc
00000180: 0e08 ed3c 4ee7 f9bc de27 65bd 766b 08bd
00000190: a7f2 993d d2ee 3f3d 1a3a 9fbd c101 a23d
000001a0: e1e8 7ebd 758a 643d c293 8b3b 1499 d8bc
000001b0: c86b 76bb 9c9b 33bd 96ef a33d 9065 12bd
000001c0: 4987 debc 0fa8 9abd 87e9 593d ec94 8b3d
000001d0: 140c a23c 1fd1 81bc 8044 d33c 3a10 25bd
000001e0: 2f32 b23d 653f f3bc d8eb 083d 95ad 953d
000001f0: a0ea a4bc 0ccb 8e3d b774 663d 28e2 86ba
00000200: 1798 16bd f235 813d 7fb2 a53c 30c5 d23b
00000210: 01cb 04bd d264 b3bd 544c 96bd b00f 9c39
00000220: 9b24 9abd f2cc c4bd 6f35 c2bc 7c1f e0bb
00000230: da65 823d 0898 7dbd 2e64 96bd 5d38 0e39
00000240: 236c a6bd 030d 04bc 5c85 823d c365 81bd
00000250: 004d c93c 40a9 e9bc 7448 bf3d 88a3 c4ba
00000260: 5330 09bb b3ac a7bc cfff 29bd 0a72 9a3d
00000270: fc70 50bd 33b0 9f3d 5e41 673d 1f99 9fbd
00000280: 43a6 903d f88d f7bb f726 6a3d 17d0 32bd
00000290: 30d2 943c d6fb 0fba 2b72 3a3c 25b6 27bc
000002a0: fe14 97bc aecf 58bd 62c6 7e3d 400d 163d
000002b0: 8ebc 27bd b2f2 f9bb 8e73 99bd 19f6 d0bc
000002c0: deb2 773c 9f07 b93d 7ffb b5bd a13f aebc
000002d0: 2be2 62bd 8d22 8a3d cff3 a9bd 1f0c b03c
000002e0: eaae ea3c 06c8 4f3d e04a 6c3c 6602 4a3c
000002f0: 0a8b c53d b6c3 b5bc 58fa 593d 3b9a 5c3d
00000300: df8a afbc 025d b8bc a933 503d c2de 14bd
00000310: f42f 083c b8ab 8ebd 9852 703d 5f3e 8fbd
00000320: 2b81 843c ae41 a5bd 9203 c93c 3817 95bc
00000330: 9cce 34bd 26d2 fabc 424e 983c 6abd b4bc
00000340: 6fab 7f3d 9045 9abd 5731 6f3d 3ce9 7bbd
00000350: 4d0e c7bc c89c 7db7 3409 4fbd 1ddf 153d
00000360: f233 af3d 8ed7 e6bc c51c 9fbc 87a5 703c
00000370: 1509 a03d aad7 c03d daff ee3c 82fa a83c
00000380: 50b8 a53d af31 40bd 1f19 4e3d f5fa 44bd
00000390: 7ae1 313c 72f7 b8bd aaec a0bb a0fb 9e3d
000003a0: b368 a13d d2b4 cbbc de56 2cbd cd1b 1fbc
000003b0: 65da 5b3d 4ca8 a73c 5ee6 1ebd df10 1ebd
000003c0: 30e0 7b3d 7c85 62bd c606 ccbc 79e4 6cbc
000003d0: 58ae a93d ab0b 943d f76a 973d 376c 84bd
000003e0: cc29 2e3d 91e8 07bb 50ec 3b3d a4d5 5b3d
000003f0: 19ce 77bd effb 99bd 64ac cd3b ffc9 afbd

actor.2.bias f4 [64]
0.042664137 -0.08007607 0.052815493 -0.07302478 0.016820088 0.007688654 -0.006324219 0.062459
0.043723438 -0.0788254 0.052064214 0.022807399 -0.017159794 -0.023981532 -0.060054116 -0.061599094
0.022186669 0.011826064 0.015151894 -0.01769195 -0.0058858837 0.034998126 0.04839718 -0.039866924
-0.07939826 0.071949705 -0.083291836 -0.06793796 -0.014910631 0.056435518 0.08175281 -0.05737031
0.012479314 -0.074160285 0.047638517 0.030776793 -0.038475074 0.059565917 0.041688357 -0.0400176
-0.06569596 0.021048633 0.04049628 -0.029377667 0.0054946775 -0.070752256 0.052302837 0.026933797
0.024776038 0.0072921985 0.031181552 -0.05226343 -0.043970633 0.06580421 -0.028765699 -0.06295413
-0.055682693 -0.064969584 -0.012989986 0.04683597 -0.08461363 -0.017289424 0.023077775 -0.0611633
00000000: 97c0 2e3d ecfe a3bd 0f55 583d 048e 95bd
00000010: 48ca 893c 1bf1 fb3b 653b cfbb 02d5 7f3d
00000020: 5917 333d 366f a1bd 4941 553d 95d6 ba3c
00000030: b292 8cbc eb74 c4bc 4efb 75bd 554f 7cbd
00000040: d1c0 b53c 1cc2 413c a63f 783c b5ee 90bc
00000050: 5fde c0bb 325a 0f3d 1f3c 463d 804b 23bd
00000060: 8e9b a2bd 5e5a 933d e994 aabd 0f23 8bbd
00000070: b84b 74bc ee28 673d 046e a73d 21fd 6abd
00000080: 0976 4c3c 59e1 97bd 9b20 433d 9d1f fc3c
00000090: 0a98 1dbd 64fb 733d 69c1 2a3d 7fe9 23bd
000000a0: 9a8b 86bd 2f6e ac3c 6ddf 253d 6fa9 f0bc
000000b0: b20c b43b 8fe6 90bd 803b 563d 44a4 dc3c
000000c0: 1ef7 ca3c 65f3 ee3b 7470 ff3c 2e12 56bd
000000d0: 8d1a 34bd 5cc4 863d 0ba6 ebbc 18ee 80bd
000000e0: 8913 64bd c60e 85bd f3d3 54bc 13d7 3f3d
000000f0: e949 adbd 8da2 8dbc 9a0d bd3c 5e86 7abd

actor.4.weight f4 [32, 64]
0.12561691 0.12183396 0.072484836 0.0705468 0.067487486 -0.091894165 0.11289254 -0.08670064
-0.039840497 -0.05204242 -0.019630773 0.08740252 0.04199048 -0.05540847 -0.06084826 -0.03504565
0.0931655 0.09421049 0.047465567 0.002343842 -0.027943565 0.036233198 0.095524855 0.03723568
-0.008135133 0.062777236 0.064817704 -0.07380232 0.025200821 -0.06536577 0.11339967 -0.028159626
0.0032327487 -0.06831045 -0.10243915 -0.052339196 0.11749068 0.09993607 0.022410393 -0.11814322
0.05835093 0.023202455 -0.11118796 0.10892297 0.07870897 0.062085323 -0.009298482 -0.03145069
0.011048722 0.02045479 -0.01089973 -0.0325644 0.012532917 -0.05950429 -0.080519505 0.110172465
0.09334767 -0.03600876 0.09073739 0.08817805 0.114967965 -0.017360043 -0.08989506 0.0055278772
-0.044611625 0.015170166 -0.081832066 -0.10540305 0.022425214 -0.092246905 0.109607756 -0.11082335
0.113753006 -0.079993784 -0.012682009 0.09416068 0.09136253 -0.07010748 0.099606186 0.119764335
0.09945833 -0.0029524863 -0.09863674 0.002575294 -0.043324333 0.022145124 -0.036788538 -0.0022173258
0.06990731 0.053086493 0.03131926 -0.032205127 -0.10191175 -0.101949595 0.07932769 -0.07379769
0.10662832 0.1093412 0.036836207 0.026440384 -0.07567146 -0.07988142 0.004537481 -0.00632281
0.10075326 -0.07954891 -0.039536823 -0.006900004 0.043801956 -0.035978705 -0.067401595 -0.039580356
-0.029530112 -0.09604885 0.12875338 0.10493878 0.010463905 0.016032979 -0.046366215 -0.06597313
0.062235337 0.06476931 0.101983644 -0.032698024 0.04726723 0.04448503 -0.048614424 -0.06289019
0.06090975 0.013088163 -0.08354802 -0.08738284 0.08680375 -0.06302349 0.11330425 0.038293686
0.07450741 -0.040278886 -0.10558201 -0.11483508 -0.12209165 0.06588027 0.036618594 -0.030685391
0.10073039 -0.1044566 -0.10958182 -0.12578875 0.00059734844 -0.027753286 0.043025292 -0.0126808435
-0.08182513 -0.033559132 -0.07924798 -0.117198244 0.089224234 -0.0014682595 -0.1041472 0.08895498
0.1017629 0.095411986 0.017411426 0.06731397 0.09638262 -0.10586035 0.047562998 -0.11195411
0.003766203 0.048565354 0.097677425 -0.067297235 -0.0037753086 -0.054952394 -0.014088494 0.0050495737
-0.074677646 -0.06971469 -0.016250376 0.11365637 -0.10259528 -0.08570426 0.0936699 -0.09071603
-0.063616894 0.013848934 0.058826197 -0.03497538 -0.015203982 -0.033695903 -0.066760354 0.064454876
-0.0238937 0.11633576 -0.115986094 -0.067039944 0.078894384 -0.11949849 0.09113471 -0.003052133
0.025430664 0.114892 0.061569706 -0.05131854 -0.08856652 -0.019560514 -0.07101485 0.04900668
-0.011023346 -0.006399657 -0.093594246 0.0075675664 -0.09282059 -0.07248957 0.036541224 -0.025393356
-0.007242375 0.102003254 -0.12114415 0.03836672 0.09764485 -0.035549313 0.04843484 -0.07650241
0.057496887 -0.07960373 -0.10984392 0.07030172 -0.028715458 -0.040917285 -0.026974265 0.06463831
-0.093356065 -0.021654915 -0.08246367 -0.023128277 0.06485396 -0.06393836 -0.027409032 0.053775325
-0.018371027 -0.058684263 0.014743827 0.051543575 0.023159023 0.08366376 0.04337915 -0.09421965
-0.076613165 0.028377222 -0.07017762 -0.011612039 -0.065477245 -0.084815145 -0.08927967 -0.09640201
00000000: b8a1 003e 1584 f93d ee72 943d d77a 903d
00000010: e136 8a3d 0233 bcbd 3434 e73d 1b90 b1bd
00000020: ca2f 23bd 6f2a 55bd b7d0 a0bc 1800 b33d
00000030: 36fe 2b3d fef3 62bd 063c 79bd 078c 0fbd
00000040: 8ecd be3d 6ef1 c03d 416b 423d 259b 193b
00000050: e7e9 e4bc 4369 143d 89a2 c33d 7184 183d
00000060: 3949 05bc 5a91 803d 25bf 843d ac25 97bd
00000070: f471 ce3c 7dde 85bd 163e e83d 04af e6bc
00000080: 86dc 533b 59e6 8bbd 9ecb d1bd a061 56bd
00000090: f49e f03d 48ab cc3d 0096 b73c 13f5 f1bd
000000a0: 6301 6f3d 1313 be3c 83b6 e3bd 0213 df3d
000000b0: 2b32 a13d 2e4d 7e3d a958 18bc 70d2 00bd
000000c0: b305 353c ce90 a73c c894 32bc 4062 05bd
000000d0: dd56 4d3c c5ba 73bd 69e7 a4bd 1aa2 e13d
000000e0: 102d bf3d ec7d 13bd 86d4 b93d b296 b43d
000000f0: 5374 eb3d a636 8ebc e71a b8bd 3223 b53b
00000100: aeba 36bd 4a8c 783c 9297 a7bd 8edd d7bd
00000110: 15b5 b73c f2eb bcbd 087a e03d 5af7 e2bd
00000120: 56f7 e83d c8d3 a3bd 33c8 4fbc 51d7 c03d
00000130: 471c bb3d 8394 8fbd 54fe cb3d 0147 f53d
00000140: cfb0 cb3d 807e 41bb 0f02 cabd 44c6 283b
00000150: db74 31bd b169 b53c 94af 16bd 8e50 11bb
00000160: 902b 8f3d 3971 593d a048 003d 86e9 03bd
00000170: 1cb7 d0bd f3ca d0bd 8e76 a23d 3e23 97bd
00000180: f35f da3d 47ee df3d 90e1 163d 8199 d83c
00000190: a3f9 9abd df98 a3bd 26af 943b 932f cfbb
000001a0: ba57 ce3d 8aea a2bd 5df1 21bd 6e19 e2bb
000001b0: ae69 333d 685e 13bd d909 8abd 031f 22bd
000001c0: 22e9 f1bc 42b5 c4bd edd7 033e 25ea d63d
000001d0: cc70 2b3c 9857 833c 80ea 3dbd ec1c 87bd
000001e0: 7bea 7e3d c6a5 843d cddc d03d 5dee 05bd
000001f0: 489b 413d ef35 363d eb1f 47bd 92cc 80bd
00000200: 817c 793d bc6f 563c 391b abbd c6f5 b2bd
00000210: 2ac6 b13d 7612 81bd 0f0c e83d d7d9 1c3d
00000220: 5797 983d 79fb 24bd 613b d8bd a82e ebbd
00000230: 300b fabd 3cec 863d 61fd 153d ee5f fbbc
00000240: bc4b ce3d 58ed d5bd 6f6c e0bd c4ce 00be
00000250: 6097 1c3a dc5a e3bc 4a3b 303d 50c3 4fbc
00000260: ef93 a7bd 4d75 09bd c44c a2bd a205 f0bd
00000270: 32bb b63d 9d72 c0ba 214b d5bd 072e b63d
00000280: 1169 d03d 5c67 c33d 68a2 8e3c e8db 893d
00000290: 4064 c53d 50cd d8bd 6bd1 423d 3248 e5bd
000002a0: 67d2 763b 77ec 463d 1a0b c83d 22d3 89bd
000002b0: 2b6b 77bb c315 61bd 6dd3 66bc e576 a53b
000002c0: 98f0 98bd 93c6 8ebd 821f 85bc acc4 e83d
000002d0: 791d d2bd b785 afbd 01d6 bf3d 53c9 b9bd
000002e0: 9349 82bd a4e6 623c bdf3 703d 5842 0fbd
000002f0: 1f1a 79bc b704 0abd a7b9 88bd eb00 843d
00000300: b9bc c3bc 7141 ee3d 1e8a edbd 3d4c 89bd
00000310: 6193 a13d a0bb f4bd d6a4 ba3d 4b06 48bb
00000320: f853 d03c 7f4c eb3d 8430 7c3d 6433 52bd
00000330: 5d62 b5bd 5f3d a0bc 3c70 91bd 3abb 483d
00000340: 449b 34bc 37b4 d1bb 57ae bfbd 59f9 f73b
00000350: b918 bebd 6975 94bd 40ac 153d ba05 d0bc
00000360: 7251 edbb 15e7 d03d 6d1a f8bd 6c26 1d3d
00000370: 06fa c73d 289c 11bd 9c63 463d 4cad 9cbd
00000380: db81 6b3d 4807 a3bd d9f5 e0bd 59fa 8f3d
00000390: ae3c ebbc e298 27bd 22f9 dcbc 1761 843d
000003a0: 7731 bfbd a665 b1bc b6e2 a8bd 8377 bdbc
000003b0: 27d2 843d 1df2 82bd e888 e0bc 8443 5c3d
000003c0: d67e 96bc e95e 70bd 1890 713c 5b1f 533d
000003d0: feb7 bd3c e857 ab3d 56ae 313d 3bf6 c0bd
000003e0: 5de7 9cbd 5977 e83c 49b9 8fbd 6c40 3ebc
000003f0: ef18 86bd 90b3 adbd 42d8 b6bd 6b6e c5bd

actor.4.bias f4 [32]
0.121618785 0.057794865 -0.066994995 0.07005667 -0.034476183 -0.019555874 0.043871045 -0.014136944
-0.048266765 0.1030791 -0.10091604 0.007367143 -0.011211225 0.05081773 -0.06744138 0.012823379
-0.10428736 -0.08449721 -0.094551764 0.0600545 0.094479434 -0.037856508 -0.100427024 -0.0031958856
0.03418575 0.08696113 -0.046167888 -0.0145863 0.048091073 0.10564079 -0.029593887 -0.08522634
00000000: 4513 f93d 4fba 6c3d ac34 89bd df79 8f3d
00000010: e636 0dbd a433 a0bc 20b2 333d a49e 67bc
00000020: 5fb3 45bd 231b d33d 12ad cebd 1368 f13b
00000030: 49af 37bc 4126 503d b51e 8abd 2619 523c
00000040: 9d94 d5bd e00c adbd 5ba4 c1bd b5fb 753d
00000050: 6f7e c13d 6d0f 1bbd afac cdbd 1072 51bb
00000060: 5b06 0c3d ad18 b23d 8a1a 3dbd 60fb 6ebc
00000070: 25fb 443d 335a d83d e16e f2bc 268b aebd

actor.6.weight f4 [12, 32]
0.15248199 -0.034944344 0.12813176 0.10530243 0.04877135 -0.072864324 -0.0831242 -0.13719964
0.08009485 -0.047986016 -0.07208594 0.09780943 -0.1104201 0.1778208 0.05274597 0.14688918
-0.00997194 0.027750954 -0.17874227 -0.024621772 0.026622912 -0.01583635 -0.14623943 0.007740094
0.108016886 -0.028674593 -0.061155148 0.121956475 0.040844798 -0.076104805 -0.1468304 -0.10057515
0.07731691 -0.16122074 -0.019636631 0.07540076 -0.012783197 0.045118425 0.15308389 0.03747713
0.09979527 0.13327557 -0.100514986 0.010092607 0.04476208 0.06727766 -0.18326236 -0.11558203
-0.02570706 -0.14583185 -0.036508817 0.14345795 -0.13990939 -0.0034376942 0.12767841 -0.013215539
0.06327896 0.09037969 0.0034195823 -0.014365891 -0.0683828 -0.16910386 -0.0658595 -0.12049625
0.07492627 -0.11357423 0.030060012 0.117707714 -0.074430496 -0.032764748 0.16158034 0.09500358
-0.09321433 0.12052577 -0.022372035 -0.044698037 -0.040019136 -0.09754157 0.074052595 -0.14449522
-0.060745664 -0.1702336 0.08383662 -0.040826835 0.14974198 -0.021912236 0.12191152 0.11252927
-0.14153403 0.12503725 0.0748728 -0.099923916 0.04736425 -0.1413525 -0.1377356 -0.010100674
0.11758034 -0.079124995 0.17019908 -0.04756046 -0.061046157 0.14188138 0.025770707 -0.17293108
0.10345441 0.030734142 -0.026271945 0.14702618 0.06396366 -0.13414802 -0.05842406 -0.13978039
-0.041960634 0.056101073 0.09309601 -0.044168707 0.13585067 0.12023736 0.08022747 -0.059086222
0.08692716 0.1234614 -0.122861445 -0.105624706 0.14059362 -0.057779994 -0.13678849 -0.08702387
-0.006031164 -0.07212781 -0.07220814 -0.14286251 -0.047442134 0.051016103 0.1496811 -0.09122738
-0.097641304 0.04632158 0.17487967 0.06808109 -0.1300557 0.14081486 0.07364593 0.032558836
-0.08781257 -0.048086014 -0.112746365 -0.047440145 0.0822995 0.059385974 -0.0622783 0.027158482
-0.016451592 0.095096156 0.13568746 0.14496244 -0.12031831 0.10229054 0.049263094 -0.02309431
0.11182651 0.033570208 0.10565035 0.050082393 0.14567553 0.10772404 0.050671797 0.12667647
-0.04876238 -0.06713851 -0.16204937 -0.059918735 -0.100606196 -0.057143424 -0.13225645 -0.065627925
-0.090044014 0.15620272 0.08748926 -0.10166953 -0.08559469 0.032453746 -0.06985618 0.11679891
0.016338905 -0.13187103 -0.07074 0.12601227 -0.07504104 -0.02495671 -0.11190339 -0.1113975
0.14064158 0.10657538 -0.018233635 -0.16233227 0.052912 -0.11292265 0.062019188 -0.062633306
-0.04020697 0.09265472 -0.15185317 -0.07285543 0.028516807 0.091619 -0.0020936176 -0.037072893
-0.11051694 0.09041517 -0.12596962 0.13505255 0.10610593 -0.12840673 0.17480357 -0.13661765
-0.06958817 0.08944271 -0.15338235 0.14002834 0.06588136 -0.15212066 0.13063008 -0.023886677
0.12599367 -0.06795023 -0.08716894 -0.16559461 0.12131398 -0.094575144 -0.13545434 0.02587427
0.15512453 0.13166533 0.0018456343 0.1586883 -0.02309249 0.10316859 -0.08450137 -0.03282766
-0.11924535 -0.05017333 0.14129953 -0.11883289 -0.06384399 -0.009246825 -0.07189277 0.16668059
0.14804421 -0.17397879 0.17330392 -0.14636017 -0.14178538 -0.07157933 0.0048369486 0.17418946
00000000: 3d24 1c3e cd21 0fbd f934 033e cda8 d73d
00000010: 78c4 473d e439 95bd 053d aabd 107e 0cbe
00000020: c508 a43d fc8c 44bd cba1 93bd 4f50 c83d
00000030: ef23 e2bd a816 363e 290c 583d 1e6a 163e
00000040: 5961 23bc f855 e33c 3708 37be 99b3 c9bc
00000050: 4b18 da3c 3cbb 81bc cabf 15be 9da0 fd3b
00000060: f537 dd3d fbe6 eabc d27d 7abd 51c4 f93d
00000070: e04c 273d d6dc 9bbd b55a 16be 58fa cdbd
00000080: 5458 9e3d 0d17 25be 00dd a0bc b76b 9a3d
00000090: 9d70 51bc 19ce 383d 06c2 1c3e 9e81 193d
000000a0: 7661 cc3d 6479 083e cdda cdbd 765b 253c
000000b0: 7158 373d dfc8 893d 21a9 3bbe 45b6 ecbd
000000c0: 9d97 d2bc f254 15be 458a 15bd a4e6 123e
000000d0: 6844 0fbe f04a 61bb 21be 023e fd85 58bc
000000e0: 6698 813d fd18 b93d 121b 603b ea5e 6bbc
000000f0: 480c 8cbd 9029 2dbe 58e1 86bd bdc6 f6bd
00000100: f272 993d 9b99 e8bd 6a40 f63c be10 f13d
00000110: 046f 98bd 5434 06bd 5175 253e 3d91 c23d
00000120: 28e7 bebd 37d6 f63d 8f45 b7bc 4a15 37bd
00000130: 1beb 23bd e0c3 c7bd e3a8 973d 8ef6 13be
00000140: 72d0 78bd b851 2ebe 89b2 ab3d 0a3a 27bd
00000150: f655 193e 4a81 b3bc bfac f93d bf75 e63d
00000160: 4cee 10be c409 003e e956 993d e9a4 ccbd
00000170: 0401 423d b6be 10be 900a 0dbe 4c7d 25bc
00000180: f6cd f03d 490c a2bd ab48 2e3e c2ce 42bd
00000190: 890b 7abd 5a49 113e 171d d33c d814 31be
000001a0: e8df d33d 2bc6 fb3c 4338 d7bc 088e 163e
000001b0: 61ff 823d 195e 09be 114e 6fbd 9722 0fbe
000001c0: eade 2bbd 3dca 653d 1fa9 be3d 3fea 34bd
000001d0: 701c 0b3e 013f f63d 4d4e a43d 6504 72bd
000001e0: de06 b23d 55d9 fc3d c89e fbbd c451 d8bd
000001f0: c6f7 0f3e b7aa 6cbd 4812 0cbe 9239 b2bd
00000200: 12a1 c5bb bfb7 93bd dce1 93bd 8d4a 12be
00000210: af52 42bd 43f6 503d 0146 193e 6cd5 babd
00000220: 2af8 c7bd b2bb 3d3d a813 333e 196e 8b3d
00000230: 522d 05be c531 103e add3 963d 6a5c 053d
00000240: 14d7 b3bd d7f5 44bd 91e7 e6bd 9950 42bd
00000250: a48c a83d b53e 733d 8817 7fbd 777b de3c
00000260: 7dc5 86bc c6c1 c23d a7f1 0a3e 0971 143e
00000270: 7269 f6bd b47d d13d 19c8 493d 4730 bdbc
00000280: 4c05 e53d ea80 093d 365f d83d 3223 4d3d
00000290: f72b 153e 6c9e dc3d 3b8d 4f3d 7ab7 013e
000002a0: 10bb 47bd ea7f 89bd 45f0 25be 596d 75bd
000002b0: 9f0a cebd 390f 6abd 3c6e 07be ef67 86bd
000002c0: ff68 b8bd 9bf3 1f3e 922d b33d 1d38 d0bd
000002d0: 454c afbd 38ee 043d c210 8fbd 4434 ef3d
000002e0: 2bd9 853c 3309 07be 22e0 90bd 5c09 013e
000002f0: 1eaf 99bd 0472 ccbc 9b2d e5bd 5f24 e4bd
00000300: 5904 103e 3144 da3d b45e 95bc 6e3a 26be
00000310: 41ba 583d fe43 e7bd d507 7e3d e445 80bd
00000320: 10b0 24bd c2c1 bd3d 667f 1bbe 3a35 95bd
00000330: 149c e93c bea2 bb3d 1335 09bb bfd9 17bd
00000340: b556 e2bd 972b b93d 2efe 00be 374b 0a3e
00000350: 114e d93d 0e7d 03be b5ff 323e 7fe5 0bbe
00000360: 3e84 8ebd bd2d b73d 4310 1dbe 9763 0f3e
00000370: ceec 863d 85c5 1bbe e4c3 053e fead c3bc
00000380: 7c04 013e 7d29 8bbd a185 b2bd a291 29be
00000390: 7773 f83d 9db0 c1bd 8bb4 0abe 47f6 d33c
000003a0: f7d8 1e3e 47d3 063e 36e9 f13a 307f 223e
000003b0: 762c bdbc 0e4a d33d 0e0f adbd 4c76 06bd
000003c0: e836 f4bd 8d82 4dbd d3b0 103e a95e f3bd
000003d0: a3c0 82bd ff7f 17bc 843c 93bd 51ae 2a3e
000003e0: e798 173e 7f27 32be 9576 313e 71df 15be
000003f0: 3030 11be 2f98 92bd 447f 9e3b b95e 323e

actor.6.bias f4 [12]
0.10573818 0.086108744 0.1626325 0.17793877 -0.17109919 -0.09535817 -0.09858736 -0.14575209
-0.1410367 -0.018151464 0.13884935 -0.044895418
00000000: 428d d83d c859 b03d 2289 263e 9535 363e
00000010: a034 2fbe 254b c3bd 2be8 c9bd 0940 15be
00000020: ed6b 10be 61b2 94bc 862e 0e3e 42e4 37bd

critic.0.weight f4 [128, 48]
0.027408106 -0.12978306 0.003007441 -0.13641192 0.114727125 0.09136674 -0.1165781 0.026124489
-0.02337509 -0.05196658 0.015928831 0.035738267 -0.14453526 -0.063007355 -0.005702232 0.00954739
0.059179313 -0.1295043 0.013127882 0.08448529 0.12957482 -0.024679245 -0.12345182 -0.1408357
-0.07736481 -0.14499477 0.050562233 -0.06742523 -0.11478815 -0.031997804 0.12789899 0.044868737
-0.10297699 -0.113598965 0.030151099 -0.019108392 -0.07789025 0.09775161 0.084885955 -0.06876061
0.036089897 -0.067668065 -0.0004920277 0.009450365 0.035776544 0.07793927 -0.13002786 -0.085381866
0.12786771 0.042446308 0.089907855 -0.13124622 0.044680607 -0.07168741 0.039880857 0.029392421
-0.12479529 0.08755382 0.07489132 -0.07954327 0.038026024 -0.09633388 0.024574164 0.07360392
-0.12300993 0.1014506 -0.05145898 -0.102263495 0.082554996 0.06622884 -0.11733166 0.02653255
-0.059055906 0.08672579 -0.100862406 0.024743406 0.0031948115 -0.004134313 0.045886245 -0.054000735
-0.07713656 -0.15406539 -0.07393455 -0.066925414 -0.14193809 -0.12099679 -0.06389225 0.059943166
-0.014913443 0.013163592 0.075791754 -0.123765044 -0.098240905 0.11121705 -0.13291006 -0.09165394
0.038753834 0.0984356 -0.016999556 -0.03383738 0.03508057 0.13715117 0.066953875 0.024260297
0.09780994 0.13466845 -0.09864156 0.1420401 -0.048989154 -0.09874888 -0.11622945 0.08524739
-0.068391755 0.11222343 0.1280496 0.09501053 0.1239828 0.064853676 -0.024732748 0.018406684
0.045950383 -0.038122155 -0.020327935 -0.11529033 0.018165486 0.007439323 0.03857479 0.06507802
-0.026116721 -0.0382195 -0.02112552 -0.112169966 0.13032669 0.016476775 0.11044617 -0.13313387
-0.011844044 0.055425633 -0.041066222 0.11127159 0.09809335 -0.027022257 0.13366592 -0.083671935
-0.15141045 -0.11752974 -0.0765803 0.12657064 -0.0030141177 -0.14094043 -0.1490887 0.111631654
-0.020681992 -0.16502357 0.10217882 -0.08872833 -0.014330942 0.12810788 0.06830575 -0.12284315
-0.08958934 0.013485421 -0.15019342 -0.12062222 0.12718405 0.050253294 0.14075781 0.027948344
-0.01327858 -0.033154298 -0.043246023 -0.05455824 -0.08251647 -0.10207028 -0.03290973 -0.099071436
-0.0835355 -0.06147619 -0.0120182065 -0.012507495 0.06431119 0.07715866 0.10943495 0.08616902
0.11425233 0.05205433 0.027644452 -0.12145536 -0.018908005 -0.08451904 0.003880756 -0.09708354
-0.04077296 -0.1228839 0.13106677 0.11312348 -0.08219577 0.06571374 0.11227283 0.04463582
-0.08417781 0.11087777 0.019015929 0.079367235 -0.036467474 -0.13176318 -0.061927833 -0.118189104
0.08587903 -0.022405077 0.0359247 0.11546882 -0.040202294 -0.048880912 0.11024052 0.030735953
0.09361394 0.1562876 -0.09122362 0.14031947 0.09175121 0.0951628 -0.10322127 0.023214905
-0.037014883 -0.09899242 0.083005756 0.075303964 -0.036047854 -0.033226293 0.041193306 -0.12695189
0.054686967 0.08227215 -0.08194973 0.019775636 -0.028134009 0.08656089 0.078268856 0.09639636
0.104595125 -0.14207055 -0.11854869 0.11729486 0.03647397 0.11712908 0.08681488 0.05361267
-0.10523861 -0.038113017 0.094943754 0.05542395 -0.04353495 -0.008421004 0.04768904 0.14482035
00000000: f786 e03c dae5 04be 7d18 453b 91af 0bbe
00000010: 0ef6 ea3d 7c1e bb3d 80c0 eebd 0603 d63c
00000020: 1e7d bfbc e9da 54bd 2e7d 823c 4a62 123d
00000030: 0d01 14be 000a 81bd cad9 babb a86c 1c3c
00000040: 0266 723d c69c 04be 5416 573c a006 ad3d
00000050: 43af 043e 212c cabc 4fd4 fcbd 3c37 10be
00000060: 7171 9ebd 8279 14be 581a 4f3d 3d16 8abd
00000070: 0d16 ebbd 2110 03bd f4f7 023e 48c8 373d
00000080: 9ae5 d2bd 93a6 e8bd 70ff f63c 3489 9cbc
00000090: ec84 9fbd ff31 c83d b0d8 ad3d 5dd2 8cbd
000000a0: 00d3 133d 8e95 8abd 6cfb 00ba b4d5 1a3c
000000b0: 6d8a 123d a09e 9f3d 0626 05be b0dc aebd
000000c0: c1ef 023e 2edc 2d3d 9c21 b83d 6965 06be
000000d0: 0303 373d d9d0 92bd 1c5a 233d 60c8 f03c
000000e0: ac94 ffbd 6b4f b33d 9f60 993d 95e7 a2bd
000000f0: 2dc1 1b3d b34a c5bd c24f c93c a7bd 963d
00000100: a1ec fbbd 55c5 cf3d a7c6 52bd 866f d1bd
00000110: 9812 a93d fca2 873d 954b f0bd ca5a d93c
00000120: 9be4 71bd 4a9d b13d f390 cebd afb2 ca3c
00000130: 0b60 513b 2279 87bb 37f3 3b3d e02f 5dbd
00000140: c6f9 9dbd 51c3 1dbe ff6a 97bd 3110 89bd
00000150: 3858 11be 2acd f7bd f1d9 82bd f786 753d
00000160: 8357 74bc 1bac 573c b538 9b3d 8778 fdbd
00000170: 8732 c9bd c4c5 e33d 9319 08be 10b5 bbbd
00000180: 57bc 1e3d 9b98 c93d a742 8bbc 1199 0abd
00000190: a5b0 0f3d 5b71 0c3e 1d1f 893d 88bd c63c
000001a0: 9450 c83d 87e6 093e 9604 cabd f672 113e
000001b0: daa8 48bd da3c cabd b509 eebd 2f96 ae3d
000001c0: fa10 8cbd 66d5 e53d 6f1f 033e e194 c23d
000001d0: b2ea fd3d 01d2 843d 559c cabc 9dc9 963c
000001e0: 7836 3c3d fa25 1cbd c586 a6bc 561d ecbd
000001f0: c9cf 943c 90c5 f33b 9900 1e3d a047 853d
00000200: bcf2 d5bc 0d8c 1cbd 6d0f adbc 5eb9 e5bd
00000210: 5c74 053e 4dfa 863c 9a31 e23d 3f54 08be
00000220: 850d 42bc fd05 633d 0e35 28bd 5ce2 e33d
00000230: 2be5 c83d c85d ddbc b8df 083e 315c abbd
00000240: 570b 1bbe 6fb3 f0bd 22d6 9cbd bc9b 013e
00000250: 8188 45bb b052 10be b5aa 18be 239f e43d
00000260: 486d a9bc f0fb 28be 2143 d13d 33b7 b5bd
00000270: 54cc 6abc b62e 033e e3e3 8b3d 3095 fbbd
00000280: 9e7a b7bd f5f1 5c3c 4ecc 19be c808 f7bd
00000290: 893c 023e 66d6 4d3d d122 103e edf3 e43c
000002a0: 678e 59bc cdcc 07bd be22 31bd 7678 5fbd
000002b0: 65fe a8bd 390a d1bd 5acc 06bd f7e5 cabd
000002c0: a914 abbd 75ce 7bbd 03e8 44bc 3cec 4cbc
000002d0: 96b5 833d 5c05 9e3d 6e1f e03d 6279 b03d
000002e0: 20fd e93d ec36 553d 9e76 e23c 96bd f8bd
000002f0: f6e4 9abc 5218 adbd 4854 7e3b bcd3 c6bd
00000300: 8c01 27bd 8eaa fbbd 5e36 063e 48ad e73d
00000310: 4256 a8bd ed94 863d 4cef e53d 0dd4 363d
00000320: 6a65 acbd e213 e33d 4bc7 9b3c 4a8b a23d
00000330: eb5e 15bd edec 06be 0aa8 7dbd 210d f2bd
00000340: 58e1 af3d da8a b7bc c725 133d eb7a ec3d
00000350: 29ab 24bd 5a37 48bd c8c5 e13d f7c9 fb3c
00000360: aab8 bf3d db09 203e 73d3 babd e8af 0f3e
00000370: 0fe8 bb3d b7e4 c23d ac65 d3bd 2f2d be3c
00000380: eb9c 17bd 8abc cabd ecfe a93d f738 9a3d
00000390: eaa6 13bd 4b18 08bd 50ba 283d adff 01be
000003a0: 71ff 5f3d 4d7e a83d 43d5 a7bd 8400 a23c
000003b0: 4b79 e6bc d646 b13d 6c4b a03d 746b c53d
000003c0: f835 d63d f17a 11be a8c9 f2bd 4a38 f03d
000003d0: bb65 153d 5fe1 ef3d 00cc b13d f698 5b3d
000003e0: 5787 d7bd 651c 1cbd df71 c23d 3904 633d
000003f0: b451 32bd 40f8 09bc 9555 433d c94b 143e

critic.0.bias f4 [128]
0.10420802 0.09658948 -0.11652533 -0.13269247 0.013454993 0.09559759 -0.089826934 0.05271488
0.12695995 0.06710115 -0.09553114 0.08169497 0.02707192 0.12564294 0.103136964 0.07791085
0.12940758 -0.005783425 0.05675049 -0.1126403 0.09951933 -0.1290001 -0.026362287 -0.0045096064
0.022663077 -0.1077804 0.082964934 0.08115035 0.040188555 -0.08465658 -0.097736835 -0.11820262
-0.12233037 -0.1042093 -0.029393354 0.026008822 0.13647664 0.048030056 -0.10971672 -0.09573549
0.13573377 -0.040595237 0.0005028991 -0.037173424 -0.11461556 -0.0055300524 0.016890654 -0.01109004
-0.118684135 -0.11072118 -0.017246865 -0.030896397 -0.11051081 -0.021050831 0.016698316 0.059845366
-0.116218366 0.1044758 -0.10419383 0.044169936 0.06551326 0.024062898 -0.13649565 -0.06616122
-0.061612062 -0.001793874 0.08874976 0.06427551 0.04825304 0.11470308 0.089782536 0.13936253
0.05248821 -0.059967235 0.009615897 -0.121880315 -0.09187726 -0.1092077 0.101405084 -0.049783643
0.13222063 -0.04695583 -0.11975003 -0.059769478 0.12971638 0.11716263 -0.115720905 -0.120061636
0.12366953 0.033139426 -0.0004607848 -0.13366117 -0.011855361 -0.046922952 0.014956377 0.0454039
-0.0035748107 0.027533434 0.09837438 -0.022995243 0.08992028 -0.06605207 -0.06240954 0.057497576
0.07083789 0.1311231 -0.100330494 -0.08159587 0.12388864 0.0039357156 0.030158788 -0.041892294
0.07004352 0.11534863 -0.12020069 0.10806224 0.12182518 -0.0673464 0.012026623 0.11479378
-0.15149167 -0.074556515 -0.03159406 0.08269792 -0.09900985 -0.111294 0.09077641 -0.13086614
00000000: 046b d53d b5d0 c53d d5a4 eebd 89e0 07be
00000010: 5572 5c3c abc8 c33d 2ff7 b7bd 8feb 573d
00000020: ca01 023e 546c 893d d5a5 c3bd b14f a73d
00000030: eec5 dd3c 8ba8 003e 7939 d33d b98f 9f3d
00000040: 6c83 043e e382 bdbb 3473 683d f5af e6bd
00000050: cad0 cb3d 9a18 04be b9f5 d7bc 52c5 93bb
00000060: eba7 b93c f8bb dcbd 85e9 a93d 2832 a63d
00000070: c19c 243d 6e60 adbd 402a c8bd 3714 f2bd
00000080: 5888 fabd af6b d5bd 55ca f0bc 7410 d53c
00000090: 88c0 0b3e 2abb 443d 29b3 e0bd f810 c4bd
000000a0: cbfd 0a3e 3147 26bd fdd4 033a 2943 18bd
000000b0: 90bb eabd 7135 b5bb 455e 8a3c 00b3 35bc
000000c0: ab10 f3bd c9c1 e2bd 4c49 8dbc 711a fdbc
000000d0: 7e53 e2bd cb72 acbc e8ca 883c 6a20 753d
000000e0: e503 eebd 69f7 d53d 9363 d5bd 89eb 343d
000000f0: d12b 863d 8e1f c53c 84c5 0bbe 897f 87bd
00000100: ee5c 7cbd 6c20 ebba 6fc2 b53d e1a2 833d
00000110: fba4 453d 73e9 ea3d e8df b73d 0db5 0e3e
00000120: e1fd 563d 34a0 75bd ff8b 1d3c 639c f9bd
00000130: 252a bcbd 49a8 dfbd 78ad cf3d efe9 4bbd
00000140: d864 073e c254 40bd 813f f5bd d7d0 74bd
00000150: 5fd4 043e f6f2 ef3d 15ff ecbd e0e2 f5bd
00000160: 7346 fd3d 35bd 073d 7d95 f1b9 79de 08be
00000170: fd3c 42bc 4832 40bd 980b 753c 71f9 393d
00000180: 5f47 6abb cc8d e13c 8278 c93d 8560 bcbc
00000190: 2028 b83d 4f46 87bd 25a1 7fbd 9482 6b3d
000001a0: 7513 913d 2245 063e 137a cdbd bc1b a7bd
000001b0: 54b9 fd3d 2df7 803b 900f f73c 4197 2bbd
000001c0: fa72 8f3d e73b ec3d c82b f6bd bc4f dd3d
000001d0: 7b7f f93d e9ec 89bd 500b 453c 0019 eb3d
000001e0: a220 1bbe 16b1 98bd c668 01bd 875d a93d
000001f0: adc5 cabd 1cee e3bd fce8 b93d c601 06be

critic.2.weight f4 [64, 128]
0.08565345 -0.029751249 0.028388627 -0.0041683987 0.016002847 -0.044922274 -0.016472286 0.0023514645
0.017040266 -0.051895563 -0.06969546 -0.07550464 0.0580169 -0.04369543 -0.032004148 0.050063107
0.058661137 0.009922623 0.01365062 -0.022563683 0.0062833834 0.08804726 0.002175238 -0.009053026
0.000701182 -0.026797429 0.07812566 -0.05324885 -0.025083527 -0.03246208 -0.023623621 -0.052385587
0.069105856 0.044302497 -0.00047442102 -0.014876799 0.03889885 -0.058275774 -0.011080785 0.048962925
0.0836853 -0.024576591 0.05352904 -0.043671068 0.026972027 0.04347719 0.07062984 -0.018901782
0.04885282 -0.07107361 -0.013169703 -0.061041255 0.051833045 -0.042410232 -0.055492353 0.00999727
0.031229949 -0.0721442 0.0015192627 0.050268527 0.0008752105 0.025981467 -0.037432574 -0.094264135
-0.068232425 0.019196028 0.01923499 -0.03962313 -0.080498055 -0.02119798 0.05968425 0.018770183
-0.044589836 0.004932118 -0.06685016 0.07304398 -0.031125758 0.06719589 0.032588206 0.02548146
0.0016744361 -0.057557814 -0.058689527 0.08626537 0.060199335 -0.012028265 0.04394525 -0.08937487
0.045605842 0.009674233 0.005496729 -0.015414636 -0.03957153 0.06060521 0.030830124 0.0723917
0.04609637 0.083010085 0.0931534 0.072718136 -0.03732629 0.07104854 0.020927511 0.08309146
-0.03713519 -0.010342334 0.04341018 0.02829695 0.022088494 -0.0651786 -0.05541456 0.05469093
0.010502868 -0.013654502 -0.007865487 -0.03496712 -0.014801193 0.034135636 0.052637383 0.029121034
0.05317018 -0.03608774 0.04584727 0.03382803 -0.038363278 0.00057028414 -0.063495584 -0.052917037
-0.021318242 -0.021799432 0.06401204 -0.07639649 -0.063142225 -0.028725773 0.017310249 -0.031629886
0.023240706 -0.10053725 0.052970275 -0.008964306 0.06113714 -0.06788353 0.059188507 0.012117854
-0.039165493 -0.012361078 0.06981817 0.0101932185 0.06946452 -0.049537573 -0.044736836 -0.033753004
-0.07704446 -0.06923518 -0.0574353 -0.033285376 0.08727037 -0.013720369 -0.06825613 0.019056687
0.049761944 0.07571611 -0.03465237 -0.07488438 -0.019114638 0.043242875 -0.05890932 -0.0054364367
-0.029299457 -0.0876944 -0.07436109 -0.039558385 -0.030135978 0.043437287 0.054398406 -0.07595465
-0.022773903 0.07363095 -0.044516735 0.06924682 0.079385586 0.051272873 0.06962303 -0.035608664
0.007805428 0.01198665 -0.017658597 0.028951174 0.03070206 -0.05744607 0.009831211 0.053428844
-0.02301402 -0.040605698 -0.09030282 0.009003686 -0.0022746036 0.042647317 -0.007172226 0.051056996
-0.009111591 0.0066829915 0.0616682 0.051280666 0.0023226326 0.0649872 -0.07273795 0.07205337
-0.06654055 0.01438203 -0.031229207 0.06328709 -0.06933667 -0.031137986 -0.04831032 0.04702804
-0.032562543 -0.085914195 0.026510809 -0.0076445565 -0.041092504 -0.08654656 0.0829244 -0.073546134
-0.07178569 0.009415812 0.031488568 0.06906227 -0.06226049 0.050732255 0.04131347 0.026223563
-0.057871368 -0.02958882 0.0053017605 0.044816144 -0.049701367 -0.055897385 -0.080226086 0.08626695
-0.053236503 0.057155553 0.017382765 -0.08066503 0.02810182 -0.025038835 -0.010429807 0.048890777
-0.012841336 0.015396206 -0.03345115 0.01792351 -0.03868583 0.036597 -0.028591622 -0.06538404
00000000: 136b af3d e4b8 f3bc 448f e83c 1097 88bb
00000010: 6718 833c 6b00 38bd e3f0 86bc 071b 1a3b
00000020: 0798 8b3c 7190 54bd 7ebc 8ebd 2da2 9abd
00000030: 21a3 6d3d fbf9 32bd c816 03bd f90e 4d3d
00000040: a946 703d 7f92 223c daa6 5f3c 79d7 b8bc
00000050: d7e4 cd3b 1f52 b43d 708e 0e3b 2553 14bc
00000060: 87cf 373a 4886 dbbc 5900 a03d 771b 5abd
00000070: f87b cdbc f5f6 04bd 5386 c1bc 4592 56bd
00000080: 5f87 8d3d 8976 353d b6bb f8b9 d1bd 73bc
00000090: 6754 1f3d 94b2 6ebd 2e8c 35bc 598d 483d
000000a0: 3363 ab3d d954 c9bc 4441 5b3d 6fe0 32bd
000000b0: 71f4 dc3c 2315 323d 61a6 903d e9d7 9abc
000000c0: e519 483d 0a8f 91bd bdc5 57bc 6506 7abd
000000d0: e34e 543d 5ab6 2dbd f34b 63bd 97cb 233c
000000e0: f3d5 ff3c 57c0 93bd ff21 c73a 5fe6 4d3d
000000f0: 626e 653a 16d7 d43c e652 19bd 8e0d c1bd
00000100: 71bd 8bbd fd40 9d3c b392 9d3c dd4b 22bd
00000110: 2adc a4bd 63a7 adbc 7977 743d edc3 993c
00000120: d5a3 36bd 9b9d a13b bde8 88bd 1598 953d
00000130: 72fb febc 009e 893d 367b 053d 7fbe d03c
00000140: c178 db3a bec1 6bbd 6e64 70bd e6ab b03d
00000150: 9493 763d 3312 45bc efff 333d 2c0a b7bd
00000160: 31cd 3a3d ad80 1e3c e81d b43b ab8d 7cbc
00000170: c215 22bd 2b3d 783d 758f fc3c 1a42 943d
00000180: 8ccf 3c3d 3101 aa3d 36c7 be3d 3fed 943d
00000190: 74e3 18bd e681 913d 2c70 ab3c db2b aa3d
000001a0: 121b 18bd e572 29bc dfce 313d 01cf e73c
000001b0: eef2 b43c 5c7c 85bd 61fa 62bd 9903 603d
000001c0: 3914 2c3c 22b7 5fbc 3ede 00bc af39 0fbd
000001d0: b480 72bc cfd1 0b3d 4c9a 573d 3c8f ee3c
000001e0: fac8 593d bdd0 13bd 59ca 3b3d 438f 0a3d
000001f0: d022 1dbd 1f7f 153a f909 82bd 89bf 58bd
00000200: 98a3 aebc b994 b2bc bf18 833d c375 9cbd
00000210: b650 81bd 5052 ebbc 39ce 8d3c 578e 01bd
00000220: 4b63 be3c 79e6 cdbd 5cf7 583d 06df 12bc
00000230: f06a 7a3d 8506 8bbd a66f 723d f789 463c
00000240: ff6b 20bd 1e86 4abc d4fc 8e3d 7501 273c
00000250: 6a43 8e3d e9e7 4abd f93d 37bd 9740 0abd
00000260: 7cc9 9dbd 2dcb 8dbd 4741 6bbd 3f56 08bd
00000270: cfba b23d 66cb 60bc dfc9 8bbd c51c 9c3c
00000280: 2ed3 4b3d 0c11 9b3d a5ef 0dbd fb5c 99bd
00000290: 4d96 9cbc 711f 313d e64a 71bd 2324 b2bb
000002a0: 6a05 f0bc 1f99 b3bd a14a 98bd f907 22bd
000002b0: badf f6bc 4ceb 313d ddd0 5e3d 1d8e 9bbd
000002c0: 5690 babc d3cb 963d 2e57 36bd 47d1 8d3d
000002d0: e994 a23d 8103 523d 8596 8e3d 64da 11bd
000002e0: adc4 ff3b a763 443c c3a8 90bc 032b ed3c
000002f0: e382 fb3c 924c 6bbd 1613 213c 34d8 5a3d
00000300: e687 bcbc 2952 26bd aff0 b8bd 3284 133c
00000310: 8411 15bb f4ae 2e3d fe04 ebbb 2421 513d
00000320: c848 15bc fffc da3b cb97 7c3d ad0b 523d
00000330: 4f37 183b 0218 853d a2f7 94bd b890 933d
00000340: 6946 88bd 9ba2 6b3c 65d4 ffbc a99c 813d
00000350: 6200 8ebd 1715 ffbc 0be1 45bd 79a0 403d
00000360: 4d60 05bd c8f3 afbd 322d d93c 307f fabb
00000370: 9d50 28bd 533f b1bd 45d4 a93d 5b9f 96bd
00000380: 6004 93bd c744 1a3c 28fa 003d 8570 8d3d
00000390: db04 7fbd a0cc 4f3d 5038 293d ccd2 d63c
000003a0: 870a 6dbd 4164 f2bc 64ba ad3b 2291 373d
000003b0: a993 4bbd a8f4 64bd 934d a4bd baac b03d
000003c0: 850e 5abd f11b 6a3d 4d66 8e3c b533 a5bd
000003d0: ca35 e63c 3e1e cdbc c8e1 2abc b241 483d
000003e0: 7864 52bc 5e40 7c3c 1304 09bd 53d4 923c
000003f0: 0875 1ebd bce6 153d fa38 eabc 11e8 85bd

critic.2.bias f4 [64]
-0.06883515 0.08095951 0.045826957 0.044857133 0.050888285 -0.0068630036 -0.084440835 -0.07804517
0.06267926 -0.04951769 -0.04881067 0.012859592 -0.07851476 -0.045132704 0.044672612 0.069657415
0.0006355815 0.0247885 0.04321452 -0.0009136855 -0.055544548 0.034652192 0.037355132 0.07822462
0.08345622 0.047123447 0.062555045 0.088819064 -0.021576205 -0.02712944 0.034552738 0.07123558
-0.08291379 -0.082412966 -0.067886464 0.055382416 -0.01600916 -0.0035118756 0.03412156 -0.06838737
0.0065093124 -0.02628338 -0.03103067 0.0014678903 -0.050533738 0.018524593 -0.00052498473 -0.015880551
0.06177628 0.049264763 0.054319143 0.008696245 -0.05189943 0.03775362 -0.08679636 -0.05209843
0.085237466 0.03166949 -0.059094593 0.02067914 0.01990301 0.038323607 0.0057480372 -0.07110677
00000000: 71f9 8cbd 19ce a53d 0cb5 3b3d 1dbc 373d
00000010: 3c70 503d 0ce3 e0bb 51ef acbd 25d6 9fbd
00000020: fc5d 803d 10d3 4abd b2ed 47bd 0ab1 523c
00000030: 59cc a0bd 12dd 38bd a1fa 363d 8ca8 8e3d
00000040: 279d 263a 4111 cb3c b501 313d 6584 6fba
00000050: ae82 63bd 75ef 0d3d b201 193d 3b34 a03d
00000060: 18eb aa3d 8404 413d dc1c 803d c5e6 b53d
00000070: 95c0 b0bc 8f3e debc 2c87 0d3d f6e3 913d
00000080: b5ce a9bd 21c8 a8bd 0f08 8bbd acd8 623d
00000090: a425 83bc 7f27 66bb 0dc3 0b3d ad0e 8cbd
000000a0: 124c d53b 3e50 d7bc 0834 febc 3a66 c03a
000000b0: 77fc 4ebd e3c0 973c 219f 09ba ee17 82bc
000000c0: 2009 7d3d d9c9 493d c07d 5e3d b27a 0e3c
000000d0: 7f94 54bd 8aa3 1a3d 4ac2 b1bd 2a65 55bd
000000e0: fb90 ae3d deb7 013d 2c0d 72bd 4d67 a93c
000000f0: a30b a33c 37f9 1c3d 085a bc3b 6da0 91bd
