isaacgym/legged_gym/logs/flat_anymal_c/Mar26_18-44-56_/model_150.pt (torch, 418700 bytes, 48 tensors)

std f4 [12]
0.48867384 0.591641 0.5201927 0.4967309 0.5911937 0.5390341 0.49391806 0.60129005
0.5451936 0.49041295 0.60306484 0.53719217
00000000: 7533 fa3e c975 173f 592b 053f 8353 fe3e
00000010: 7858 173f 24fe 093f d4e2 fc3e 25ee 193f
00000020: cf91 0b3f 6817 fb3e 7562 1a3f 6d85 093f

actor.0.weight f4 [128, 48]
0.115437195 0.12603633 -0.09191295 0.16745995 0.8600121 0.12373087 1.198443 -0.6422699
0.2115548 -0.045596115 0.24552055 -0.72180593 0.5356037 0.23637408 -0.22214474 -0.14509761
0.47669625 -0.38433495 -0.59970874 -0.38413292 0.4357465 0.40640813 0.15831874 0.55553997
-0.20905536 0.15847084 -0.14904608 0.42078018 0.10012066 0.15005474 -0.059607625 -0.58504885
0.31865123 -0.12959252 0.06693531 -0.0069089197 -0.35804772 -0.092845075 0.12122921 0.2085676
-0.17339548 0.62170327 -0.17966445 -0.12933849 -0.27242318 -0.21477574 -0.12980239 -0.049465626
-0.13403043 0.009635002 0.16620567 -0.46895787 0.5962413 0.78438264 0.7425547 0.19185598
0.066346794 0.19690411 -0.23571226 -1.1371788 0.38595134 -0.32768792 -0.26833552 -0.30316928
0.4383321 0.29887334 -0.36106288 -0.10913016 0.22880305 -0.13102059 -0.50391066 -0.38103762
0.36474565 -0.11297279 0.00851975 0.039503 0.0832159 0.08682312 0.2645084 -0.011529783
-0.16048904 -0.7339475 0.15698828 -0.30227634 0.117240675 0.07076085 0.0152094 0.21107575
-0.11059461 0.11057117 -0.036076747 -0.059652206 -0.0064480742 -0.10658643 0.08915175 -0.09454406
0.16831431 -0.26225603 0.1854094 0.45158443 -0.6294864 0.75803447 -0.16914713 -0.47676083
0.013741826 -0.19965355 0.28354648 -0.7860363 0.4164077 0.075311325 -0.00565443 0.32618776
-0.49615392 -0.39623153 0.6857474 -0.42374006 -0.20813642 -0.55959445 -0.12312876 0.13683218
0.27519634 0.125382 -0.044550482 0.32004964 -0.65140015 -0.41478777 1.2914637 0.29128882
-0.05623322 0.11354659 -0.16025698 -0.20694172 -0.24337807 0.055471987 0.06738302 -0.08968177
-0.012737541 0.08238599 0.020761784 0.081850156 -0.028404165 -0.2222013 -0.041937307 0.14470892
-0.31173885 0.36171177 0.06552287 -0.24791963 -0.4514411 -1.087624 -0.103015035 0.28640404
0.030213958 0.5141161 -0.38876188 0.7130909 -0.16747616 -0.2975467 0.020580104 0.24811728
0.586391 -0.15821739 -0.45445153 0.2500181 0.27801436 -0.0038958178 -0.20950578 0.13228662
-0.04235965 -0.34937444 -0.504189 0.61272746 0.30687883 -0.34889495 -0.14133695 0.06937511
0.2970198 -0.089732714 -0.4224699 -0.39457837 0.23558179 0.062119335 -0.030726148 0.32000983
0.109928854 0.1014346 -0.108442456 -0.06631989 0.025876516 0.022651605 -0.06663062 -0.21359539
-0.14989418 -0.18575616 -0.09488315 -0.23032345 -1.0042646 0.3831564 -0.23032951 -0.5906277
0.11793237 -0.07259102 -0.10733767 -1.1124458 0.34515774 0.28618374 -0.419991 0.17266063
-0.23350288 -0.36450353 0.21112792 -0.13823518 0.47300753 0.24229045 0.36280906 0.8570486
0.44833723 1.014498 -0.23398268 -0.3346254 -0.21523263 0.015400308 0.17056872 -0.6492442
0.10855493 0.39038518 0.22449876 0.39671326 -0.03773281 -0.1349534 0.17603411 0.0033431787
-0.03557549 -0.0036618598 -0.28569266 -0.024800211 0.030616442 0.09334667 0.1731252 -0.116784856
-0.16283588 -0.026230926 -0.061852023 -0.12007729 0.13111861 0.44183975 -0.8286657 -0.32653123
-0.046666216 -0.037776016 -0.045554105 -0.5702173 0.5529685 -0.036378052 -0.05801036 0.5270099
00000000: 566a ec3d ab0f 013e db3c bcbd 9f7a 2b3e
00000010: c129 5c3f 9c66 fd3d 9566 993f cd6b 24bf
00000020: d2a1 583e fec2 3abd bd69 7b3e 46c8 38bf
00000030: 531d 093f 0c0c 723e e979 63be 7894 14be
00000040: 8811 f43e 8dc7 c4be 8386 19bf 12ad c4be
00000050: 2a1a df3e ba14 d03e 4f1e 223e de37 0e3f
00000060: 9c12 56be 2e46 223e 899f 18be 8070 d73e
00000070: 100c cd3d f3a7 193e 2027 74bd c3c5 15bf
00000080: 4126 a33e e7b3 04be 6115 893d 3864 e2bb
00000090: 0852 b7be 8f25 bebd 0547 f83d bf92 553e
000000a0: 968e 31be f227 1f3f f5f9 37be 4f71 04be
000000b0: 0d7b 8bbe 2cee 5bbe ebea 04be 789c 4abd
000000c0: 463f 09be 21dc 1d3c d231 2a3e 3f1b f0be
000000d0: 45a3 183f 4dcd 483f 1118 3e3f e575 443e
000000e0: d4e0 873d 3ba1 493e 8e5e 71be 138f 91bf
000000f0: 6a9b c53e b6c6 a7be 4663 89be 0139 9bbe
00000100: 116d e03e ed05 993e 3cdd b8be a27f dfbd
00000110: 594b 6a3e 432a 06be 4a00 01bf 5d17 c3be
00000120: f1bf ba3e 475e e7bd 6c96 0b3c e6cd 213d
00000130: 196d aa3d 52d0 b13d a56d 873e 6ae7 3cbc
00000140: 3d57 24be fce3 3bbf 89c1 203e f7c3 9abe
00000150: e11b f03d 11eb 903d d930 793c 3e24 583e
00000160: 6d7f e2bd 2373 e23d 36c5 13bd df55 74bd
00000170: 5e4a d3bb fc49 dabd 3195 b63d 51a0 c1bd
00000180: 965a 2c3e 6c46 86be f6db 3d3e 1336 e73e
00000190: 0526 21bf 8c0e 423f e834 2dbe ff19 f4be
000001a0: 6525 613c fb71 4cbe 012d 913e ad39 49bf
000001b0: 6433 d53e d33c 9a3d cc48 b9bb 1502 a73e
000001c0: e307 febe dcde cabe 248d 2f3f 75f4 d8be
000001d0: b721 55be 9541 0fbf ee2a fcbd bc1d 0c3e
000001e0: 89e6 8c3e 2464 003e 917a 36bd 8cdd a33e
000001f0: 29c2 26bf 105f d4be af4e a53f cf23 953e
00000200: ce54 66bd 1d8b e83d 681a 24be 88e8 53be
00000210: 1a38 79be 9836 633d 1c00 8a3d 13ab b7bd
00000220: 1fb1 50bc fcb9 a83d 9e14 aa3c 0ea1 a73d
00000230: daaf e8bc bd88 63be 74c6 2bbd 932e 143e
00000240: 3c9c 9fbe 4932 b93e db30 863d a5de 7dbe
00000250: 4a23 e7be 4337 8bbf 8cf9 d2bd 8da3 923e
00000260: 4383 f73c 1d9d 033f cc0b c7be 208d 363f
00000270: df7e 2bbe 0b58 98be 9b97 a83c 7512 7e3e
00000280: b81d 163f bd03 22be dfad e8be 5f02 803e
00000290: e657 8e3e fa50 7fbb af88 56be 2576 073e
000002a0: 5081 2dbd 35e1 b2be 8812 01bf b5db 1c3f
000002b0: 391f 9d3e 5ca2 b2be a2ba 10be 8a14 8e3d
000002c0: fb12 983e c9c5 b7bd fa4d d8be 2d06 cabe
000002d0: 5a3c 713e d870 7e3d 67b5 fbbc 54d8 a33e
000002e0: 6122 e13d f2bc cf3d 1417 debd b9d2 87bd
000002f0: fdfa d33c dc8f b93c a275 88bd c0b8 5abe
00000300: dc7d 19be dd36 3ebe 1952 c2bd e9d9 6bbe
00000310: be8b 80bf 132d c43e 80db 6bbe 6033 17bf
00000320: 8786 f13d 9aaa 94bd dad3 dbbd a064 8ebf
00000330: 84b8 b03e ad86 923e 0f09 d7be f3cd 303e
00000340: 611b 6fbe 35a0 babe eb31 583e 868d 0dbe
00000350: 0b2e f23e fd1a 783e 1cc2 b93e 8967 5b3f
00000360: 758c e53e 12db 813f 2899 6fbe 0554 abbe
00000370: f165 5cbe 9351 7c3c 91a9 2e3e de34 26bf
00000380: 0c52 de3d 91e0 c73e 01e3 653e 001e cb3e
00000390: b88d 1abd 3931 0abe 4942 343e 3b19 5b3b
000003a0: 9bb7 11bd d0fb 6fbb 4f46 92be d029 cbbc
000003b0: 55cf fa3c 8a2c bf3d bc47 313e e62c efbd
000003c0: 73be 26be 3de2 d6bc 8c58 7dbd 15eb f5bd
000003d0: f543 063e d238 e23e 6f23 54bf 1a2f a7be
000003e0: 1325 3fbd 06bb 1abd f196 3abd c3f9 11bf
000003f0: 588f 0d3f 2701 15bd 459c 6dbd 1fea 063f

actor.0.bias f4 [128]
-0.013401878 -0.08599737 0.0013124654 -0.13381852 -0.20252544 -0.019228937 -0.2756541 -0.26932308
-0.27007383 -0.20941596 -0.18031527 0.054114677 -0.12191981 -0.03839031 -0.09381743 -0.013662413
0.02222333 -0.18107753 -0.03592839 -0.06395079 -0.021259433 -0.07429426 -0.1351899 0.0012665011
0.058109853 0.030444033 -0.23825684 -0.16272293 -0.2767477 0.114715874 -0.09658957 -0.0485261
0.040815733 0.032172233 -0.17170773 0.0041859774 -0.012070855 -0.025117038 0.0961077 0.08419862
-0.013745412 0.0031559975 -0.07946928 -0.04748767 -0.080414265 -0.13338439 -0.14447582 -0.18372968
0.046668783 -0.008556157 0.035026558 0.09926588 -0.08159035 -0.0025238367 -0.06428372 -0.0077345334
-0.11976777 -0.11206214 -0.047389124 0.0043020407 -0.092102915 -0.039450422 -0.10452384 -0.024908721
-0.10423301 -0.32802638 -0.20551635 -0.13434449 -0.32912573 -0.021581402 0.13283753 -0.03201971
-0.2607325 0.063097626 -0.13591076 0.051380806 -0.021899397 -0.14746283 -0.11072877 -0.06739521
0.030171858 -0.20999365 -0.011740539 -0.18638912 -0.10691813 -0.06655351 0.007845367 -0.32135397
-0.16702715 -0.13982697 0.07224867 -0.27737087 -0.16948801 -0.30450797 -0.06863315 -0.07222754
-0.18559803 0.1239359 -0.24011768 -0.24073419 0.024604164 0.02032025 -0.08226381 -0.07531669
-0.113258936 0.0031538275 0.10142716 -0.3178077 -0.21231997 -0.0058302684 -0.38218462 0.10987736
-0.056087345 0.11303641 -0.019921416 -0.22509071 -0.25236025 -0.09287393 -0.12937914 0.101587445
0.0044409013 0.12507878 0.14487933 -0.2373915 -0.31472653 -0.18183856 -0.20039299 -0.03142928
00000000: 8d93 5bbc 641f b0bd 0807 ac3a b907 09be
00000010: d462 4fbe 0186 9dbc 8922 8dbe b7e4 89be
00000020: 1e47 8abe 2371 56be 91a4 38be 5aa7 5d3d
00000030: 18b1 f9bd 283f 1dbd 5a23 c0bd 50d8 5fbc
00000040: b30d b63c 636c 39be a629 13bd a2f8 82bd
00000050: 4328 aebc 9727 98bd 396f 0abe ba00 a63a
00000060: 9904 6e3d c465 f93c 9af9 73be d7a0 26be
00000070: e0b1 8dbe 28f0 ea3d c1d0 c5bd 4ec3 46bd
00000080: 662e 273d 08c7 033d 27d4 2fbe 862a 893b
00000090: d6c4 45bc 3fc2 cdbc 1dd4 c43d 5370 ac3d
000000a0: 7034 61bc dad4 4e3b cac0 a2bd 6e82 42bd
000000b0: 3cb0 a4bd eb95 08be 78f1 13be a223 3cbe
000000c0: c427 3f3d 202f 0cbc 0278 0f3d e94b cb3d
000000d0: d718 a7bd f466 25bb 2fa7 83bd f871 fdbb
000000e0: ce48 f5bd d680 e5bd 191b 42bd 22f8 8c3b
000000f0: 74a0 bcbd c496 21bd 9810 d6bd 600d ccbc
00000100: 1e78 d5bd 13f3 a7be e172 52be 9a91 09be
00000110: 2b83 a8be 7bcb b0bc 9006 083e 1927 03bd
00000120: bb7e 85be 5439 813d 312c 0bbe ae74 523d
00000130: 5d66 b3bc 7f00 17be c4c5 e2bd 8006 8abd
00000140: f92a f73c 9308 57be 645b 40bc cadc 3ebe
00000150: e4f7 dabd 354d 88bd db89 003c 8288 a4be
00000160: 2a09 2bbe cd2e 0fbe 1cf7 933d 8e03 8ebe
00000170: 448e 2dbe 78e8 9bbe 898f 8cbd 08ec 93bd
00000180: 690d 3ebe 1bd2 fd3d 69e1 75be 0683 76be
00000190: ac8e c93c a776 a63c ee79 a8bd a33f 9abd
000001a0: 4df4 e7bd 72b0 4e3b 0bb9 cf3d b1b7 a2be
000001b0: 686a 59be d60b bfbb b4ad c3be 6207 e13d
000001c0: d8bb 65bd a27f e73d 3d32 a3bc 2e7e 66be
000001d0: 5d35 81be b034 bebd f77b 04be 140d d03d
000001e0: fb84 913b a714 003e 3f5b 143e c216 73be
000001f0: d623 a1be e333 3abe d233 4dbe fdbb 00bd

actor.2.weight f4 [64, 128]
-0.050024174 0.26258034 -0.12757339 0.23814176 -0.034751263 0.16184215 -0.12197153 0.11583665
0.27178264 -0.10929395 -0.007245064 -0.16738334 0.045872513 -0.24891151 0.34247535 -0.17559208
-0.1912365 -0.08165954 0.039868724 0.050037533 0.087931454 0.09682967 -0.21224932 -0.36585796
0.36479402 0.081253774 -0.058864027 0.06530318 0.052617148 -0.11254725 -0.04387757 -0.13457318
0.09051022 0.15582523 0.08183409 0.16073881 -0.03484956 -0.10859455 0.27871817 -0.20853084
-0.055037383 -0.027138887 -0.024136303 -0.16122057 -0.15717526 0.3187291 0.13674708 -0.13163312
0.2528175 0.014568648 -0.06857131 0.2609724 -0.099126674 0.07500428 0.006566729 0.01956241
0.07856865 -0.28014863 -0.19732256 0.21678148 -0.16303062 0.0803721 -0.2313021 0.0036590481
-0.26288304 0.073386356 -0.13729922 0.0119093545 0.319311 -0.1402708 -0.1942057 0.035410687
-0.19151257 0.22498448 0.2558578 0.04979608 0.04989153 0.26273638 0.20302041 -0.005892131
-0.04534372 -0.11704566 0.2687727 0.048686046 0.020516355 -0.33461946 -0.106549345 -0.05931242
0.16370125 -0.49794275 -0.009632026 -0.089813806 -0.20959923 0.119675495 0.18300135 -0.05449429
-0.007917588 -0.18746762 -0.23504974 -0.12903813 0.24692604 0.2041362 0.0062019587 -0.1432113
-0.12970692 -0.011101721 -0.3257233 -0.007391327 -0.0151642915 -0.12432088 0.56959224 -0.26172665
-0.14905253 0.0016921929 0.09107569 0.14228654 0.076787464 0.015414998 -0.19643788 -0.05411563
0.059891857 0.053788766 -0.3530639 0.0037129833 0.18505737 0.25081724 -0.032614667 -0.3953671
-0.030359883 -0.2591022 -0.23047528 0.09678202 -0.14787783 -0.17418885 -0.10535252 -0.07276944
-0.20347017 -0.29426658 -0.037741963 -0.0004008142 0.020674473 -0.21784611 0.31283867 -0.123644195
-0.2336019 -0.3764348 0.17607348 -0.047935452 -0.20134112 0.25607237 -0.052210465 -0.17103125
-0.22998235 -0.29115805 0.1717987 0.088532165 -0.008998406 -0.032098453 0.21602368 -0.16065457
-0.038192194 -0.20191774 -0.19819891 -0.25016823 -0.09852003 0.055751473 0.00033706482 -0.20540993
0.014219229 0.04430825 0.020165928 -0.10726724 -0.0545923 -0.22424218 -0.22752899 0.45295185
-0.49311367 -0.13263227 -0.13605893 -0.44962573 0.12571913 0.07408004 -0.07866094 -0.07123088
0.42965522 -0.3357337 0.07664684 0.12665962 0.05143945 0.07218256 0.0018439825 0.6104352
0.14536433 0.06693137 0.015000741 0.026819276 -0.24827677 0.08251986 0.14728272 0.03652787
0.084168695 -0.15870845 0.15393648 0.04079351 -0.368229 0.20990315 0.1570297 -0.02775143
0.15026 -0.06640185 0.059629917 -0.16247803 0.14319293 -0.07856251 0.060391262 -0.015988354
0.108061984 -0.29023135 -0.014349338 0.09402585 0.21271609 0.14564271 -0.10916393 -0.1695999
-0.22327612 -0.088201195 0.21987675 0.026790095 -0.31704363 -0.54514706 -0.046838943 -0.06730159
0.041836735 -0.18587969 -0.17277984 0.30709016 0.058713254 0.31879988 -0.17530406 -0.16204515
0.2914458 0.0330867 -0.38565382 -0.36754948 0.05372719 -0.060027953 0.47833642 0.022120936
0.38470942 -0.07067817 0.24231042 0.016689872 -0.31878388 0.08934441 -0.14452253 -0.2754378
00000000: 26e6 4cbd ee70 863e 99a2 02be 6fdb 733e
00000010: 5757 0ebd f3b9 253e 36cc f9bd c43b ed3d
00000020: 1827 8b3e 82d5 dfbd 0068 edbb 8a66 2bbe
00000030: d1e4 3b3d a9e2 7ebe ee58 af3e 69ce 33be
00000040: 80d3 43be 1e3d a7bd 634d 233d 28f4 4c3d
00000050: 6815 b43d a24e c63d e357 59be bc51 bbbe
00000060: 48c6 ba3e 6168 a63d 681b 71bd acbd 853d
00000070: 1485 573d 2c7f e6bd f8b8 33bd 8dcd 09be
00000080: 6c5d b93d a690 1f3e a298 a73d b798 243e
00000090: 6abe 0ebd d266 debd 26b4 8e3e 1c89 55be
000000a0: e16e 61bd 5f52 debc 7fb9 c5bc 0117 25be
000000b0: 8df2 20be 7630 a33e 6d07 0c3e d5ca 06be
000000c0: 4c71 813e 57b1 6e3c 1d6f 8cbd 2d9e 853e
000000d0: ed02 cbbd d89b 993d b72d d73b 5941 a03c
000000e0: 9ae8 a03d a46f 8fbe ed0e 4abe f7fb 5d3e
000000f0: 80f1 26be 219a a43d 75da 6cbe a4cc 6f3b
00000100: 9b98 86be 964b 963d 2b98 0cbe 741f 433c
00000110: bb7c a33e 26a3 0fbe dcdd 46be cc0a 113d
00000120: df1b 44be 5562 663e cbff 823e f9f6 4b3d
00000130: 105b 4c3d 6285 863e 95e4 4f3e c712 c1bb
00000140: 56ba 39bd a3b5 efbd 939c 893e 056b 473d
00000150: ea11 a83c 3e53 abbe 8b36 dabd 95f1 72bd
00000160: 4da1 273e 5af2 febe a5cf 1dbc 4df0 b7bd
00000170: 2ea1 56be 6d18 f53d b564 3b3e 6835 5fbd
00000180: c5b8 01bc 83f7 3fbe e1b0 70be 9222 04be
00000190: 2eda 7c3e 1409 513e cd39 cb3b fca5 12be
000001a0: e4d1 04be fee3 35bc 34c5 a6be f232 f2bb
000001b0: a673 78bc f29b febd ccd0 113f 0901 86be
000001c0: 3aa1 18be 92cc dd3a e485 ba3d 90b3 113e
000001d0: bf42 9d3d 308f 7c3c 0327 49be 5aa8 5dbd
000001e0: 2a51 753d 9c51 5c3d cbc4 b4be 8655 733b
000001f0: ae7f 3d3e 1e6b 803e f596 05bd 8e6d cabe
00000200: 4ab5 f8bc 0ba9 84be b601 6cbe a735 c63d
00000210: 496d 17be 905e 32be 10c3 d7bd 2508 95bd
00000220: 7c5a 50be 1caa 96be 5197 1abd 5f24 d2b9
00000230: 835d a93c 0d13 5fbe 642c a03e 2b39 fdbd
00000240: 5635 6fbe 10bc c0be 9b4c 343e f757 44bd
00000250: 5e2c 4ebe eb1b 833e a4da 55bd d122 2fbe
00000260: 7e80 6bbe ab12 95be 00ec 2f3e 5a50 b53d
00000270: 0d6e 13bc ab79 03bd 5035 5d3e a282 24be
00000280: 6b6f 1cbd 86c3 4ebe a8f4 4abe 0d16 80be
00000290: dfc4 c9bd a85b 643d 13b8 b039 fb56 52be
000002a0: c5f7 683c 917c 353d 0433 a53c edae dbbd
000002b0: 2d9c 5fbd be9f 65be 5cfd 68be 4ee9 e73e
000002c0: 6579 fcbe c1d0 07be 0853 0bbe 5835 e6be
000002d0: 84bc 003e 47b7 973d fd18 a1bd 7fe1 91bd
000002e0: c5fb db3e 4ae5 abbe 05f9 9c3d 0fb3 013e
000002f0: 2cb2 523d 73d4 933d c9b1 f13a 7b45 1c3f
00000300: 63da 143e 5013 893d abc5 753c 19b4 db3c
00000310: 443c 7ebe 2c00 a93d 48d1 163e 3f9e 153d
00000320: a360 ac3d 7884 22be 86a1 1d3e 1817 273d
00000330: 8388 bcbe daf0 563e 65cc 203e f856 e3bc
00000340: c2dd 193e b1fd 87bd 803e 743d a460 26be
00000350: 2ba1 123e 62e5 a0bd d45c 773d 02fa 82bc
00000360: 9a4f dd3d 3499 94be 7c19 6bbc a090 c03d
00000370: 3fd2 593e 5d23 153e 5791 dfbd 99ab 2dbe
00000380: 7fa2 64be d4a2 b4bd 5f27 613e e776 db3c
00000390: 8b53 a2be c28e 0bbf 31da 3fbd 6bd5 89bd
000003a0: ff5c 2b3d 3f57 3ebe 33ed 30be ec3a 9d3e
000003b0: 4f7d 703d bd39 a33e e882 33be 2aef 25be
000003c0: 6238 953e eb85 073d 6b74 c5be 722f bcbe
000003d0: 0b11 5c3d dfdf 75bd 83e8 f43e f736 b53c
000003e0: a2f8 c43e b7bf 90bd 3920 783e 33b9 883c
000003f0: a437 a3be 34fa b63d b7fd 13be 2f06 8dbe

actor.2.bias f4 [64]
-0.059581883 -0.077694796 -0.11152578 -0.24285938 -0.08060945 -0.020794455 -0.042608168 0.022437004
-0.3195916 -0.24483341 -0.08412635 0.1113612 -0.28839812 -0.16441531 -0.3429246 -0.06373049
-0.19907425 -0.09942757 -0.10663402 -0.22092937 -0.15257375 0.13869222 -0.19746312 -0.32717085
-0.17986831 -0.12837908 -0.20380545 -0.04356888 -0.07934588 -0.119844116 -0.031021234 -0.21982612
-0.33345574 0.021302538 0.007749803 -0.15104634 -0.2741456 -0.10514875 0.08595549 -0.14626011
-0.22564723 -0.20194912 -0.07614318 -0.21934986 -0.037434578 -0.20780577 -0.086066425 -0.24210602
-0.23120947 -0.17550758 -0.010166681 -0.15212661 -0.14931193 -0.06280317 -0.15721554 -0.30063245
-0.12131997 -0.19617906 -0.17123331 0.03760328 -0.19062032 -0.09147499 -0.052735996 -0.19223298
00000000: 220c 74bd 731e 9fbd a167 e4bd 21b0 78be
00000010: 9116 a5bd 2259 aabc e785 2ebd cfcd b73c
00000020: 83a1 a3be 9cb5 7abe 704a acbd 5711 e43d
00000030: eba8 93be 7d5c 28be d093 afbe 2285 82bd
00000040: 1fda 4bbe afa0 cbbd f062 dabd 4f3b 62be
00000050: 4b3c 1cbe 5505 0e3e c633 4abe f082 a7be
00000060: 662f 38be ce75 03be 60b2 50be 4875 32bd
00000070: 1880 a2bd d570 f5bd 3e20 febc 191a 61be
00000080: b6ba aabe a982 ae3c 0ff2 fd3b e4ab 1abe
00000090: d05c 8cbe 3a58 d7bd 6f09 b03d 36c5 15be
000000a0: 1110 67be c0cb 4ebe f5f0 9bbd 409d 60be
000000b0: 0055 19bd 09cb 54be 9843 b0bd a4ea 77be
000000c0: 2dc2 6cbe 42b8 33be 2792 26bc 14c7 1bbe
000000d0: 3ae5 18be f39e 80bd 1cfd 20be 7fec 99be
000000e0: 9b76 f8bd 2ae3 48be c957 2fbe e605 1a3d
000000f0: f931 43be 3d57 bbbd b301 58bd b9d8 44be

actor.4.weight f4 [32, 64]
0.10289433 -0.05447188 -0.01091836 0.36650985 -0.14642529 -0.050156876 0.036340527 -0.21362041
0.061170492 0.0010717037 -0.36162975 0.04019703 -0.104507565 -0.0015468409 0.20224717 -0.10048327
-0.000120480305 -0.14835188 -0.011070139 -0.08260254 0.19196613 -0.19363755 0.27026972 0.034820765
-0.12018378 -0.039846238 -0.09753865 -0.06066394 -0.06189561 0.04947963 0.16210054 -0.10209008
0.34100902 -0.3103078 -0.04405836 -0.001350511 0.16946109 0.08694869 -0.0542948 -0.0049132686
-0.15279467 -0.1522283 0.023792053 0.27042085 0.08571698 -0.069103755 -0.021474278 -0.2874642
0.06381184 -0.08757978 -0.13373494 0.019947426 0.13597012 -0.12893249 -0.304053 0.07498499
-0.15602838 -0.18159994 0.03241139 0.06482593 -0.03802121 -0.091167815 0.05192295 0.052679747
-0.11681788 0.059765905 -0.15507436 0.045888666 0.21022126 -0.04215617 0.20771585 -0.06702329
0.032918032 0.07466021 -0.027082589 -0.019709835 0.21587119 -0.1267133 0.21821679 0.22208169
-0.0052855597 0.007669526 0.08713966 -0.28738052 -0.12645029 0.14600523 0.022740891 0.1501437
0.13551138 -0.08894252 0.03181171 -0.30376968 -0.16533966 0.026334453 0.02968282 -0.12297319
0.16320843 0.16983156 -0.0225434 -0.18283413 -0.1963846 -0.007849221 -0.07374899 -0.03255213
0.20938589 -0.07730158 -0.116534695 -0.0730615 0.057267047 0.11008129 -0.072722845 -0.031625263
-0.16614029 -0.16377687 -0.022297533 0.18174198 0.23949279 -0.056076594 -0.049808607 -0.29931006
0.19931151 0.005351696 0.21275634 -0.19905128 -0.015620884 0.3007251 -0.028331874 -0.16532631
0.15913661 0.16060118 -0.033466686 0.03470744 0.08513182 0.035066035 -0.15483838 0.18219268
0.2519296 -0.07731464 -0.0657918 -0.04818313 -0.16931495 0.18823437 0.101918735 0.082597606
0.20050392 -0.10672864 -0.26940697 -0.06624581 -0.14672682 -0.06298884 -0.03627753 0.1583476
0.19306217 -0.041403875 0.021451749 -0.12074028 0.17535819 -0.07600456 -0.23386382 0.09071478
0.37575686 0.18629819 -0.075115345 -0.10460592 0.03262462 -0.09328704 0.15965594 -0.0046466333
-0.2369981 0.20345062 0.21561082 0.09335899 0.078333475 0.095541134 0.1818456 0.030555822
-0.3167257 -0.16970585 -0.1630572 -0.12701425 -0.38757652 -0.23955211 0.15536508 0.06790236
0.07596895 0.06073578 -0.015135698 -0.00898203 -0.19334672 -0.0041654105 -0.10090927 0.07166266
0.0920324 -0.058529545 -0.15321508 0.06286475 0.049890526 -0.019782443 0.07834928 0.19611384
-0.064486936 0.19900012 -0.099447675 -0.06481304 -0.055885345 0.18297835 -0.29135072 0.0090243425
0.17133023 0.0807722 -0.012662817 -0.03736887 -0.18293037 -0.22618501 0.08397803 0.019576598
0.12987098 0.14609788 -0.24842358 -0.08752858 0.11722722 0.10214805 -0.17374404 -0.1909574
0.12830101 0.02028729 -0.14351262 0.19447592 0.19465978 0.066309944 0.023067571 0.09745716
-0.1566196 -0.11714521 -0.08554022 -0.18817812 0.061594274 -0.1662526 0.12318227 -0.027405858
0.18937437 -0.3143463 0.19060236 -0.095003635 -0.008467673 0.018752381 0.043489058 0.20741066
-0.05162983 0.10298983 -0.12335161 -0.24429774 0.051762063 -0.09219446 0.052922606 -0.15807661
00000000: 43ba d23d e81d 5fbd ece2 32bc 2ea7 bb3e
00000010: 83f0 15be 4c71 4dbd ced9 143d 4fbf 5abe
00000020: e98d 7a3d 6978 8c3a 8927 b9be a4a5 243d
00000030: 1008 d6bd 5ebf caba e219 4f3e 2cca cdbd
00000040: 5faa fcb8 8ee9 17be 875f 35bc 852b a9bd
00000050: c592 443e ec48 46be cb60 8a3e 38a0 0e3d
00000060: ea22 f6bd cf35 23bd 58c2 c7bd c07a 78bd
00000070: 4086 7dbd 27ab 4a3d affd 253e 9b14 d1bd
00000080: bc98 ae3e aae0 9ebe 8a76 34bd a103 b1ba
00000090: 3587 2d3e 2812 b23d 3964 5ebd 7cff a0bb
000000a0: 3576 1cbe bce1 1bbe 8de7 c23c 9a74 8a3e
000000b0: 628c af3d 4586 8dbd d3ea afbc 822e 93be
000000c0: c8af 823d 075d b3bd d0f1 08be c968 a33c
000000d0: c03b 0b3e e106 04be d6ac 9bbe bb91 993d
000000e0: e7c5 1fbe 56f5 39be cec1 043d 75c3 843d
000000f0: 21bc 1bbd 31b6 babd 29ad 543d b8c6 573d
00000100: 363e efbd 18cd 743d d0cb 1ebe c1f5 3b3d
00000110: 3e44 573e f3ab 2cbd 77b3 543e 8243 89bd
00000120: 0fd5 063d 74e7 983d 4edc ddbc 8576 a1bc
00000130: 560d 5d3e 22c1 01be 3974 5f3e 6269 633e
00000140: 7d32 adbb a650 fb3b 4776 b23d 8a23 93be
00000150: 2f7c 01be 6582 153e 1b4b ba3c 45bf 193e
00000160: 7fc3 0a3e 7f27 b6bd ff4c 023d b387 9bbe
00000170: cd4e 29be 5abb d73c 6329 f33c 5ed9 fbbd
00000180: 1c20 273e 53e8 2d3e f0ac b8bc df38 3bbe
00000190: 0b19 49be 059a 00bc b609 97bd 6255 05bd
000001a0: 4169 563e 4a50 9ebd bea9 eebd 45a1 95bd
000001b0: da90 6a3d 4d72 e13d b7ef 94bd 7e89 01bd
000001c0: ae20 2abe 20b5 27be 51a9 b6bc 921a 3a3e
000001d0: 993d 753e 92b0 65bd 1c04 4cbd 2b3f 99be
000001e0: 5118 4c3e 485d af3b ccdc 593e 19d4 4bbe
000001f0: bcee 7fbc a4f8 993e 3f18 e8bc 4d4b 29be
00000200: b5f4 223e a374 243e 5d14 09bd 6329 0e3d
00000210: 9759 ae3d 67a1 0f3d f48d 1ebe b890 3a3e
00000220: ebfc 803e 2357 9ebd dabd 86bd ac5b 45bd
00000230: e660 2dbe 83c0 403e c5ba d03d ef28 a93d
00000240: e650 4d3e 8c94 dabd b6ef 89be e2ab 87bd
00000250: 8e3f 16be 4b00 81bd bf97 14bd e025 223e
00000260: 17b2 453e 1c97 29bd 94bb af3c ae46 f7bd
00000270: 1991 333e 47a8 9bbd ff79 6fbe acc8 b93d
00000280: 3463 c03e f4c4 3e3e 13d6 99bd a13b d6bd
00000290: 65a1 053d 470d bfbd d97c 233e c942 98bb
000002a0: a1af 72be 5c55 503e 15c9 5c3e 0033 bf3d
000002b0: 4d6d a03d 12ab c33d bc35 3a3e 3450 fa3c
000002c0: df29 a2be 5fc7 2dbe 77f8 26be 0610 02be
000002d0: 6e70 c6be 264d 75be 0618 1f3e 6410 8b3d
000002e0: 9c95 9b3d 15c6 783d b8fb 77bc 5d29 13bc
000002f0: affc 45be ff7d 88bb 85a9 cebd dfc3 923d
00000300: 7c7b bc3d adbc 6fbd 6ae4 1cbe 3cbf 803d
00000310: 025a 4c3d ca0e a2bc 9675 a03d 11d2 483e
00000320: ba11 84bd b0c6 4b3e 39ab cbbd b3bc 84bd
00000330: 08e8 64bd ad5e 3b3e ec2b 95be d6da 133c
00000340: 3171 2f3e e56b a53d b477 4fbc 1a10 19bd
00000350: 1952 3bbe 0b9d 67be acfc ab3d 1a5f a03c
00000360: e6fc 043e af9a 153e c062 7ebe 2f42 b3bd
00000370: d314 f03d ff32 d13d f5e9 31be 568a 43be
00000380: 5761 033e 8831 a63c f9f4 12be b224 473e
00000390: e554 473e 82cd 873d 34f8 bc3c 9f97 c73d
000003a0: e360 20be d4e9 efbd b62f afbd c4b1 40be
000003b0: 474a 7c3d 1f3e 2abe fc46 fc3d 4082 e0bc
000003c0: 5beb 413e 00f2 a0be 442d 433e 4491 c2bd
000003d0: ffbb 0abc 989e 993c 9521 323d 7663 543e
000003e0: cd79 53bd 55ec d23d c59f fcbd 3029 7abe
000003f0: 7504 543d 73d0 bcbd 60c5 583d d6de 21be

actor.4.bias f4 [32]
-0.025102707 0.12963295 -0.34099525 -0.19437204 -0.1637077 -0.069553986 0.049170386 0.0102430945
-0.25188997 0.16466232 -0.35932586 -0.08609047 -0.120451756 -0.047442943 -0.1717443 -0.21329921
-0.17421104 -0.23203765 -0.15958577 0.025746668 0.1405135 -0.1575389 -0.18550034 -0.23915492
-0.0876547 -0.1241209 -0.17493667 -0.017697165 -0.1850328 0.047044575 -0.11871415 -0.08495788
00000000: 31a4 cdbc 80be 043e ee96 aebe 7709 47be
00000010: fea2 27be 5272 8ebd e366 493d a7d2 273c
00000020: b9f7 80be 3d9d 283e 8ff9 b7be 3350 b0bd
00000030: 69af f6bd 8853 42bd bddd 2fbe 1c6b 5abe
00000040: 6164 32be 479b 6dbe 746a 23be adea d23c
00000050: c5e2 0f3e e151 21be cdf3 3dbe 07e5 74be
00000060: 4f84 b3bd 1933 febd 9922 33be a5f9 90bc
00000070: 3d79 3dbe d0b1 403d 6720 f3bd 66fe adbd

actor.6.weight f4 [12, 32]
-0.062164713 -0.038002964 0.09412336 0.06467437 0.08203135 -0.061586395 0.09507211 -0.10896219
0.033304222 -0.053955656 0.17622672 -0.15527111 -0.010666508 0.030375134 0.08191596 0.07804739
-0.022465494 0.060874395 -0.16361676 -0.03495668 -0.11122231 0.025466189 -0.052758593 0.11027889
0.1170211 0.04943831 -0.04480776 0.06829456 0.02550526 -0.16317444 -0.12067391 -0.16441377
-0.06233553 -0.21488942 -0.020688547 0.029160462 -0.03590628 0.05494404 -0.063013226 -0.13007872
-0.01776972 0.097603485 -0.0070469645 -0.21202266 -0.2201372 -0.0021350682 -0.04101138 0.059884746
-0.023736348 -0.04558197 0.15860018 0.024811406 0.045130815 0.055024244 0.04396032 -0.047867995
0.17043993 -0.021179225 0.096229285 0.09746839 -0.04914221 -0.0626327 0.056370664 0.15081225
0.008466251 -0.020961175 0.0096764285 -0.004011256 0.009780768 -0.09703739 0.11562779 0.15236792
0.08927876 -0.011926261 0.05420165 0.044347726 0.10811362 -0.027736556 0.052778043 -0.060503528
-0.15225336 -0.02094225 -0.124339946 -0.0016496276 0.14503552 0.059413414 0.265006 -0.079621196
-0.16271645 0.019892162 0.16431226 0.07841884 -0.0043109385 -0.031726133 -0.32465747 -0.036171522
0.030912528 -0.13377924 0.08112195 -0.009334811 0.011293878 -0.08917434 -0.079682045 -0.1020046
0.12994978 0.023121776 0.08546994 0.11324527 0.10080751 -0.043128952 -0.1129606 -0.055975027
0.03190585 0.04807439 0.061442427 0.08752903 -0.10353116 -0.034410488 0.008781753 -0.06977557
-0.0042898385 0.11336961 0.14277537 -0.11187743 0.012926392 0.1575946 0.034724753 -0.1016092
0.12217841 -0.027390143 -0.22284852 -0.1185429 -0.09348129 0.011151385 0.085825995 -0.1144073
-0.09328015 -0.070284165 0.09829341 -0.009323268 0.053823326 0.0076084356 -0.004612276 0.058373637
-0.17465986 0.0369559 -0.14581388 0.14058518 0.0568713 0.007561199 -0.18370026 -0.09455867
0.12809305 -0.0027231446 0.021090664 0.11250578 -0.024885813 0.03842982 0.03012829 0.020516314
0.10682539 -0.055921204 -0.039930258 0.10099651 -0.13102764 0.020596387 0.014303384 0.0859559
0.05816377 0.072032705 -0.14473413 0.16314846 0.19834001 0.1019238 -0.11566753 -0.24361697
0.056049716 0.004501907 0.16309725 -0.20079942 -0.04209755 0.023609549 -0.074423276 0.004709786
-0.07359716 -0.05657447 -0.030611088 0.03413141 0.00935095 -0.23168719 0.018875532 -0.034401514
0.0040695285 0.070989184 -0.092738785 0.030894278 0.09672819 0.09142594 0.022856718 -0.08543445
-0.06211917 0.15495005 -0.08592486 -0.0961887 0.0049924767 0.004951941 0.06460575 -0.05415966
-0.05754184 0.048323844 -0.015057048 0.018831912 0.13117164 -0.045401927 0.11031121 -0.07610543
-0.06021509 -0.074941546 -0.091799006 0.17041753 0.008473785 0.14386167 -0.038916517 -0.035925083
-0.032020718 0.19017513 0.04720419 -0.039991796 0.031646892 -0.040411778 0.063232616 -0.033809923
0.05682114 0.11911335 0.034300078 0.008785329 -0.015561248 -0.08615674 -0.1883256 0.015474061
-0.28211206 -0.04516835 0.013779131 -0.07025797 -0.049523044 0.07315228 -0.066057436 0.031213405
0.19717589 -0.04780008 0.079991534 -0.13914059 0.065993495 0.015024159 0.057467118 0.066544846
00000000: 6da0 7ebd ffa8 1bbd c0c3 c03d ff73 843d
00000010: 0d00 a83d 0442 7cbd 2bb5 c23d 9227 dfbd
00000020: 026a 083d 9b00 5dbd c774 343e 64ff 1ebe
00000030: 94c2 2ebc 46d5 f83c 8ec3 a73d 4fd7 9f3d
00000040: 8e09 b8bc 6e57 793d 278b 27be bc2e 0fbd
00000050: 86c8 e3bd 789e d03c 6519 58bd e6d9 e13d
00000060: c2a8 ef3d d37f 4a3d 5788 37bd 05de 8b3d
00000070: 68f0 d03c 3317 27be e223 f7bd 155c 28be
00000080: 8a53 7fbd f90b 5cbe 077b a9bc ece1 ee3c
00000090: 7712 13bd 000d 613d 140d 81bd 5b33 05be
000000a0: ce91 91bc 56e4 c73d 39ea e6bb 781c 59be
000000b0: a56b 61be 80ec 0bbb 8cfb 27bd b549 753d
000000c0: bb72 c2bc 29b4 3abd 1668 223e 4a41 cb3c
000000d0: 17db 383d 1a61 613d bd0f 343d 3b11 44bd
000000e0: ce87 2e3e 0e80 adbc dc13 c53d 829d c73d
000000f0: 5849 49bd 9345 80bd ede4 663d 876e 1a3e
00000100: 08b6 0a3c c5b6 abbc e289 1e3c db70 83bb
00000110: 843f 203c 8abb c6bd 43ce ec3d 5606 1c3e
00000120: c8d7 b63d 5d66 43bc 8d02 5e3d f6a5 353d
00000130: ac6a dd3d c637 e3bc ca2d 583d 8cd2 77bd
00000140: 4ee8 1bbe 158f abbc f1a5 febd 5138 d8ba
00000150: 3184 143e 7b5b 733d deae 873e 7010 a3bd
00000160: 249f 26be e3f4 a23c 7941 283e 0f9a a03d
00000170: c642 8dbb 43f3 01bd 8139 a6be 9728 14bd
00000180: 453c fd3c 6dfd 08be 4423 a63d 09f1 18bc
00000190: f509 393c 09a1 b6bd 5730 a3bd cae7 d0bd
000001a0: 8e11 053e e169 bd3c dd0a af3d 23ed e73d
000001b0: 2b74 ce3d fca7 30bd e357 e7bd 1246 65bd
000001c0: b5af 023d a7e9 443d 0eab 7b3d 6c42 b33d
000001d0: 2508 d4bd 03f2 0cbd 57e1 0f3c 7ee6 8ebd
000001e0: c691 8cbb 532e e83d b533 123e fe1f e5bd
000001f0: 38c9 533c 7b60 213e 8b3b 0e3d 7c18 d0bd
00000200: ad38 fa3d 4b61 e0bc 6732 64be 9fc6 f2bd
00000210: 1e73 bfbd 4cb4 363c 8ac5 af3d 604e eabd
00000220: aa09 bfbd 25f1 8fbd 0e4e c93d 9fc0 18bc
00000230: d975 5c3d 2f50 f93b 9322 97bb 3219 6f3d
00000240: 09da 32be 125f 173d 3c50 15be 90f5 0f3e
00000250: e1f1 683d efc3 f73b ec1b 3cbe faa7 c1bd
00000260: d32a 033e c976 32bb 54c6 ac3c 6e69 e63d
00000270: 55dd cbbc 9668 1d3d 9bcf f63c d411 a83c
00000280: 45c7 da3d a20d 65bd e98d 23bd 42d7 ce3d
00000290: 1c2c 06be c1b9 a83c be58 6a3c a609 b03d
000002a0: 223d 6e3d e285 933d 2f35 14be 6410 273e
000002b0: a519 4b3e 6dbd d03d 19e3 ecbd ba76 79be
000002c0: 6394 653d bc84 933b f702 273e 5d9e 4dbe
000002d0: 7b6e 2cbd d068 c13c 3b6b 98bd 8c54 9a3b
000002e0: 1cba 96bd a2ba 67bd 1bc4 fabc 61cd 0b3d
000002f0: ba34 193c 683f 6dbe dca0 9a3c 9ae8 0cbd
00000300: ae59 853b c762 913d d5ed bdbd ff15 fd3c
00000310: 6e19 c63d 863d bb3d 033e bb3c 42f8 aebd
00000320: ac70 7ebd 3aab 1e3e 5ff9 afbd 95fe c4bd
00000330: ee97 a33b e443 a23b 0550 843d 85d6 5dbd
00000340: feb0 6bbd 39ef 453d d6b1 76bc 6245 9a3c
00000350: dc51 063e 5ff7 39bd d8ea e13d 2add 9bbd
00000360: 19a4 76bd f47a 99bd 1e01 bcbd ef81 2e3e
00000370: a1d5 0a3c 7950 133e ed66 1fbd 2e26 13bd
00000380: 2828 03bd 45bd 423e 2e59 413d 70ce 23bd
00000390: 2ca0 013d d286 25bd 1a80 813d 467c 0abd
000003a0: 49bd 683d b3f1 f33d 3d7e 0c3d 57f0 0f3c
000003b0: 9bf4 7ebc f272 b0bd 6dd8 40be ea86 7d3c
000003c0: fe70 90be 7302 39bd ddc1 613c 69e3 8fbd
000003d0: add8 4abd ddd0 953d 1f49 87bd 41b3 ff3c
000003e0: 7ae8 493e 04ca 43bd 9ad2 a33d df7a 0ebe
000003f0: 9927 873d e427 763c a462 6b3d aa48 883d

actor.6.bias f4 [12]
-0.17594028 0.10424308 0.14271428 -0.1481955 -0.1394808 -0.06002916 0.15486918 -0.00016751263
-0.10700464 0.26603866 -0.07441283 -0.18429141
00000000: b029 34be 657d d53d b123 123e 90c0 17be
00000010: 0ed4 0ebe 23e1 75bd 0796 1e3e 54a6 2fb9
00000020: 4025 dbbd 3836 883e c165 98bd e3b6 3cbe

critic.0.weight f4 [128, 48]
-0.08792686 -0.03086843 0.24970424 -0.36225653 0.5066876 -0.5492735 0.8038187 0.985634
0.07215491 0.079818 -0.15338308 0.7507122 0.26636788 0.1698772 0.28837037 -0.3975651
-0.77254957 -0.6838287 0.06302442 0.71207386 0.6440873 -0.23713587 -0.27393466 -0.07045294
-0.17354925 -0.033724856 0.14812605 -0.44598028 -0.5777221 0.04160939 -0.30023518 0.5425756
0.07330405 -0.20252396 0.48825487 -0.06856793 0.036715064 0.0010708718 0.00532082 -0.0020333563
-0.02871183 0.025455082 -0.052245747 0.04951066 -0.031757597 0.009189726 0.016716696 0.03280966
0.13274749 0.16959947 0.17754555 -0.21757461 0.012506268 -0.2545314 0.20618345 0.71533024
-0.06517105 -0.24554533 -0.02817806 -0.19454274 0.29280004 -0.25307348 0.27624956 0.31848997
0.2619401 0.021611115 0.07218333 -0.0032981292 0.23604497 -0.111152 0.058052823 0.10308012
-0.14429103 0.0880795 -0.12440177 -0.15529442 0.110765904 -0.072353564 -0.047429588 -0.26848274
0.16620553 0.01862388 -0.21110582 0.15753813 -0.07272273 0.0010601756 0.01817051 0.023345428
0.09435096 0.028195867 0.07220204 -0.07926339 -0.21746197 0.16399592 -0.08152193 -0.10185945
-0.032669067 0.048946057 -0.08987852 0.007666753 0.13989115 0.06586696 -0.04645852 0.17283416
0.08702634 -0.1804298 -0.0315916 -0.08382585 0.08874782 -0.41202137 -0.14783198 0.1078571
-0.21285047 0.083715945 0.2185152 0.01920358 0.07574611 -0.34534934 -0.38341194 -0.025999775
-0.019177543 -0.17368169 0.021997277 -0.0831085 0.22415704 -0.03102677 -0.09139152 0.030338142
0.022063548 -0.055910412 -0.21526186 -0.104807675 0.10887098 -0.008485201 0.081793875 -0.100958
-0.035004746 -0.019284278 0.046916142 0.09577857 0.05198414 0.058535926 0.012812487 -0.064715125
0.25669852 -0.46158782 -0.10716446 0.020367803 -0.2554292 -0.40764025 0.41895872 -2.152779
0.049181465 -0.38364428 0.50929403 1.5411055 0.4841006 0.096835524 -0.18151043 0.8988388
0.18902762 0.63586605 0.032719146 -0.19121772 0.21896814 0.27885365 0.28028446 -0.09731929
-0.08973988 0.058741666 0.075202644 0.052301526 -0.19451615 0.05073766 -0.13242969 -0.33151275
0.016072372 -0.11759295 -0.17111783 0.056462094 -0.0009795588 -0.0037670145 0.039603498 -0.022297584
0.027003685 -0.037663404 -0.0011183845 -0.029743368 -0.07062616 -0.0150261875 -0.029333219 0.023837524
0.10499546 -0.04658983 0.25835103 -0.111364424 0.46681964 0.29158744 0.393077 0.52762246
-0.026673945 -0.2132335 0.081140965 -0.07227935 0.10519101 -0.19503976 -0.16817255 -0.64824814
0.09886286 -0.30793923 -0.09428738 0.0015454281 -0.0021909904 -0.33112282 0.124594264 -0.027233303
0.19687024 0.028443342 0.09026675 0.11333288 0.2619002 0.078299895 0.027368262 -0.059902918
0.08531205 -0.40692347 -0.16538534 0.0025744727 -0.013103654 -0.008589246 0.011551767 -0.013920945
0.016240342 0.05403175 0.029788801 -0.010770095 -0.0074947635 0.08267939 -0.03894054 0.09320205
0.041772924 -0.096047655 -0.09076971 0.26685792 0.3492287 0.15008813 -0.11849186 -0.80976534
-0.07462825 0.0040742713 0.055611197 0.26898682 0.12591931 -0.038677093 -0.02811015 0.08647489
00000000: ff12 b4bd cadf fcbc 78b2 7f3e b079 b9be
00000010: 47b6 013f 309d 0cbf 10c7 4d3f 8352 7c3f
00000020: f4c5 933d 9f77 a33d 7410 1dbe ad2e 403f
00000030: 5f61 883e 4af4 2d3e 48a5 933e a78d cbbe
00000040: cfc5 45bf 660f 2fbf f212 813d 794a 363f
00000050: e8e2 243f bfd3 72be 2a41 8cbe a249 90bd
00000060: e5b6 31be 1323 0abd 5bae 173e 8757 e4be
00000070: 98e5 13bf 9c6e 2a3d 6db8 99be 3ce6 0a3f
00000080: 6f20 963d 7162 4fbe 8bfc f93e 586d 8cbd
00000090: 8962 163d 7f5c 8c3a 465a ae3b 0f42 05bb
000000a0: 1235 ebbc 2d87 d03c a3ff 55bd b1cb 4a3d
000000b0: 4114 02bd 8190 163c 74f1 883c 6c63 063d
000000c0: f5ee 073e 7cab 2d3e 80ce 353e e1cb 5ebe
000000d0: 17e7 4c3c f151 82be c121 533e e21f 373f
000000e0: 6678 85bd 3c70 7bbe add5 e6bc 3636 47be
000000f0: e3e9 953e d992 81be 9570 8d3e 1e11 a33e
00000100: 031d 863e cb09 b13c dbd4 933d 6d25 58bb
00000110: c6b5 713e a9a3 e3bd ccc8 6d3d ac1b d33d
00000120: 07c1 13be 0663 b43d 5bc6 febd 8005 1fbe
00000130: 3cd9 e23d 1b2e 94bd 8745 42bd 9276 89be
00000140: c831 2a3e 1b91 983c 202c 58be ad51 213e
00000150: a8ef 94bd 97f5 8a3a 52da 943c e93e bf3c
00000160: 133b c13d 05fb e63c aade 933d d854 a2bd
00000170: 5aae 5ebe 8cee 273e f8f4 a6bd b09b d0bd
00000180: 00d0 05bd a97b 483d 3b12 b8bd 6339 fb3b
00000190: a03f 0f3e 42e5 863d 4a4b 3ebd 70fb 303e
000001a0: de3a b23d 97c2 38be 3266 01bd e3ac abbd
000001b0: 6bc1 b53d 77f4 d2be 4461 17be 2fe4 dc3d
000001c0: 79f5 59be 4473 ab3d 73c2 5f3e d450 9d3c
000001d0: c720 9b3d a1d1 b0be 924e c4be 7bfd d4bc
000001e0: 391a 9dbc 9dd9 31be a233 b43c ca34 aabd
000001f0: 6c89 653e da2b febc 7a2b bbbd b287 f83c
00000200: 9dbe b43c 5102 65bd 9b6d 5cbe 68a5 d6bd
00000210: c0f7 de3d 8305 0bbc 8c83 a73d 11c3 cebd
00000220: 2361 0fbd 10fa 9dbc 242b 403d 8e27 c43d
00000230: 52ed 543d 5ec3 6f3d 77eb 513c 5d89 84bd
00000240: fd6d 833e 3d55 ecbe 0a79 dbbd 61da a63c
00000250: 9ec7 82be 39b6 d0be c281 d63e 22c7 09c0
00000260: 8172 493d 066d c4be 1861 023f f242 c53f
00000270: 09dc f73e b451 c63d dfdd 39be 4d1a 663f
00000280: 7590 413e 1ec8 223f 8304 063d 94ce 43be
00000290: 2f39 603e e8c5 8e3e 7281 8f3e 564f c7bd
000002a0: 8bc9 b7bd 1a9b 703d d803 9a3d 203a 563d
000002b0: 3e2f 47be 4bd2 4f3d a69b 07be 0abc a9be
000002c0: 35aa 833c 93d4 f0bd 8339 2fbe cc44 673d
000002d0: 8a64 80ba 04e0 76bb 4737 223d 6ca9 b6bc
000002e0: d536 dd3c f144 1abd c296 92ba 5da8 f3bc
000002f0: 73a4 90bd 6630 76bc 384c f0bc e946 c33c
00000300: dc07 d73d fad4 3ebd 9646 843e 0813 e4bd
00000310: fc02 ef3e f34a 953e 6341 c93e 4412 073f
00000320: 5183 dabc e259 5abe 3c2d a63d 3207 94bd
00000330: 626e d73d 81b8 47be 6d35 2cbe 97f3 25bf
00000340: 9c78 ca3d 36aa 9dbe be19 c1bd f68f ca3a
00000350: b896 0fbb ee88 a9be 472b ff3d 6018 dfbc
00000360: 5a98 493e 0302 e93c c6dd b83d 121b e83d
00000370: c817 863e b25b a03d 6833 e03c c35c 75bd
00000380: 16b8 ae3d 4658 d0be c65a 29be 7cb8 283b
00000390: b5b0 56bc e9b9 0cbc 9f43 3d3c ad14 64bc
000003a0: 770a 853c 6550 5d3d a507 f43c 0d75 30bc
000003b0: a296 f5bb d053 a93d 1e80 1fbd b7e0 be3d
000003c0: 161a 2b3d a2b4 c4bd 78e5 b9bd 9aa1 883e
000003d0: 1bce b23e b4b0 193e dcab f2bd c84c 4fbf
000003e0: b2d6 98bd 7781 853b 91c8 633d a4b8 893e
000003f0: fef0 003e df6b 1ebd 4247 e6bc bf19 b13d

critic.0.bias f4 [128]
-0.07920522 0.13148552 -0.17696805 -0.33872116 0.02572578 0.10986622 -0.17310959 0.0041199736
0.07044478 -0.15166739 -0.21058197 0.07884902 -0.18175577 -0.025420692 0.050381303 0.10798471
0.16356266 -0.08407776 0.066852346 -0.21739992 0.17773661 -0.030998304 0.010755192 -0.0065960516
-0.13762961 -0.29296115 0.083057225 0.06677452 0.048051633 -0.2902267 -0.13468455 -0.22284588
-0.2107507 -0.32449916 -0.08989716 -0.016375279 0.10001367 -0.059707396 -0.18952172 -0.1059698
0.1196154 -0.22670303 0.034786604 -0.30575538 -0.2053261 -0.38351312 -0.034699034 -0.08048286
-0.30028898 -0.21544716 -0.1817038 -0.04697299 -0.2036312 -0.17468849 -0.09151189 0.035689555
-0.2444324 0.07026737 -0.32989562 0.18048498 0.016923321 0.056157656 -0.32085505 -0.10189589
-0.16757843 0.03232023 0.07952415 0.033887234 0.0544743 0.13467808 0.08360166 0.12518628
-0.2611579 -0.14518246 -0.06106373 -0.26184374 -0.1175842 -0.18171118 0.09767654 -0.160214
0.1517805 -0.18536061 -0.15146035 -0.1412339 0.11682447 0.15990825 -0.21691234 -0.28151605
0.095299445 -0.024718367 -0.04004571 -0.16291179 0.06153335 -0.21409242 0.028053252 -0.28188685
-0.013845213 -0.008018018 0.018527687 -0.051373895 0.12587167 -0.3351354 -0.22104359 -0.06302546
0.07589359 0.15848278 -0.35769266 -0.2772193 0.14317997 -0.06635065 -0.1403545 -0.029663526
0.06746224 0.19285642 -0.3088776 -0.03988149 0.032430805 -0.14141428 0.004097966 0.06425763
-0.2926918 -0.1628528 -0.16724007 0.009078787 -0.28334206 -0.1317574 0.068060115 -0.39400265
00000000: 5936 a2bd 24a4 063e 1d37 35be dc6c adbe
00000010: dfbe d23c 8a01 e13d a443 31be d800 873b
00000020: 5a45 903d b24e 1bbe cda2 57be 987b a13d
00000030: 2f1e 3abe 0e3f d0bc a05c 4e3d 1627 dd3d
00000040: f87c 273e f630 acbd e2e9 883d 169e 5ebe
00000050: 9600 363e 28f0 fdbc 8b36 303c b123 d8bb
00000060: c7ee 0cbe 01ff 95be e819 aa3d 14c1 883d
00000070: cad1 443d 9898 94be bfea 09be b631 64be
00000080: 08cf 57be c124 a6be 011c b8bd 7325 86bc
00000090: f8d3 cc3d be8f 74bd fb11 42be b206 d9bd
000000a0: ebf8 f43d d724 68be 667c 0e3d f88b 9cbe
000000b0: 0141 52be d55b c4be 9320 0ebd 33d4 a4bd
000000c0: 7abf 99be 2e9e 5cbe 9010 3abe c066 40bd
000000d0: b384 50be 8ae1 32be 966a bbbd 362f 123d
000000e0: 7d4c 7abe 57e8 8f3d 14e8 a8be 0ed1 383e
000000f0: c7a2 8a3c 9205 663d 1d47 a4be cbae d0bd
00000100: ae99 2bbe 3862 043d 8fdd a23d 57cd 0a3d
00000110: 7220 5f3d 0de9 093e 5937 ab3d d530 003e
00000120: 7db6 85be b6aa 14be f61d 7abd 6210 86be
00000130: fccf f0bd 7f12 3abe a30a c83d 240f 24be
00000140: 596c 1b3e 2ccf 3dbe 6c18 1bbe 9f9f 10be
00000150: ab41 ef3d fdbe 233e 451e 5ebe df22 90be
00000160: 5b2c c33d 2c7e cabc f806 24bd 59d2 26be
00000170: 650a 7c3d 0b3b 5bbe efcf e53c 7953 90be
00000180: 08d7 62bc 015e 03bc 60c7 973c 6f6d 52bd
00000190: 81e4 003e de96 abbe 4059 62be 7e13 81bd
000001a0: 196e 9b3d 4f49 223e 7e23 b7be b0ef 8dbe
000001b0: c59d 123e d9e2 87bd 17b9 0fbe ec00 f3bc
000001c0: a529 8a3d 277c 453e 3425 9ebe c65a 23bd
000001d0: 2ad6 043d e8ce 10be 3b48 863b 8199 833d
000001e0: b3db 95be e2c2 26be fb40 2bbe 31bf 143c
000001f0: 3612 91be 69eb 06be 1a63 8b3d b7ba c9be

critic.2.weight f4 [64, 128]
0.2684059 0.016197935 -0.001223616 -0.15812485 -0.06540459 -0.08145643 0.005210838 -0.006417064
0.034610327 -0.044082213 0.05110616 -0.09572058 -0.19502951 -0.18965797 0.10458204 0.09231131
0.09996304 -0.06724657 0.024642074 -0.029425073 0.06474083 0.15721105 -0.10863283 0.01856749
0.02285024 -0.15424468 0.02334675 -0.083556294 0.090967976 -0.05387007 -0.07967982 0.08176303
0.17074648 0.122821115 -0.027426155 0.059185 -0.050151315 0.08815488 -0.06475493 0.054090433
0.09211893 0.15859707 0.05252879 0.13421316 0.06682039 0.062073413 -0.3203857 0.08173319
0.06878824 -0.014090148 0.1003247 0.04916511 0.08098929 0.007173593 -0.0079433005 -0.013300232
0.05035503 -0.15824889 -0.13236721 -0.0363358 0.04843782 0.010355484 -0.018611336 -0.09627657
-0.16380192 -0.004045572 0.025008742 -0.09526753 0.032472942 0.028181287 0.10015064 0.092421904
-0.17571 0.17845969 0.050464142 0.029536214 -0.013645165 -0.14843461 -0.033578698 -0.028884348
-0.013674394 -0.07060352 0.04596995 0.090639256 0.11578808 0.08832539 -0.31301966 -0.16046806
0.16351165 0.05926745 -0.040638067 -0.01752588 -0.016708637 -0.0041815243 0.1642734 0.07564565
0.028548246 0.14715664 0.072144195 -0.01565392 -0.18223538 0.14374816 0.05390803 0.002543174
-0.08708556 0.07959648 -0.018520785 0.019327262 0.06076614 -0.00902999 -0.06457735 0.11193695
-0.030158252 -0.035500582 0.13986269 0.026744606 -0.02271268 -0.07568819 0.11130746 0.031804092
-0.04890723 0.08807142 0.03137815 -0.016237408 0.0081878 -0.177924 0.015601404 0.002940263
0.45833573 -0.14090647 0.0591347 0.17500664 0.0057633407 -0.009422442 0.07497336 0.16297723
0.052406874 -0.02541685 0.14309494 -0.27205658 0.5195482 0.3728395 0.022642786 0.21765149
-0.10745911 -0.121704444 0.22066534 0.46600115 0.1051874 0.27626482 0.08414331 0.03931645
-0.017590512 0.3202034 0.030867286 0.055703446 -0.040342167 0.3559602 -0.021759067 0.13405012
0.29827908 0.34041488 -0.053155486 0.03584457 0.07335965 0.017067384 0.15870653 0.059938967
-0.026926005 0.07832706 0.14848107 0.18270446 0.17433052 0.45593873 0.5463075 -0.14436212
0.22738376 0.22692731 0.0640606 0.15868649 0.065107785 0.19179334 0.17683563 -0.048053265
0.278357 0.033938807 0.3394562 0.10914988 0.02452345 0.1205939 0.283237 0.066913255
0.124972045 0.1276986 -0.083506495 -0.036877487 0.1806584 -0.07620307 -0.033416454 -0.07715398
0.4594866 0.21821004 0.062219206 0.19658995 -0.039676663 0.11229889 -0.15918417 0.1178385
-0.099003345 0.23251513 0.55910456 0.21265055 0.03639157 -0.061853863 -0.039247658 0.07831084
-0.018371593 -0.04301872 0.17093858 0.35473946 -0.14812186 0.15997516 -0.09323543 0.19528154
0.23013912 -0.2983864 0.06173357 0.15312237 -0.042265687 0.058005746 0.13770422 -0.030469136
0.07886359 -0.16762476 0.67609674 0.27582136 -0.046765294 0.1218423 -0.08481659 0.17820314
0.049559057 0.00091613585 0.3706192 -0.07842212 0.13716479 0.17844096 -0.004501797 0.0069496823
0.19310184 0.04833689 0.11727159 0.14130789 0.30375856 0.09988231 -0.08157212 0.13072439
00000000: 806c 893e 88b1 843c bd61 a0ba 7beb 21be
00000010: d7f2 85bd a1d2 a6bd adbf aa3b 3c46 d2bb
00000020: 8fc3 0d3d 8d8f 34bd b154 513d 2709 c4bd
00000030: d1b5 47be b335 42be 1c2f d63d b60d bd3d
00000040: 6cb9 cc3d 92b8 89bd 2dde c93c da0c f1bc
00000050: d796 843d effb 203e e47a debd d91a 983c
00000060: 6d30 bb3c 51f2 1dbe af41 bf3c 901f abbd
00000070: 6b4d ba3d dda6 5cbd 2c2f a3bd 6073 a73d
00000080: 2ad8 2e3e a389 fb3d d1ac e0bc f86b 723d
00000090: 776b 4dbd 8c8a b43d 3c9e 84bd ee8d 5d3d
000000a0: d9a8 bc3d 4567 223e 6e28 573d 2d6f 093e
000000b0: 21d9 883d b140 7e3d 9809 a4be bb63 a73d
000000c0: d9e0 8c3d 5dda 66bc 0977 cd3d 5b61 493d
000000d0: b6dd a53d 7610 eb3b 9e24 02bc 37e9 59bc
000000e0: 1341 4e3d ff0b 22be 458b 07be d9d4 14bd
000000f0: bc66 463d 0caa 293c cd76 98bc a62c c5bd
00000100: b1bb 27be b890 84bb 22df cc3c 9f1b c3bd
00000110: 5902 053d 71dc e63c c71b cd3d b247 bd3d
00000120: 52ed 33be 23be 363e 7db3 4e3d eef5 f13c
00000130: f88f 5fbc 3eff 17be d189 09bd de9e ecbc
00000140: 910a 60bc 9498 90bd fc4a 3c3d 13a1 b93d
00000150: 4d22 ed3d f1e3 b43d 1d44 a0be bd51 24be
00000160: 996f 273e 6dc2 723d 1a74 26bd 6f92 8fbc
00000170: 8de0 88bc 2b05 89bb 4937 283e 1bec 9a3d
00000180: 03de e93c 3bb0 163e 56c0 933d a63c 80bc
00000190: e99b 3abe b832 133e abce 5c3d 61ab 263b
000001a0: ea59 b2bd 7b03 a33d e7b8 97bc 3554 9e3c
000001b0: ebe5 783d 86f2 13bc 2141 84bd 333f e53d
000001c0: 700e f7bc 0f69 11bd 2a38 0f3e 8117 db3c
000001d0: f10f babc 6902 9bbd 2af5 e33d 0245 023d
000001e0: f352 48bd ca5e b43d 6086 003d 5004 85bc
000001f0: 1f26 063c b631 36be 089d 7f3c 6db1 403b
00000200: fbaa ea3e c949 10be 3a37 723d f134 333e
00000210: 68da bc3b 9660 1abc a28b 993d 81e3 263e
00000220: 97a8 563d ff36 d0bc 7b87 123e 004b 8bbe
00000230: 1c01 053f d2e4 be3e 5d7d b93c 08e0 5e3e
00000240: 8613 dcbd 2e40 f9bd 18f6 613e b497 ee3e
00000250: 7e6c d73d 9572 8d3e 5453 ac3d 490a 213d
00000260: fa19 90bc b3f1 a33e 64dd fc3c 4c29 643d
00000270: d43d 25bd 6a40 b63e 1240 b2bc 6f44 093e
00000280: 09b8 983e dc4a ae3e 91b9 59bd c1d1 123d
00000290: 963d 963d e6d0 8b3c f783 223e 9082 753d
000002a0: ed93 dcbc f069 a03d 6c0b 183e e116 3b3e
000002b0: b383 323e cd70 e93e cfda 0b3f aad3 13be
000002c0: 4ad7 683e a25f 683e 3432 833d b67e 223e
000002d0: 3b57 853d 7965 443e 6614 353e 80d3 44bd
000002e0: cf84 8e3e 6b03 0b3d 34cd ad3e f989 df3d
000002f0: 67e5 c83c eff9 f63d 7104 913e d109 893d
00000300: 58f1 ff3d 6cc3 023e 7405 abbd d90c 17bd
00000310: 84fe 383e 5b10 9cbd b1df 08bd e802 9ebd
00000320: d441 eb3e 7472 5f3e 91d9 7e3d e04e 493e
00000330: ff83 22bd f6fc e53d 2d01 23be 5055 f13d
00000340: 44c2 cabd 7218 6e3e 7a21 0f3f 11c1 593e
00000350: 540f 153d 7a5a 7dbd 27c2 20bd 6f61 a03d
00000360: 0680 96bc 6634 30bd 860a 2f3e 69a0 b53e
00000370: 42ad 17be 87d0 233e 38f2 bebd e2f7 473e
00000380: 97a9 6b3e 1ac6 98be 57dc 7c3d 1ccc 1c3e
00000390: c91e 2dbd 6f97 6d3d 5602 0d3e 699a f9bc
000003a0: 3c83 a13d d3a5 2bbe ad14 2d3f 7538 8d3e
000003b0: f78c 3fbd 7588 f93d 52b4 adbd e27a 363e
000003c0: 70fe 4a3d d628 703a cdc1 bd3e c79b a0bd
000003d0: ed74 0c3e 3ab9 363e cf83 93bb 29ba e33b
000003e0: 7dbc 453e e7fc 453d 162c f03d 04b3 103e
000003f0: 3e86 9b3e 198f cc3d 490f a7bd 9ddc 053e

critic.2.bias f4 [64]
-0.057339173 -0.03781025 -0.014011383 -0.017249944 -0.011488368 0.09643208 -0.08711691 -0.078553274
-0.031540785 -0.033187818 -0.2758743 0.012918381 -0.350077 -0.042215362 0.045790408 0.13788576
-0.036691554 -0.0291049 0.013812735 -0.14823174 -0.0347527 0.018812595 0.011703676 -0.19479194
0.093876325 0.040948678 -0.01247142 0.08921698 -0.20109266 -0.11416563 0.07179986 0.13229539
-0.15764545 -0.23910855 -0.15079848 -0.29477993 -0.10083177 -0.15178584 0.028421078 -0.18340491
0.057574946 -0.2034923 -0.10621 -0.20671603 -0.36112925 -0.17381556 -0.1795508 -0.052580915
0.005188757 0.016559364 0.07312684 0.030141357 0.21166784 -0.064472534 -0.08472307 -0.19888908
0.02916026 0.07700229 -0.07786094 0.22737812 0.023892231 0.0072494596 -0.004329299 -0.31984568
00000000: 7bdc 6abd ecde 1abd 0090 65bc c14f 8dbc
00000010: b539 3cbc 2f7e c53d 5a6a b2bd 8ae0 a0bd
00000020: e930 01bd f3ef 07bd 653f 8dbe 9ea7 533c
00000030: 4b3d b3be 04ea 2cbd b98e 3b3d ed31 0d3e
00000040: e249 16bd 666d eebc cf4e 623c 10ca 17be
00000050: d958 0ebd df1c 9a3c c6c0 3f3c 8a77 47be
00000060: 3b42 c03d cdb9 273d ed54 4cbc 64b7 b63d
00000070: 3ceb 4dbe abcf e9bd ce0b 933d 7178 073e
00000080: cf6d 21be dfd8 74be eb6a 1abe 65ed 96be
00000090: e380 cebd bf6d 1bbe 52d3 e83c 7fce 3bbe
000000a0: b5d3 6b3d 4960 50be a184 d9bd 5ead 53be
000000b0: efe5 b8be b5fc 31be 2adc 37be 165f 57bd
000000c0: 7306 aa3b 81a7 873c 86c3 953d 02eb f63c
000000d0: 74bf 583e 2d0a 84bd 4a83 adbd 94a9 4bbe
000000e0: 7fe1 ee3c 60b3 9d3d 8e75 9fbd cfd5 683e
000000f0: a4b9 c33c e08c ed3b cbdc 8dbb d0c2 a3be
