isaacgym/legged_gym/logs/flat_anymal_c/Mar26_18-44-56_/model_200.pt (torch, 418700 bytes, 48 tensors)

std f4 [12]
0	0x3ee3c392	0.44485146
1	0x3f0a8133	0.5410339
2	0x3eec6fbd	0.46179
3	0x3ee20bb9	0.4414957
4	0x3f0812ad	0.53153497
5	0x3ef9101b	0.486451
6	0x3ee40593	0.44535503
7	0x3f0dffa3	0.55468196
8	0x3efa6418	0.4890449
9	0x3edff19f	0.4373903
10	0x3f09ae3a	0.53781474
11	0x3ef24237	0.47316143

actor.0.weight f4 [128, 48]
0	0x3de82ad6	0.11336295
1	0x3dfd1fbe	0.1235957
2	0xbcabf05e	-0.02098864
3	0x3d8b8158	0.0681178
4	0x3f77a95f	0.96742815
5	0x3dfc5b0a	0.12322052
6	0x3fc09533	1.5045532
7	0xbf2f3678	-0.6844249
8	0x3e651c91	0.22374178
9	0xbdd03ea8	-0.10168201
10	0x3e837017	0.25671455
11	0xbf38495e	-0.7198695
12	0x3f02b5e1	0.51058775
13	0x3e94110f	0.28919265
14	0xbe5fe206	-0.21863565
15	0xbea194c4	-0.31558812
16	0x3ee2993c	0.44257534
17	0xbea73c78	-0.32663321
18	0xbf23c478	-0.6397166
19	0xbef407e0	-0.47662258
20	0x3ed43cc8	0.41452622
21	0x3f08a776	0.53380525
22	0x3e4748b5	0.1946133
23	0x3f05417f	0.52053064
24	0xbe9dcd4b	-0.3082069
25	0xbd931437	-0.0718159
26	0xbdd67d3f	-0.104731075
27	0x3efddc8f	0.49582335
28	0x3e13d708	0.14437497
29	0x3daab2f9	0.083349176
30	0xbd6f382e	-0.058403187
31	0xbf0e9621	-0.5569783
32	0x3e9db539	0.30802324
33	0xbdafcf32	-0.08584441
34	0xbbe9397a	-0.0071174474
35	0xbc9e2009	-0.019302385
36	0xbeaa48ff	-0.33258817
37	0xbe4418db	-0.19150107
38	0x3e1cc7b3	0.15310554
39	0x3e2a7eb3	0.16649894
40	0xbe397ab5	-0.18113215
41	0x3f31b942	0.69423306
42	0xbe2544f1	-0.1613958
43	0xbde565c7	-0.11201053
44	0xbe820fca	-0.2540267
45	0xbe383b1b	-0.17991297
46	0xbd613b36	-0.05498811
47	0xbd1db2bc	-0.038500533
48	0xbe135749	-0.14388765
49	0x3c56cf64	0.013110969
50	0x3e89e6bb	0.26933846
51	0xbebde039	-0.3708513
52	0x3f082763	0.531851
53	0x3f3c35da	0.7351967
54	0x3f45fce3	0.77339
55	0xbbe78334	-0.007065201
56	0x3d666a63	0.056253802
57	0x3e343953	0.17599992
58	0xbe7262d4	-0.23670512
59	0xbf9c6d81	-1.2220918
60	0x3edef01d	0.43542567
61	0xbeb1dd8e	-0.34739345
62	0xbe825078	-0.25452018
63	0xbeab59b3	-0.33466873
64	0x3ee304d0	0.4433961
65	0x3e9a4388	0.30129647
66	0xbec422ca	-0.38307792
67	0xbd2a1934	-0.04152794
68	0x3e8156bb	0.25261483
69	0xbe3c8213	-0.18408994
70	0xbf01f34c	-0.50761867
71	0xbeeaf01f	-0.45886323
72	0x3ebc8dd2	0.3682695
73	0xbe221ede	-0.15832087
74	0x3da55940	0.08073664
75	0x3d1cc3b8	0.03827259
76	0x3e4fe0e2	0.2030063
77	0x3df24c46	0.11830954
78	0x3e5e0bbb	0.21684162
79	0xbd813e62	-0.06310727
80	0xbe463a13	-0.19358091
81	0xbf1f8ddf	-0.62325853
82	0x3d2117c1	0.039329294
83	0xbeb81cfe	-0.3595962
84	0x3dd78d27	0.105249695
85	0x3db4f323	0.08835437
86	0xbcedbc3d	-0.029020423
87	0x3e666b92	0.22501972
88	0xbddc836c	-0.10767254
89	0x3df0d9cd	0.11760292
90	0xbda2137e	-0.07913874
91	0xbd5928b5	-0.053017337
92	0xbc112087	-0.008857853
93	0xbd889439	-0.06668896
94	0x3e11a820	0.14224291
95	0xbe24fb16	-0.16111407
96	0x3e2edf4c	0.17077368
97	0xbe81dbe8	-0.25363088
98	0x3e35c464	0.17750698
99	0x3ecaadf4	0.3958584
100	0xbf1494ec	-0.58039737
101	0x3f502983	0.8131334
102	0xbe141a5d	-0.14463182
103	0xbece04a0	-0.40237904
104	0x3c4fd544	0.012685124
105	0xbe5efcc7	-0.21776114
106	0x3e8b1fd9	0.27172735
107	0xbf3db539	-0.7410465
108	0x3efa2025	0.4885265
109	0x3ddbd584	0.10734084
110	0x3c8928e7	0.016743137
111	0x3ea8d2b2	0.32973248
112	0xbefa3220	-0.48866367
113	0xbec545c8	-0.385298
114	0x3f3dbbf1	0.741149
115	0xbf092525	-0.53572303
116	0xbe5f6282	-0.21814921
117	0xbf1049a0	-0.5636234
118	0xbdf2d11c	-0.11856291
119	0x3dcb5a59	0.09929342
120	0x3e933dd2	0.28758103
121	0x3d82092f	0.06349408
122	0xbd6305a7	-0.055425312
123	0x3e76274b	0.24038427
124	0xbf26cb88	-0.65154314
125	0xbec640d2	-0.3872133
126	0x3f9ca801	1.2238771
127	0x3e9179cd	0.2841324
128	0xbd26e14e	-0.04074221
129	0x3dc578fa	0.09642215
130	0xbc54c519	-0.012986445
131	0xbe2c1de9	-0.16808285
132	0xbe74f18e	-0.23920271
133	0xbb897d17	-0.00419582
134	0x3dce2df4	0.100673586
135	0xbdc266b3	-0.094922446
136	0xbd067040	-0.032821894
137	0x3dab7c3a	0.08373304
138	0xbc8194e5	-0.015818069
139	0x3ddb5625	0.1070979
140	0xbd2a173b	-0.04152606
141	0xbe46c492	-0.19410923
142	0xbce931ad	-0.02846607
143	0x3dfee3c9	0.1244579
144	0xbea8ed1b	-0.32993397
145	0x3ec17c06	0.37789935
146	0x3d741c36	0.059597217
147	0xbe1cba1e	-0.15305373
148	0xbed3cbe4	-0.41366494
149	0xbf90d3c1	-1.1314622
150	0xbd6a3662	-0.05718077
151	0x3e98d2c6	0.29848307
152	0x3d1bf954	0.038079575
153	0x3f00e91e	0.5035571
154	0xbec6b294	-0.3880812
155	0x3f2bf7d2	0.6717502
156	0xbe42d444	-0.19026285
157	0xbea197fa	-0.3156126
158	0x3d1e2d8a	0.03861765
159	0x3e5d3f79	0.21606244
160	0x3f161dff	0.5863952
161	0xbe0eb426	-0.13935909
162	0xbeb559e1	-0.35420135
163	0x3e877c7d	0.26462165
164	0x3e9b2ad7	0.30306122
165	0xbd3a4eab	-0.04548518
166	0xbe7e6fe1	-0.24847366
167	0x3dd0f071	0.102021106
168	0xbcc2bf21	-0.023772778
169	0xbe9d92ff	-0.30776212
170	0xbefeb35c	-0.49746215
171	0x3f269a0f	0.65078825
172	0x3e981b28	0.2970822
173	0xbea9d2b9	-0.3316858
174	0xbe167036	-0.14691243
175	0x3d58aded	0.052900244
176	0x3eafd32c	0.343408
177	0xbdbbea25	-0.09175519
178	0xbef11a5e	-0.4709043
179	0xbec147dd	-0.3775014
180	0x3e813044	0.25232136
181	0x3da874c8	0.08225399
182	0xbacf783c	-0.0015828679
183	0x3e7fba67	0.2497345
184	0x3d6235d6	0.055227123
185	0x3df413ca	0.11917837
186	0xbd5a7f37	-0.053343978
187	0xbd43fffc	-0.047851548
188	0x3cad2c74	0.021139361
189	0x3c651ceb	0.013983945
190	0xbd88df75	-0.06683246
191	0xbe43f156	-0.19135031
192	0xbe1d4d8b	-0.15361612
193	0xbe317177	-0.1732844
194	0xbdb55bdb	-0.08855411
195	0xbd2c147d	-0.042011727
196	0xbf813cf0	-1.0096722
197	0x3ec3814c	0.38184583
198	0xbe3d6ff8	-0.18499744
199	0xbf0cb318	-0.54960775
200	0x3dfa914f	0.12234747
201	0xbd919198	-0.07107848
202	0xbdbb96b1	-0.091596015
203	0xbf93ec5d	-1.1556507
204	0x3e8e9030	0.2784438
205	0x3e9bd81e	0.30438322
206	0xbee85869	-0.45379952
207	0x3dcf8456	0.10132663
208	0xbe551fd0	-0.20812917
209	0xbebd2b4e	-0.369471
210	0x3e3655c5	0.17806156
211	0xbe5fdd6e	-0.21861812
212	0x3eeaab44	0.4583379
213	0x3e96174b	0.29314646
214	0x3eb3b530	0.35099173
215	0x3f6b9585	0.92025024
216	0x3ea96094	0.33081496
217	0x3f777914	0.96669126
218	0xbdd7721b	-0.10519811
219	0xbeb5cf70	-0.35509825
220	0xbe9e3c36	-0.30905312
221	0xbcca9d90	-0.024733335
222	0x3d533628	0.05156532
223	0xbf1c3919	-0.61024624
224	0x3dd82b3b	0.105551206
225	0x3db76aeb	0.0895594
226	0x3eb87974	0.3603016
227	0x3efa9504	0.48941815
228	0xbd34a75a	-0.04410491
229	0xbe0b0c12	-0.13578823
230	0x3e4c053c	0.19923872
231	0x3d1eab92	0.03873784
232	0xbd31ffc0	-0.043456793
233	0xbc7e13cf	-0.015507652
234	0xbe86da14	-0.26338255
235	0x3bfd70af	0.00773438
236	0x3d3cc46f	0.04608577
237	0x3d212bd2	0.03934843
238	0x3e048c79	0.12944211
239	0xbdb60cbe	-0.08889149
240	0xbe2d0214	-0.16895324
241	0xbd8882d0	-0.066655755
242	0xbd8a5016	-0.067535564
243	0xbde30227	-0.11084395
244	0x3cdd4844	0.027011998
245	0x3f012289	0.5044332
246	0xbf4071a5	-0.7517341
247	0xbeccd826	-0.40008658
248	0xbd890e76	-0.06692211
249	0xbcb43261	-0.021996679
250	0xbdb6f770	-0.08933914
251	0xbefbe1c2	-0.49195677
252	0x3f2fe731	0.68712145
253	0xbda8c75d	-0.082411505
254	0xbbabbe8c	-0.005241221
255	0x3f0db5d2	0.5535556

actor.0.bias f4 [128]
0	0xbcaf15b9	-0.021372663
1	0xbd9abf55	-0.07556025
2	0x3b457f30	0.0030135624
3	0xbe0f0ceb	-0.13969772
4	0xbe53ecf8	-0.20695865
5	0xb9fc562f	-0.00048129397
6	0xbe8f7bf5	-0.2802426
7	0xbe85bab8	-0.26119018
8	0xbe924cb6	-0.2857415
9	0xbe38d093	-0.18048315
10	0xbe40dde1	-0.1883464
11	0x3d884568	0.06653863
12	0xbe0715c4	-0.13191897
13	0xbd46d4ca	-0.048542775
14	0xbdd3b932	-0.103380576
15	0xbd20402b	-0.039123695
16	0x3cf81c13	0.030286824
17	0xbe30ded7	-0.17272507
18	0xbd2983ac	-0.041385338
19	0xbdac9b71	-0.084280856
20	0xbd26fefc	-0.040770516
21	0xbda5ac82	-0.08089544
22	0xbe1229c6	-0.14273748
23	0x3d0c059b	0.034185033
24	0x3d9b4a60	0.07582545
25	0x3cf69a59	0.030102896
26	0xbe872b4f	-0.2640023
27	0xbe2767cf	-0.16348194
28	0xbe8cd999	-0.27509764
29	0x3e01b448	0.12666428
30	0xbdc53c3a	-0.09630628
31	0xbd4931f5	-0.04911991
32	0x3d166c2e	0.036724262
33	0x3d061ad6	0.032740436
34	0xbe31d9e7	-0.1736828
35	0x3c34d8c6	0.011038011
36	0xbc902600	-0.017596245
37	0xbd0fcc8e	-0.035107188
38	0x3d94e629	0.07270462
39	0x3daf848b	0.085702024
40	0xbbe838ce	-0.00708685
41	0x3b23a37d	0.0024969273
42	0xbd97d54a	-0.074137285
43	0xbd70162c	-0.058614895
44	0xbda757cf	-0.08171045
45	0xbe11781a	-0.14205971
46	0xbe0e7ef5	-0.13915618
47	0xbe3ff0ac	-0.18744153
48	0x3d37c0be	0.044861548
49	0xbbdd1929	-0.006747384
50	0x3d008fd4	0.031387165
51	0x3dcea2a7	0.10089617
52	0xbdb6086c	-0.08888325
53	0xbcc53845	-0.024074683
54	0xbd83435b	-0.064093314
55	0xbc9e70b0	-0.019340843
56	0xbdfbfd3e	-0.123041615
57	0xbdebf366	-0.11521034
58	0xbd7a6621	-0.061132554
59	0xbc8d3744	-0.017238267
60	0xbdca2ad3	-0.09871449
61	0xbd878f85	-0.06619171
62	0xbdb1a9ce	-0.08674966
63	0xbcef9e0d	-0.02925017
64	0xbe11e2ff	-0.14246748
65	0xbeb020b7	-0.3439996
66	0xbe6629c6	-0.22476873
67	0xbe22eef1	-0.15911461
68	0xbebb5872	-0.36590916
69	0xbc8de9d8	-0.01732342
70	0x3dfa11b1	0.122104056
71	0xbd4f4e01	-0.0506115
72	0xbe8a0836	-0.2695939
73	0x3d920e48	0.0713163
74	0xbe0fbf76	-0.1403788
75	0x3d83b788	0.0643149
76	0xbc8c9506	-0.017160904
77	0xbe29c741	-0.16579916
78	0xbe10c28f	-0.14136718
79	0xbd801e49	-0.062557764
80	0x3c15bc0e	0.009139074
81	0xbe498be2	-0.19682267
82	0x3a419192	0.00073840574
83	0xbe4f5048	-0.20245469
84	0xbdc0318a	-0.09384449
85	0xbda07ae6	-0.07835941
86	0x3ca4a620	0.020098746
87	0xbea8b5d5	-0.32951227
88	0xbe3aa902	-0.18228534
89	0xbe0f150a	-0.1397287
90	0x3dad017b	0.08447548
91	0xbe905f65	-0.2819778
92	0xbe322151	-0.17395522
93	0xbea96ac4	-0.33089268
94	0xbd8ee4f8	-0.06977266
95	0xbd443a84	-0.047907367
96	0xbe3acbdb	-0.18241827
97	0x3df7b130	0.12094343
98	0xbe8c6d67	-0.27427217
99	0xbe7a0bf1	-0.24418618
100	0x3cadbbba	0.021207679
101	0x3c444ef5	0.011981715
102	0xbdc040eb	-0.09387382
103	0xbd5baf04	-0.053633705
104	0xbdc890dd	-0.097932555
105	0x3c41e739	0.011834913
106	0x3de353be	0.11099957
107	0xbea7f27a	-0.32802182
108	0xbe5a54c8	-0.21321404
109	0xbc7478fa	-0.014921421
110	0xbed4bc7b	-0.4155005
111	0x3decb45b	0.115578376
112	0xbdc6ce0b	-0.09707268
113	0x3df85a59	0.121266074
114	0xbcaa79c6	-0.02081002
115	0xbe678392	-0.22608784
116	0xbe87a174	-0.26490366
117	0xbdb5ef56	-0.0888354
118	0xbe1093f8	-0.14118946
119	0x3dc4027a	0.09570785
120	0xbbbbaff2	-0.0057277614
121	0x3e1111c8	0.1416694
122	0x3e26463f	0.16237734
123	0xbe7b6806	-0.245514
124	0xbe9ec737	-0.31011364
125	0xbe4fdd79	-0.20299329
126	0xbe59727d	-0.2123508
127	0xbca1e69f	-0.019763289

actor.2.weight f4 [64, 128]
0	0xbca51eea	-0.020156343
1	0x3e8d4328	0.275903
2	0xbe0a0486	-0.13478288
3	0x3e740164	0.23828655
4	0xbd43f20f	-0.047838267
5	0x3ddaea93	0.10689273
6	0xbdee5588	-0.116374075
7	0x3d897757	0.067122154
8	0x3e8b316c	0.27186143
9	0xbe2fc54b	-0.17165105
10	0x3cea3d4a	0.028593678
11	0xbe594d97	-0.21221004
12	0x3c76c781	0.015062214
13	0xbe8301c5	-0.25587288
14	0x3ea30439	0.3183916
15	0xbe157cf9	-0.14598455
16	0xbe0bf599	-0.13667907
17	0xbdc22c52	-0.0948111
18	0x3dbedf62	0.09319951
19	0x3d88108c	0.06643781
20	0x3d41ebdf	0.047344085
21	0x3d8175e1	0.06321312
22	0xbe79a702	-0.24380115
23	0xbeb0842c	-0.3447584
24	0x3eae4fd2	0.34045273
25	0x3d189fe7	0.03726187
26	0xbd092609	-0.03348354
27	0x3d478811	0.048713747
28	0x3d4f7bb4	0.050655082
29	0xbe19d1c1	-0.15021421
30	0xbd2c8820	-0.042122006
31	0xbe0760e4	-0.13220555
32	0x3dac21dc	0.08404896
33	0x3e36a697	0.17836986
34	0x3d9f8fff	0.07791137
35	0x3decab6c	0.11556134
36	0xbd5d6443	-0.054050695
37	0xbddc65c4	-0.10761598
38	0x3e50bc92	0.20384434
39	0xbe885507	-0.2662737
40	0xbdd1872c	-0.1023086
41	0xbb4cf11b	-0.003127164
42	0x3c60d9d8	0.013723813
43	0xbdb79b22	-0.08965136
44	0xbe4b6389	-0.19862188
45	0x3e7322ae	0.23743698
46	0x3e36a6bf	0.17837046
47	0xbe26ea73	-0.16300373
48	0x3e83c134	0.2573334
49	0xbcfff4b3	-0.031244611
50	0xbdf23f31	-0.11828459
51	0x3ea8f5be	0.32999986
52	0xbe014d14	-0.12627059
53	0xbcd3683c	-0.025806539
54	0xbc9d32cc	-0.01918926
55	0xbc0b075e	-0.008485643
56	0x3db286d7	0.08717125
57	0xbe91fcc0	-0.28513145
58	0xbe6855df	-0.22689007
59	0x3ea078e1	0.31342223
60	0xbe25a125	-0.16174753
61	0x3dac0a46	0.08400397
62	0xbe8c06e3	-0.27349004
63	0xbcae599b	-0.021282962
64	0xbe578c56	-0.21049628
65	0x3d957c22	0.07299067
66	0xbdefed67	-0.11715203
67	0x3d4eb0ae	0.050461464
68	0x3ea3efd7	0.3201892
69	0xbdde9cf8	-0.10869783
70	0xbe6230b0	-0.22088885
71	0x3d8765f8	0.06611246
72	0xbe4110ed	-0.18854113
73	0x3e8402bf	0.25783345
74	0x3e93738d	0.28799096
75	0x3ceb320f	0.028710393
76	0x3ca9ad14	0.020712413
77	0x3e94f2b9	0.29091433
78	0x3e429c67	0.19004975
79	0xbd80433c	-0.06262824
80	0xbd501eca	-0.050810613
81	0xbe08ff89	-0.13378729
82	0x3e45b42b	0.1930701
83	0xbc5a036a	-0.013306478
84	0x3d62fe95	0.05541857
85	0xbeb8f6ca	-0.36125785
86	0xbda34b5c	-0.07973358
87	0xbd88516a	-0.066561535
88	0x3e4e3ec6	0.20141134
89	0xbefcd941	-0.49384502
90	0xbbe26153	-0.0069085746
91	0xbb8829b1	-0.0041553606
92	0xbe353eea	-0.17699781
93	0x3dd1799a	0.10228272
94	0x3e443555	0.1916097
95	0xbd26b0ae	-0.04069584
96	0xbd50be2f	-0.050962623
97	0xbe564dfc	-0.20928186
98	0xbe931da1	-0.28733543
99	0xbe1cd75d	-0.1531653
100	0x3e401ad2	0.18760231
101	0x3e64f8b6	0.223605
102	0xbca2a8ac	-0.01985582
103	0xbe6e1676	-0.23250756
104	0xbe0569d7	-0.13028656
105	0xbd527478	-0.051380605
106	0xbec8a834	-0.3919083
107	0x3c01d98b	0.007925401
108	0xbbc857d5	-0.006113986
109	0xbe11fb4b	-0.14256017
110	0x3f0f0dd6	0.55880487
111	0xbe9932c2	-0.29921538
112	0xbd4b6416	-0.049655996
113	0xb9d14d34	-0.00039921107
114	0x3dcc28e3	0.09968736
115	0x3e158baf	0.14604066
116	0x3dc53cee	0.09630762
117	0x3d701d00	0.058621407
118	0xbe846706	-0.2585985
119	0xbd897436	-0.067116186
120	0x3e0c6f37	0.137143
121	0x3d58f49e	0.05296766
122	0xbed82687	-0.42216894
123	0x3bfc8bdb	0.0077071018
124	0x3e9918a8	0.29901624
125	0x3e3a950f	0.18220924
126	0xbd8dfab7	-0.06932586
127	0xbece3970	-0.40278196
128	0xbca76bb0	-0.020437092
129	0xbe8cf735	-0.27532354
130	0xbe6a284b	-0.22866933
131	0x3db8d529	0.09025032
132	0xbdfce1f1	-0.123477824
133	0xbe419e81	-0.1890812
134	0xbd9cd93c	-0.07658622
135	0xbd94d3ab	-0.07266935
136	0xbe3cf173	-0.1845148
137	0xbe98ad36	-0.2981965
138	0xbca37401	-0.019952776
139	0x3d1d9ab2	0.038477607
140	0x3d0b6963	0.03403605
141	0xbe6441f6	-0.22290787
142	0x3e9c4ca4	0.30527222
143	0xbe07d1d0	-0.13263631
144	0xbe69bba5	-0.22825487
145	0xbebb2304	-0.36550152
146	0x3e1d20ed	0.15344591
147	0xbcec4c32	-0.028844927
148	0xbe5072e0	-0.20356321
149	0x3e68871c	0.2270779
150	0xbc2ac768	-0.010423519
151	0xbe546f19	-0.20745505
152	0xbe6e345c	-0.23262161
153	0xbe83e526	-0.25760764
154	0x3e1bbdc0	0.15209103
155	0x3d8e306b	0.06942829
156	0x3bb055ae	0.0053813076
157	0xbd06323b	-0.032762747
158	0x3e53c1a5	0.20679338
159	0xbe2bb382	-0.16767696
160	0xbcf4eae9	-0.02989717
161	0xbe74874d	-0.23879738
162	0xbe3ac828	-0.18240416
163	0xbe6699c3	-0.22519593
164	0xbde585ca	-0.11207159
165	0x3da52203	0.08063128
166	0xbd0fbf22	-0.035094388
167	0xbe688cfa	-0.22710028
168	0xbbae9fe0	-0.005329117
169	0x3d18e42a	0.03732697
170	0x3b8b42d5	0.0042499104
171	0xbdb0aa8c	-0.08626279
172	0xbd54ff4d	-0.052001286
173	0xbe299aa7	-0.16562901
174	0xbe8a2550	-0.26981592
175	0x3ede532b	0.43422827
176	0xbf017755	-0.5057271
177	0xbe0bf3ea	-0.13667265
178	0xbe0cef7c	-0.13763231
179	0xbef53644	-0.47892964
180	0x3ddd33a6	0.10800867
181	0x3da95bb1	0.08269442
182	0xbdb0641c	-0.08612844
183	0xbdd2c337	-0.102911405
184	0x3ef04cfb	0.4693373
185	0xbe9e7c23	-0.30954084
186	0x3d869a20	0.06572366
187	0x3de2eb3b	0.11080023
188	0x3d944aaf	0.07240807
189	0x3d2e82b4	0.042605117
190	0xb9ce7572	-0.00039378885
191	0x3f252a0e	0.64517295
192	0x3e41c703	0.18923573
193	0x3d977865	0.0739601
194	0x3c1f0eaf	0.009708091
195	0x3d09300e	0.033493094
196	0xbe7bc5a7	-0.24587117
197	0x3d98efe5	0.07467631
198	0x3e1e14fd	0.15437694
199	0x3d8611d5	0.0654637
200	0x3dd8a0e3	0.10577562
201	0xbe36ad7d	-0.17839618
202	0x3e0504b7	0.1299008
203	0x3d5b40cd	0.053528596
204	0xbeb34f9f	-0.35021684
205	0x3e5f12f4	0.21784574
206	0x3e11b95d	0.14230867
207	0x3ad7f6cf	0.0016476753
208	0x3e09c939	0.13455667
209	0xbdde19da	-0.108447745
210	0x3d5e9013	0.05433662
211	0xbde7f4ef	-0.11326014
212	0x3e0ea6be	0.13930795
213	0xbda7ed09	-0.08199508
214	0x3d128956	0.035775505
215	0x3ba50d40	0.00503698
216	0x3e060615	0.13088258
217	0xbe937eef	-0.2880778
218	0xbd33f144	-0.04393126
219	0x3da2d7d0	0.07951319
220	0x3e821065	0.25403133
221	0x3e28a8b1	0.164706
222	0xbdd4e674	-0.10395518
223	0xbe406086	-0.18786821
224	0xbe47392e	-0.19455406
225	0xbdbe2cb6	-0.09285872
226	0x3e85d54f	0.26139304
227	0x3d3e6e05	0.04649164
228	0xbea1e9dd	-0.31623736
229	0xbefeb09f	-0.49744126
230	0xbc505976	-0.012716642
231	0xbd47af06	-0.0487509
232	0x3cb4b38e	0.022058275
233	0xbe2ad470	-0.16682601
234	0xbe2d6b61	-0.16935493
235	0x3ea36812	0.31915337
236	0x3d722350	0.059115708
237	0x3ec4dbe5	0.38449016
238	0xbe30063d	-0.1718988
239	0xbe05b4c9	-0.13057245
240	0x3eaa9893	0.3331953
241	0x3d0a968b	0.033834975
242	0xbeba7332	-0.36416012
243	0xbeced97f	-0.4040031
244	0x3db1e330	0.08685911
245	0xbd850ac6	-0.064961955
246	0x3f04ca5b	0.5187127
247	0x3c2d434b	0.010575126
248	0x3eb726de	0.3577184
249	0xbdb1ea38	-0.08687252
250	0x3e9a7f03	0.30175027
251	0x3c731193	0.014835733
252	0xbeabfa43	-0.33589372
253	0x3dc53f7c	0.09631249
254	0xbe17a364	-0.14808422
255	0xbe8e0b59	-0.27743033

actor.2.bias f4 [64]
0	0xbd95e817	-0.07319658
1	0xbda4ae93	-0.0804111
2	0xbdf8ab46	-0.12142043
3	0xbe6d7455	-0.23188908
4	0xbdc08492	-0.09400286
5	0x3c49a569	0.012307503
6	0xbd390801	-0.04517365
7	0x3d0cacf4	0.03434463
8	0xbeb17224	-0.34657395
9	0xbe83dd02	-0.25754553
10	0xbdacf2f3	-0.084447764
11	0x3de74cbf	0.11293935
12	0xbe921a1f	-0.28535554
13	0xbe4ac0b3	-0.19800071
14	0xbeaa186d	-0.3322176
15	0xbd37e186	-0.04489281
16	0xbe374b4d	-0.17899819
17	0xbe0a0009	-0.13476576
18	0xbdb13225	-0.086521424
19	0xbe78449d	-0.24244924
20	0xbe2b567c	-0.1673221
21	0x3e18732c	0.14887685
22	0xbe408897	-0.18802105
23	0xbeb1bdc6	-0.34715098
24	0xbe33defb	-0.17565529
25	0xbe09574a	-0.13412204
26	0xbe5c4cf3	-0.21513729
27	0xbd5599cd	-0.05214863
28	0xbdaa3fb6	-0.08312933
29	0xbdf4e7fe	-0.119583115
30	0xbcd3504b	-0.025795123
31	0xbe4d0f5d	-0.20025392
32	0xbea12a3d	-0.31477538
33	0x3c438fb7	0.01193612
34	0xbb9d9be5	-0.004809844
35	0xbe17df9b	-0.14831392
36	0xbe9836d3	-0.29729328
37	0xbddc0677	-0.107434206
38	0x3d51e2e8	0.051241785
39	0xbe2eba8b	-0.17063348
40	0xbe5a9afc	-0.21348184
41	0xbe70269c	-0.23452228
42	0xbdabe84f	-0.08393919
43	0xbe688dfa	-0.2271041
44	0xbd273087	-0.040817764
45	0xbe6b6ca9	-0.2299067
46	0xbd9631ae	-0.073336944
47	0xbe8804f6	-0.26566285
48	0xbe78dbdc	-0.2430262
49	0xbe2aafd5	-0.16668637
50	0xbccdf9f1	-0.025143595
51	0xbe33ef5c	-0.17571777
52	0xbe232c8a	-0.15934959
53	0xbd96f26f	-0.07370459
54	0xbe2c34e6	-0.16817054
55	0xbe9ce5f7	-0.306442
56	0xbe003217	-0.12519108
57	0xbe67658b	-0.2259733
58	0xbe38d658	-0.18050516
59	0x3cf5bce6	0.0299973
60	0xbe4c5000	-0.19952393
61	0xbdce69bd	-0.10078762
62	0xbd5c18b0	-0.05373448
63	0xbe4343ba	-0.19068804

actor.4.weight f4 [32, 64]
0	0x3dda891e	0.10670684
1	0xbd8d9d87	-0.069148116
2	0xbdc9301c	-0.09823629
3	0x3eb9dcda	0.3630131
4	0xbe045eff	-0.12926863
5	0x3c822106	0.015884887
6	0x3da5cb97	0.08095472
7	0xbe33283e	-0.1749582
8	0x3daaab75	0.08333484
9	0xbd514202	-0.05108834
10	0xbec157be	-0.37762254
11	0xbc8f5412	-0.017496143
12	0xbdc0c719	-0.09412975
13	0xbd543ec9	-0.05181769
14	0x3e4134d8	0.18867815
15	0xbe14a797	-0.14517055
16	0x3d64548f	0.055744704
17	0xbdd799a8	-0.105273545
18	0x3c4327ae	0.011911316
19	0xbdb8074b	-0.08985766
20	0x3e5d3218	0.2160114
21	0xbe856d9c	-0.26060188
22	0x3e865002	0.26232916
23	0x3d521809	0.051292453
24	0xbdd8e0fd	-0.10589788
25	0x3b664743	0.003513769
26	0xbde7790e	-0.11302386
27	0xbdfb4601	-0.122692116
28	0xbdb76546	-0.08954863
29	0x3d41d91a	0.047326185
30	0x3e456181	0.19275476
31	0xbdc1b455	-0.09458224
32	0x3eac7c8f	0.3368878
33	0xbe9c3c53	-0.30514774
34	0xbd4032a5	-0.0469233
35	0x3c156701	0.009118796
36	0x3e23fc27	0.16014157
37	0x3defddce	0.11712228
38	0xbd21c9ad	-0.039498974
39	0xbc988d09	-0.018621938
40	0xbe23928a	-0.15973869
41	0xbe21a027	-0.1578375
42	0x3cf7189b	0.0301631
43	0x3e7e33b2	0.24824408
44	0x3de3afcc	0.11117515
45	0xbd74d5b6	-0.059774123
46	0x3c87f670	0.016597003
47	0xbe4c51b9	-0.1995305
48	0x3cbec21d	0.02328592
49	0xbd36f41e	-0.044666402
50	0xbe691af8	-0.22764194
51	0x3d8ec9a6	0.06972055
52	0x3ddd7dc0	0.108150005
53	0xbe1cd847	-0.15316878
54	0xbe951772	-0.2911945
55	0x3dd89e0e	0.105770215
56	0xbe63e017	-0.22253452
57	0xbe38342e	-0.17988655
58	0x3c88f7d4	0.016719736
59	0x3d8d95c7	0.069133334
60	0x3bb6a221	0.0055735265
61	0xbe0431fb	-0.12909691
62	0x3db2eabf	0.087361805
63	0x3dce9b2e	0.10088192
64	0xbe1af9dd	-0.15134378
65	0x3d3a71bd	0.045518626
66	0xbe477486	-0.19478044
67	0x3d951d03	0.07280924
68	0x3e842a35	0.2581345
69	0xbd146c3e	-0.03623604
70	0x3e47a1f8	0.1949538
71	0xbd5da80e	-0.054115348
72	0x3d21358f	0.039357718
73	0x3d840c66	0.06447677
74	0xbcd000fb	-0.025391093
75	0xbb9a4b89	-0.0047087115
76	0x3e44feed	0.19237871
77	0xbe269387	-0.16267215
78	0x3e545e70	0.2073915
79	0x3e2b175c	0.1670813
80	0xbd68ccd2	-0.056835957
81	0x3d9d4071	0.07678307
82	0x3d902a63	0.070393346
83	0xbea0b5fa	-0.31388837
84	0xbddcc673	-0.10780039
85	0x3de4b6bd	0.11167667
86	0x3d42ae29	0.047529373
87	0x3e109e29	0.14122833
88	0x3e22a2d0	0.1588242
89	0xbdeb0aa4	-0.11476639
90	0x3cf9e6f0	0.030505627
91	0xbe8a57fb	-0.2702025
92	0xbddce204	-0.107852966
93	0x3d9c81f8	0.07641977
94	0x3c3830fc	0.011242148
95	0xbdf2bd76	-0.11852543
96	0x3e145e84	0.1448918
97	0x3e300fd3	0.17193536
98	0xbb74d0a2	-0.00373558
99	0xbe3f01d8	-0.18653047
100	0xbe61b84f	-0.22042964
101	0x3ac333fc	0.0014892812
102	0xbdc529fb	-0.09627148
103	0xbdb0cbe7	-0.08632641
104	0x3e737fe9	0.23779263
105	0xbdaf62b3	-0.08563747
106	0xbe2680a3	-0.16260009
107	0xbd6d62b3	-0.057955455
108	0x3db21a34	0.08696404
109	0x3e08c7ae	0.13357422
110	0xbdae7b19	-0.08519573
111	0xbba82fc2	-0.0051326463
112	0xbe094064	-0.1340347
113	0xbe208ae0	-0.15677977
114	0xbcfdb366	-0.030969333
115	0x3e297642	0.16549018
116	0x3e7fe3b1	0.24989201
117	0xbd9f846d	-0.0778893
118	0xbcfbd92a	-0.0307432
119	0xbea4eb1c	-0.32210624
120	0x3e40c073	0.18823414
121	0xbcac2fe8	-0.021018937
122	0x3e6b083f	0.22952364
123	0xbe3d5900	-0.18490982
124	0x3cdd6bb7	0.027028902
125	0x3e7918a1	0.24325801
126	0x3d3690b8	0.04457161
127	0xbe5e8136	-0.21728978
128	0x3e17d65c	0.14827865
129	0x3e223df6	0.15843949
130	0xbd3f3d3c	-0.046689257
131	0x3d8abd8c	0.067744344
132	0x3c9f7c9e	0.019468602
133	0x3d988984	0.07448104
134	0xbe3f2009	-0.18664564
135	0x3e1e1dd3	0.15441065
136	0x3e993743	0.29924974
137	0xbdb30b28	-0.08742362
138	0xbd5036c9	-0.050833497
139	0xbd3592e5	-0.044329543
140	0xbe34e794	-0.17666465
141	0x3e57c23a	0.21070185
142	0x3dabaa46	0.083820865
143	0x3dffbdb7	0.12487357
144	0x3e316d17	0.1732677
145	0xbe1783f9	-0.14796437
146	0xbe732f58	-0.23748529
147	0xbddb0665	-0.10694579
148	0xbdc6ace9	-0.09700949
149	0xbda1fe19	-0.079097934
150	0xbcfe15fd	-0.031016344
151	0x3e16b1ec	0.1471631
152	0x3e437c60	0.19090414
153	0xbd45ab62	-0.048259147
154	0x3d9342b6	0.071904585
155	0xbd94a82e	-0.0725864
156	0x3e180780	0.14846611
157	0xbde2f07a	-0.110810235
158	0xbe90eee1	-0.2830725
159	0x3e28155d	0.164144
160	0x3ec5b5c4	0.3861524
161	0x3e1fc2ad	0.15601607
162	0xbe00e4a4	-0.1258722
163	0xbdda489c	-0.106583804
164	0x3d7a9b97	0.06118354
165	0xbda42aa4	-0.080159456
166	0x3e09b6a6	0.13448581
167	0x3ce8b22d	0.028405273
168	0xbe578209	-0.21045698
169	0x3e10de2c	0.14147252
170	0x3e85922b	0.2608808
171	0x3d0e841f	0.03479397
172	0x3cc4ca95	0.02402238
173	0x3e087ec5	0.13329609
174	0x3e62af39	0.22137155
175	0x3cec9715	0.028880635
176	0xbe936909	-0.28791073
177	0xbe1aeb86	-0.15128908
178	0xbe3f121a	-0.18659249
179	0xbdc6cbe2	-0.09706856
180	0xbea804e7	-0.3281624
181	0xbe8db56b	-0.27677473
182	0x3e00bcb0	0.12571979
183	0x3de67bc5	0.11254076
184	0x3da5178b	0.08061131
185	0x3da69c94	0.08135334
186	0xbd18aac0	-0.037272215
187	0x3c21220b	0.009834777
188	0xbe5fb0be	-0.21844766
189	0x3b9e97f5	0.004839892
190	0xbd936957	-0.07197826
191	0x3c1de23a	0.009636456
192	0x3de13800	0.10997009
193	0xbd4e9638	-0.05043623
194	0xbe15a3f4	-0.14613324
195	0x3d956138	0.07293934
196	0x3d8bc30b	0.06824311
197	0x3c8a546e	0.016885962
198	0x3d1a0d03	0.037610065
199	0x3e615ffd	0.22009273
200	0xbd49fcfd	-0.049313534
201	0x3e45a7d3	0.19302301
202	0xbe0d7213	-0.13813047
203	0xbdc74b97	-0.097312145
204	0xbd459f9a	-0.04824791
205	0x3e32e890	0.17471528
206	0xbeb3d08e	-0.35120052
207	0xbbea4d9a	-0.007150364
208	0x3e0d45e6	0.13796195
209	0x3d88b622	0.06675364
210	0xbd4deb87	-0.050273445
211	0xbd2844cd	-0.04108124
212	0xbe6d2a7d	-0.23160739
213	0xbe853712	-0.26018578
214	0x3d747457	0.059681263
215	0x3d2713f8	0.040790528
216	0x3e12fbfb	0.14353935
217	0x3dd63361	0.104590185
218	0xbe65a912	-0.22427776
219	0xbcf1e129	-0.02952631
220	0x3e09b0b4	0.13446313
221	0x3e1a0ac2	0.15043166
222	0xbdf49022	-0.11941554
223	0xbe468ae3	-0.19388919
224	0x3d9231d1	0.07138408
225	0x3bb890bc	0.005632488
226	0xbd9dbdf9	-0.0770225
227	0x3e5e0967	0.21683274
228	0x3e2ff0d0	0.17181706
229	0x3da04601	0.07825852
230	0x3d8fd55a	0.070231155
231	0x3e21d5bf	0.15804194
232	0xbe3f7600	-0.18697357
233	0xbe1c0487	-0.15236102
234	0xbde27c84	-0.11058906
235	0xbdd5bd67	-0.10436516
236	0x3caf141b	0.021371892
237	0xbe0209c5	-0.1269904
238	0x3e0dbea0	0.13842249
239	0xbc491038	-0.012271933
240	0x3e3f6c26	0.18693599
241	0xbea17afe	-0.31539148
242	0x3e54cae2	0.20780519
243	0xbddde8cc	-0.10835418
244	0xbc54039f	-0.012940316
245	0x3da1a66f	0.07893073
246	0x3c9e379e	0.01931363
247	0x3e375811	0.17904688
248	0xbd060791	-0.03272206
249	0x3dd534c8	0.10410458
250	0xbdce484c	-0.10072383
251	0xbe6f1170	-0.23346496
252	0x3cae6cdb	0.02129214
253	0xbda57cf2	-0.08080472
254	0x3ccc40ee	0.024933305
255	0xbe534f15	-0.20635636

actor.4.bias f4 [32]
0	0xbc34ebe5	-0.01104257
1	0x3e1ae38f	0.15125869
2	0xbead974e	-0.339045
3	0xbe40482e	-0.18777534
4	0xbe14442c	-0.1447913
5	0xbda3b55d	-0.07993577
6	0x3d3b9539	0.045796607
7	0x3c835d33	0.016035652
8	0xbe88c1b1	-0.26710275
9	0x3e266765	0.1625038
10	0xbec01d0a	-0.37522155
11	0xbdc8e09f	-0.09808468
12	0xbde79c16	-0.11309068
13	0xbd8019d5	-0.06254927
14	0xbe294413	-0.16529875
15	0xbe583288	-0.21113026
16	0xbe34ff3a	-0.17675486
17	0xbe710b6b	-0.23539512
18	0xbe185b85	-0.14878662
19	0x3d28cebb	0.04121278
20	0x3e23ea6a	0.1600739
21	0xbe19c795	-0.15017541
22	0xbe424a21	-0.1897359
23	0xbe77c64a	-0.24196735
24	0xbdb3ced8	-0.08779687
25	0xbe13e9b5	-0.14444621
26	0xbe3a10f2	-0.18170527
27	0x3baee82d	0.005337736
28	0xbe358c7c	-0.17729372
29	0x3d6447c5	0.055732507
30	0xbe1653e5	-0.1468044
31	0xbda027ce	-0.07820092

actor.6.weight f4 [12, 32]
0	0xbcf57a5f	-0.029965578
1	0xbcb2d04c	-0.02182784
2	0x3d877f14	0.06616035
3	0x3d9937e9	0.07481367
4	0x3ddd9c58	0.10820836
5	0xbda727f7	-0.081619196
6	0x3ddc805e	0.107666716
7	0xbdf18ad0	-0.117940545
8	0x3d6ad1dc	0.057329044
9	0xbd2fe182	-0.04293967
10	0x3e234467	0.15944062
11	0xbe18e92d	-0.149327
12	0x3cf5a038	0.029983625
13	0x3d6c3d16	0.057675444
14	0x3daa22f6	0.083074495
15	0x3ded38d6	0.11583106
16	0xbbc46b8b	-0.0059942654
17	0x3d515d93	0.05111463
18	0xbe1a5025	-0.15069635
19	0xbcb5d07b	-0.022194138
20	0xbdcbbb65	-0.09947852
21	0x3d05c15e	0.032655112
22	0xbd26421f	-0.0405904
23	0x3dd5b076	0.10434048
24	0x3daa438c	0.08313665
25	0x3af1a32b	0.0018435469
26	0xbd3a877f	-0.045539375
27	0x3dacf459	0.08445043
28	0x3d64b7ba	0.055839278
29	0xbe1e4726	-0.15456828
30	0xbddd7687	-0.10813623
31	0xbe45c024	-0.19311577
32	0xbd9307bb	-0.07179209
33	0xbe542af3	-0.20719509
34	0xbd0cf1e2	-0.034410365
35	0x3cbc1559	0.022959398
36	0xbd11c0b6	-0.035584174
37	0x3cbb49d6	0.022862356
38	0xbd69320a	-0.056932487
39	0xbe1a9210	-0.15094781
40	0x3cd4c4fe	0.02597284
41	0x3d9a1e95	0.07525364
42	0xbc2e5c43	-0.010642114
43	0xbe6e9c4a	-0.23301807
44	0xbe5cb898	-0.21554792
45	0xbd0c29d8	-0.034219593
46	0xbd69e6be	-0.05710482
47	0x3d4ad59e	0.049520127
48	0xbcfcd453	-0.030862963
49	0xbd2963ec	-0.04135506
50	0x3e1079b0	0.1410892
51	0x3c330545	0.010926549
52	0x3da437ac	0.08018431
53	0x3d9e80e9	0.077394314
54	0x3d5e6de8	0.054304034
55	0xbcd84fe7	-0.026405288
56	0x3e2f067b	0.17092316
57	0xbd59797a	-0.053094365
58	0x3df2a79c	0.11848375
59	0x3dc2dc4d	0.09514675
60	0xbd5f44c0	-0.054508924
61	0xbda023f8	-0.078193605
62	0x3d314fea	0.043289103
63	0x3df4339b	0.119239055
64	0x3ba3f1aa	0.005003174
65	0xbcb2d34d	-0.021829272
66	0xbcc6aa3d	-0.024251098
67	0xbc7c7d84	-0.015410785
68	0x3be09f0e	0.0068548983
69	0xbd951490	-0.072793126
70	0x3e0ce9a9	0.1376101
71	0x3e12073f	0.14260577
72	0x3ded8258	0.11597127
73	0xbccd47d5	-0.025058666
74	0x3d48dfaa	0.049041428
75	0x3d8b9ee9	0.06817419
76	0x3de48af8	0.11159319
77	0xbd6eefbe	-0.058334105
78	0x3d0a36e9	0.033743773
79	0xbd33d8c7	-0.043907907
80	0xbe0bed19	-0.13664664
81	0x3ca8d8f5	0.020611266
82	0xbdf5a2df	-0.11993956
83	0xbc8aec08	-0.016958252
84	0x3dd27ead	0.10278068
85	0x3d5e7856	0.05431398
86	0x3e92a002	0.286377
87	0xbdaf27b2	-0.08552493
88	0xbe1ddeb9	-0.15416993
89	0x3cbd9e94	0.023146905
90	0x3e2e4998	0.17020261
91	0x3d9b0cad	0.07570777
92	0xbcb93295	-0.022607127
93	0xbcb2e569	-0.021837907
94	0xbea38de1	-0.31944183
95	0xbc91d126	-0.017799925
96	0x3bb908b1	0.005646788
97	0xbe16c2f4	-0.14722806
98	0x3da8e66a	0.08247073
99	0xbb1c948e	-0.0023892256
100	0xbb97f83d	-0.0046377466
101	0xbdb0be61	-0.08630062
102	0xbd984950	-0.07435858
103	0xbdbf9370	-0.09354293
104	0x3e1165ed	0.14199038
105	0x3ce08a45	0.027409682
106	0x3db79dc7	0.089656405
107	0x3dc21c22	0.09478022
108	0x3dd18123	0.10229709
109	0xbd27d344	-0.040972963
110	0xbe167284	-0.14692122
111	0xbd820f90	-0.063506246
112	0x3c945ecb	0.018111607
113	0xb9b48631	-0.00034432256
114	0x3d8e7822	0.06956507
115	0x3d90da48	0.07072884
116	0xbd670a8d	-0.056406546
117	0xbd4423ab	-0.047885578
118	0xbc1ab21c	-0.009441879
119	0xbdc5dd3f	-0.0966134
120	0x3ccb22ce	0.02479687
121	0x3e071d9a	0.13194886
122	0x3dfeb935	0.12437669
123	0xbddb413d	-0.107058026
124	0x3ce0b618	0.027430579
125	0x3e24a15d	0.1607718
126	0x3d361e50	0.044462502
127	0xbd922117	-0.07135218
128	0x3e00f334	0.12592775
129	0xbd4ef0be	-0.05052256
130	0xbe3dc391	-0.18531634
131	0xbda2096a	-0.07911952
132	0xbd2e6d04	-0.042584434
133	0x3c8f0706	0.017459404
134	0x3db29cb1	0.08721293
135	0xbde797fb	-0.11308285
136	0xbd79bfef	-0.060974058
137	0xbd91aff4	-0.071136385
138	0x3cfdd2f8	0.030984387
139	0xbc28977c	-0.010290023
140	0x3d65271a	0.055945493
141	0xbcaebedd	-0.021331245
142	0x3c2dde36	0.010612061
143	0x3de441da	0.11145373
144	0xbe4dabed	-0.20085116
145	0x392f26a3	0.00016703694
146	0xbe07acbd	-0.13249488
147	0x3df68319	0.12036724
148	0x3ceabcdd	0.02865451
149	0x3c1d7d1b	0.009612347
150	0xbe4418a1	-0.1915002
151	0xbda647d1	-0.08119167
152	0x3e20c32c	0.15699452
153	0x3d2c2586	0.042027973
154	0x3db2d254	0.08731523
155	0x3dcfe062	0.101502195
156	0xbc3849f5	-0.0112481015
157	0x3d2740d8	0.040833324
158	0x3c6feb79	0.014643543
159	0x3cc05b6b	0.023481091
160	0x3dcaea70	0.09907997
161	0xbda073bd	-0.07834575
162	0xbd698732	-0.057013698
163	0x3dfbc564	0.12293509
164	0xbe1740be	-0.14770791
165	0x3c94dcf8	0.018171772
166	0x3b724e9e	0.003697313
167	0x3d993463	0.07480695
168	0x3d5c65de	0.053808086
169	0x3d9f25fb	0.07770916
170	0xbe094109	-0.13403715
171	0x3e4bb35a	0.19892636
172	0x3e1a0c57	0.1504377
173	0x3db5f0ea	0.08883841
174	0xbdd1aa6d	-0.10237584
175	0xbe826243	-0.25465593
176	0x3d734e4d	0.059400845
177	0xbc8adb14	-0.016950168
178	0x3e1c08d6	0.15237746
179	0xbe44ad18	-0.19206655
180	0xbd683be1	-0.05669773
181	0x3d00c0c4	0.031433836
182	0xbd890e6f	-0.06692206
183	0xbb788541	-0.0037921222
184	0xbd96aacc	-0.07356796
185	0xbd4ef12b	-0.050522964
186	0xbbb29f2f	-0.005451105
187	0x3ca59140	0.020210862
188	0x3d4837d6	0.048881374
189	0xbe78c988	-0.24295628
190	0x3d35aba1	0.04435313
191	0xbc93693c	-0.017994516
192	0x3c8ec435	0.017427543
193	0x3d8d5f0a	0.06902893
194	0xbdb71397	-0.08939283
195	0x3d112f27	0.03544536
196	0x3de92f95	0.11386029
197	0x3d830ab1	0.063985236
198	0x3c80f42f	0.015741436
199	0xbdc3c188	-0.095583975
200	0xbd592668	-0.053015143
201	0x3e24ed27	0.16106091
202	0xbd8e79e5	-0.06956843
203	0xbdbdbda8	-0.0926469
204	0x3c80b8ad	0.01571306
205	0x3c1d2427	0.009591139
206	0x3d358a8e	0.04432159
207	0xbd5b1de4	-0.053495303
208	0xbd9f766e	-0.077862605
209	0x3da6d638	0.08146328
210	0xbd3556e4	-0.04427232
211	0x3d562cba	0.05228875
212	0x3da98cd5	0.08278815
213	0xbd99338c	-0.07480535
214	0x3dc88d01	0.09792519
215	0xbd948b2b	-0.07253107
216	0xbd85c810	-0.065322995
217	0xbd8915b2	-0.06693591
218	0xbdd4d61c	-0.103924006
219	0x3e3034fd	0.17207713
220	0x3bff2816	0.007786761
221	0x3e09dd93	0.1346343
222	0xbbb9b58e	-0.005667395
223	0x3ba42c45	0.00501016
224	0xbd39e6d9	-0.04538617
225	0x3e471366	0.19440994
226	0x3ca24ff6	0.019813519
227	0xbc8c628f	-0.01713684
228	0x3d07369e	0.03301107
229	0xbcf5ce83	-0.030005699
230	0x3d245812	0.040123053
231	0xbcd8691c	-0.026417308
232	0x3a31eecb	0.0006787597
233	0x3dd3af3b	0.10336157
234	0x3d954104	0.07287791
235	0x3cd34cad	0.025793398
236	0x3c32cb7c	0.010912772
237	0xbdba42a1	-0.0909474
238	0xbe276470	-0.16346908
239	0x3b82e7e3	0.003994928
240	0xbe8d6f8a	-0.2762416
241	0xbd119cd2	-0.035549946
242	0x3ba61c3b	0.0050692833
243	0xbdb3a527	-0.08771735
244	0xbccaef12	-0.0247722
245	0x3d91d3cd	0.07120476
246	0xbd90252c	-0.0703834
247	0x3c9dae51	0.01924816
248	0x3e577971	0.2104242
249	0xbdd4a00c	-0.10382089
250	0x3dcba3a7	0.099433236
251	0xbe00350e	-0.12520239
252	0x3d3eb726	0.046561383
253	0x3cc89391	0.024484428
254	0x3d9323c8	0.07184559
255	0x3d9fbacb	0.077993

actor.6.bias f4 [12]
0	0xbe5298eb	-0.20566146
1	0x3dd6c179	0.10486121
2	0x3e07b80e	0.13253805
3	0xbe22f1cd	-0.15912552
4	0xbe282009	-0.1641847
5	0xbd5f33d2	-0.05449278
6	0x3e28f55d	0.16499849
7	0x3c30a9d6	0.01078268
8	0xbe0202e9	-0.12696423
9	0x3e8391ec	0.25697267
10	0xbdbf70f1	-0.09347714
11	0xbe3e285f	-0.18570088

critic.0.weight f4 [128, 48]
0	0xbd6e72a7	-0.05821481
1	0x39b6c570	0.00034860848
2	0x3e9497f5	0.29022184
3	0xbe944639	-0.28959826
4	0x3f04e546	0.51912344
5	0xbf0e38f1	-0.55555636
6	0x3f4f7856	0.81042993
7	0x3f883146	1.0640037
8	0x3dac5877	0.08415311
9	0x3dc740fb	0.09729191
10	0xbe3243b4	-0.17408639
11	0x3f4addf6	0.79244936
12	0x3e6ac98a	0.22928444
13	0x3e3999a4	0.18125015
14	0x3e9c689a	0.30548555
15	0xbec646b1	-0.38725808
16	0xbf4d2641	-0.80136496
17	0xbf3331e3	-0.69997996
18	0x3d6d46fc	0.057929024
19	0x3f3937d2	0.723508
20	0x3f28e2d0	0.6597109
21	0xbe68eeba	-0.22747317
22	0xbea29ff0	-0.31762648
23	0xbd906e62	-0.07052304
24	0xbdccde19	-0.10003299
25	0xbd89587f	-0.067063324
26	0x3dbe556a	0.09293635
27	0xbec8e4a3	-0.39236936
28	0xbf1b6e72	-0.607154
29	0xbc73ca8a	-0.014879832
30	0xbee6c491	-0.45071843
31	0x3f1b6e2a	0.6071497
32	0x3e5e65dc	0.21718544
33	0xbe4f32bd	-0.20234199
34	0x3f0441b4	0.51662755
35	0xbe0ebf3a	-0.13940135
36	0x3d236324	0.03988947
37	0x3c6481d0	0.013946965
38	0xbc6b0975	-0.014345516
39	0x3c56874d	0.013093782
40	0xbc90d8ab	-0.01768144
41	0xbb468072	-0.0030288962
42	0xbd903d66	-0.07042961
43	0x3d22b3c4	0.03972222
44	0x3c28fe21	0.010314495
45	0x3c5ec99d	0.013597873
46	0x3c6807b0	0.014161989
47	0x3d01cb34	0.03168793
48	0x3e10e68f	0.14150451
49	0x3e313034	0.17303544
50	0x3e370761	0.17873909
51	0xbdbeec71	-0.09322441
52	0xbc867431	-0.016412826
53	0xbe0bf6d5	-0.13668378
54	0x3e6d835c	0.23194641
55	0x3f2fe5f8	0.6871028
56	0xbdc6b440	-0.09702349
57	0xbe7ca452	-0.24672058
58	0xbd242a36	-0.040079318
59	0xbe860e7d	-0.2618293
60	0x3ea80c9a	0.32822114
61	0xbe4bd5f1	-0.19905831
62	0x3e868971	0.26276734
63	0x3ed364ca	0.41287833
64	0x3e9913c6	0.29897898
65	0xbd821530	-0.063516974
66	0x3d5ba299	0.053621862
67	0x3bab9236	0.0052359356
68	0x3e9441ca	0.28956443
69	0xbe30a18b	-0.17249124
70	0xbc792278	-0.015205972
71	0x3e4c536c	0.19953698
72	0xbe1e120e	-0.15436575
73	0x3e031600	0.12801361
74	0xbe025de1	-0.12731124
75	0xba0eccc0	-0.000544738
76	0x3d1a51dd	0.037675727
77	0xbdd60a7a	-0.10451217
78	0x3d14cc9d	0.036327947
79	0xbee3eb11	-0.4451528
80	0x3e9ca7ef	0.30596873
81	0x3dba1be9	0.09087355
82	0xbedbf9a3	-0.42963895
83	0x3e3924cc	0.18080443
84	0xbd8ab38e	-0.067725286
85	0x3d287f15	0.04113682
86	0x3d957d18	0.0729925
87	0x3d8ea65a	0.06965323
88	0x3da15418	0.07877368
89	0x3c78d4b0	0.015187427
90	0x3d8a18a3	0.0674298
91	0xbda7fa20	-0.082020044
92	0xbe89f0b2	-0.26941448
93	0x3de1ffe8	0.11035138
94	0xbd971ade	-0.073781714
95	0xbdd45a3d	-0.10368774
96	0xbc6216a4	-0.013799343
97	0x3d3d0a50	0.046152413
98	0xbcf7307f	-0.030174492
99	0x3cef0535	0.029177288
100	0x3e54eb0e	0.20792791
101	0xbd1786b6	-0.036993705
102	0xbcb254be	-0.021768924
103	0x3e2b404c	0.16723746
104	0x3da6c28f	0.08142578
105	0xbe3fdc27	-0.18736325
106	0xbcb3c8e5	-0.02194638
107	0xbe4abf0a	-0.19799438
108	0x3dec006c	0.11523518
109	0xbef698ce	-0.48163456
110	0xbe250610	-0.16115594
111	0x3df7f6d0	0.121076226
112	0xbe63db0a	-0.22251526
113	0x3d70c488	0.058781177
114	0x3e0dc7a6	0.13845691
115	0xbc0edbc3	-0.008719387
116	0x3d116543	0.03549696
117	0xbeaf7936	-0.34272164
118	0xbee75cf8	-0.45188117
119	0xbd28ab01	-0.041178707
120	0x3e0a3ec9	0.13500513
121	0xbe151930	-0.1456039
122	0xbd9aefae	-0.075652465
123	0xbe0cc366	-0.13746414
124	0x3ea675b2	0.3251167
125	0x3a81f251	0.0009914135
126	0xbe5b9c32	-0.21446303
127	0x3d92aa18	0.07161349
128	0xbd0d77a8	-0.03453794
129	0xbdd5a65f	-0.104321234
130	0xbe4bd69a	-0.19906083
131	0xbe203e56	-0.1564878
132	0x3de8da27	0.11369734
133	0x3c744b7e	0.014910577
134	0x3cf3b277	0.029748185
135	0xbdd941ed	-0.106082775
136	0xbcedbe81	-0.029021503
137	0xbcdf4f0b	-0.02725937
138	0x3c4a5779	0.012349957
139	0x3dc70f8d	0.09719763
140	0x3d80e8f4	0.06294432
141	0x3d371ddd	0.044706214
142	0xbbbf947f	-0.0058465595
143	0xbd4aaf2c	-0.049483463
144	0x3e839359	0.25698355
145	0xbeea3349	-0.45742252
146	0xbe1058a9	-0.14096321
147	0x3d18ceee	0.03730672
148	0xbe8978c8	-0.2684996
149	0xbef772fc	-0.48329914
150	0x3ecf2249	0.40455845
151	0xc00fda37	-2.2476938
152	0x3d1860cb	0.037201684
153	0xbec38529	-0.3818753
154	0x3f07795b	0.5291955
155	0x3fc2e9b9	1.5227576
156	0x3ef89761	0.48552993
157	0x3dcfc647	0.1014524
158	0xbe3f020a	-0.18653122
159	0x3f644cac	0.8917949
160	0x3e3278a3	0.17428832
161	0x3f21b213	0.63162345
162	0x3d4f533d	0.05061649
163	0xbe2bbc55	-0.16771062
164	0x3e5169ee	0.20450565
165	0x3e91cd42	0.28476912
166	0x3e96961f	0.29411408
167	0xbd9b32dc	-0.0757806
168	0xbd47de81	-0.04879618
169	0x3d5cae76	0.053877316
170	0x3c62c4c0	0.013840854
171	0x3d7151f6	0.058916055
172	0xbe59b5d6	-0.21260771
173	0x3d849598	0.06473845
174	0xbd9e208c	-0.077210516
175	0xbea738de	-0.32660574
176	0x3ce11b57	0.027478857
177	0xbdfc2b23	-0.12312915
178	0xbdef01d0	-0.116702676
179	0x3d585454	0.052814797
180	0xbae4b7c4	-0.0017449786
181	0xbb99be81	-0.0046918993
182	0x3d1a22d9	0.03763089
183	0xbcdce80a	-0.026966114
184	0x3cb68429	0.022279816
185	0xbd1ab665	-0.0377716
186	0xbb052f9b	-0.0020322565
187	0xbcd046fa	-0.02542447
188	0xbd453279	-0.048143838
189	0xbc9aaae0	-0.018880308
190	0xbc8a7e4d	-0.016905928
191	0x3ca0c69c	0.019625954
192	0x3dca564e	0.098797426
193	0xbdb61d6c	-0.088923305
194	0x3ea2156f	0.31656978
195	0xbdb621d8	-0.08893174
196	0x3ef5f677	0.480396
197	0x3ec1fa7c	0.37886417
198	0x3ef5f539	0.48038653
199	0x3f121849	0.57068306
200	0xbcd98b65	-0.026555726
201	0xbe46ffae	-0.19433472
202	0x3da0a8d0	0.078446984
203	0xbd79a9f1	-0.060953084
204	0x3e047564	0.12935406
205	0xbe568880	-0.20950508
206	0xbe45974a	-0.19295993
207	0xbf358efc	-0.709213
208	0x3dece27d	0.11566637
209	0xbe8c650d	-0.27420846
210	0xbddb120e	-0.10696803
211	0x3c085df4	0.008323181
212	0xbc04a57a	-0.008096093
213	0xbeac9ed3	-0.33714923
214	0x3d1f8488	0.03894475
215	0xbd64531c	-0.05574332
216	0x3d0c27be	0.03421759
217	0x3ce0b76c	0.027431212
218	0x3e220c3d	0.15824981
219	0x3e00025f	0.12500905
220	0x3e1f868f	0.15578674
221	0x3e5c962b	0.2154166
222	0xbe1ad3eb	-0.15119903
223	0xbdbd0778	-0.0922994
224	0x3e2da025	0.16955622
225	0xbef88ae5	-0.48543468
226	0xbdad9dd0	-0.08477366
227	0x3d5eb6f3	0.054373693
228	0xbd47ecd3	-0.048809838
229	0x3ca942eb	0.020661792
230	0x3c5a6478	0.013329618
231	0xbcefd587	-0.029276622
232	0x3c162871	0.009164915
233	0x3de9df78	0.114195764
234	0xbbefb043	-0.007314713
235	0xbcaaf65e	-0.02086943
236	0xbcb03879	-0.021511303
237	0x3d9096dd	0.07060025
238	0x3c3cc0c5	0.011520569
239	0x3d895517	0.06705683
240	0xbcce773e	-0.025203343
241	0xbdb34a0b	-0.08754357
242	0xbd88eb0c	-0.06685457
243	0x3e5558ef	0.20834707
244	0x3eca808b	0.39551196
245	0x3e820f09	0.25402096
246	0xbd6cd145	-0.057816762
247	0xbf5aa629	-0.8540979
248	0xbd98fa71	-0.07469643
249	0x3cd3fcb4	0.025877334
250	0x3d8c0f11	0.06838811
251	0x3ec5261e	0.38505644
252	0x3e3df43d	0.18550201
253	0x3cb4a6a2	0.022052113
254	0xbd4793fb	-0.04872511
255	0x3d94d0bb	0.07266375

critic.0.bias f4 [128]
0	0xbdd959f3	-0.106128596
1	0x3e337a14	0.17527038
2	0xbe4030a8	-0.18768561
3	0xbeaf7e4e	-0.3427605
4	0x3d292c94	0.04130228
5	0x3e06efc2	0.13177398
6	0xbe4411c4	-0.19147402
7	0x3ad3041a	0.0016099245
8	0x3d9ec522	0.07752444
9	0xbe27bd63	-0.16380839
10	0xbe7102f8	-0.23536289
11	0x3dabaafc	0.08382222
12	0xbe5278a2	-0.2055383
13	0xbd49e993	-0.04929502
14	0x3d9972ee	0.07492624
15	0x3dc0f7ea	0.09422286
16	0x3e3eaa47	0.18619643
17	0xbdd4c9dc	-0.10390064
18	0x3d6acd1a	0.057324506
19	0xbe69b63a	-0.2282342
20	0x3e58759b	0.21138613
21	0xbd3061fd	-0.0430622
22	0x3cd5170f	0.026011972
23	0xbb98e187	-0.004665557
24	0xbe14d5c3	-0.14534669
25	0xbea05901	-0.31317905
26	0x3db0c7bf	0.086318485
27	0x3d9a348f	0.07529556
28	0x3d2edbe7	0.042690184
29	0xbe98ff8b	-0.29882464
30	0xbe198569	-0.14992298
31	0xbe71aff3	-0.23602276
32	0xbe5d8bf4	-0.21635419
33	0xbeadf266	-0.33973998
34	0xbdcb68d5	-0.099321045
35	0x3bc667da	0.0060548605
36	0x3df24c3c	0.11830947
37	0xbd51d5de	-0.05122935
38	0xbe4ce433	-0.20008926
39	0xbdebd532	-0.11515273
40	0x3e0d28d6	0.13785109
41	0xbe71142f	-0.23542856
42	0x3cdd1c5f	0.026991067
43	0xbea3c784	-0.31988156
44	0xbe62fcbd	-0.22166725
45	0xbecbe1f3	-0.39820823
46	0xbd147f41	-0.03625417
47	0xbdf1bd5d	-0.11803696
48	0xbe9fd34b	-0.3121589
49	0xbe65bfb1	-0.22436406
50	0xbe6520cc	-0.22375792
51	0xbd3302ce	-0.043703847
52	0xbe654f06	-0.22393426
53	0xbe412b89	-0.18864264
54	0xbddb5015	-0.10708634
55	0x3d4e881c	0.050422773
56	0xbe88d660	-0.26726055
57	0x3da706a6	0.08155565
58	0xbeae30cd	-0.34021607
59	0x3e5dc107	0.21655665
60	0x3cd12497	0.025530143
61	0x3d2fcd96	0.04292067
62	0xbeac91f0	-0.3370509
63	0xbdd6c61f	-0.10487007
64	0xbe3b11a8	-0.18268454
65	0x3b97cf42	0.0046328614
66	0x3da3153f	0.07963037
67	0x3d91efad	0.07125793
68	0x3d3c5d36	0.04598733
69	0x3e235665	0.15950926
70	0x3dea1c67	0.114311986
71	0x3e0bac46	0.13639936
72	0xbe8addbe	-0.271223
73	0xbe2386ee	-0.1596944
74	0xbd99bd37	-0.07506793
75	0xbe8ee383	-0.27907953
76	0xbe0dfabc	-0.13865179
77	0xbe4c906f	-0.19976972
78	0x3e0848a1	0.13308956
79	0xbe3c488b	-0.18387048
80	0x3e403088	0.18768513
81	0xbe5b7b30	-0.21433711
82	0xbe236d44	-0.1595965
83	0xbe1c6226	-0.15271816
84	0x3dfff430	0.12497747
85	0x3e2b55a0	0.16731882
86	0xbe70d4c8	-0.2351867
87	0xbe96c948	-0.2945044
88	0x3dbfdde4	0.09368494
89	0xbcc49dc7	-0.024001015
90	0xbd41cfcc	-0.04731731
91	0xbe32f76b	-0.17477195
92	0x3dbfbc2e	0.09362064
93	0xbe6dad51	-0.23210646
94	0x3d59d2ef	0.053179678
95	0xbe99d6ac	-0.30046594
96	0xbc481af7	-0.01221346
97	0xbc43b165	-0.01194415
98	0x3d2f529e	0.0428034
99	0xbd461c0d	-0.048366595
100	0x3e049df0	0.12950873
101	0xbeb31fa1	-0.34985068
102	0xbe74f918	-0.23923147
103	0xbd6a18ff	-0.057152744
104	0x3db2d884	0.08732703
105	0x3e37779e	0.17916724
106	0xbebce990	-0.36896944
107	0xbe955b07	-0.2917101
108	0x3e1f0798	0.1553024
109	0xbd78dea6	-0.06075921
110	0xbe1b6957	-0.15176903
111	0xbd0215f5	-0.03175922
112	0x3d92ef92	0.07174601
113	0x3e74437a	0.23853865
114	0xbea4623d	-0.321062
115	0xbd871b29	-0.06596977
116	0x3ce209da	0.027592588
117	0xbe26180a	-0.16220108
118	0x3c7d576d	0.015462738
119	0x3dc38725	0.09547261
120	0xbe9a6f84	-0.30163205
121	0xbe2f1298	-0.17096937
122	0xbe3351a8	-0.17511618
123	0x3cda5c59	0.026655363
124	0xbe984507	-0.29740164
125	0xbe0e52c4	-0.1389876
126	0x3db12410	0.086494565
127	0xbed2bde7	-0.4116051
