isaacgym/legged_gym/logs/flat_anymal_c/Mar26_18-44-56_/model_300.pt (torch, 418700 bytes, 48 tensors)

std f4 [12]
0.41621315 0.5414009 0.42544258 0.41236183 0.5141048 0.46796766 0.41598916 0.5200469
0.47182804 0.4004093 0.5051848 0.4520659
00000000: e419 d53e 4099 0a3f 9cd3 d93e 1721 d33e
00000010: 5f9c 033f 7599 ef3e 88fc d43e cb21 053f
00000020: 7293 f13e 7302 cd3e cb53 013f 2f75 e73e

actor.0.weight f4 [128, 48]
0.13911155 0.08654961 0.03686917 0.06288591 0.9282044 0.15014453 1.6134772 -0.8050254
0.24908179 -0.11666049 0.23395519 -0.6535571 0.55033845 0.39914146 -0.20730075 -0.49132964
0.4376425 -0.26654023 -0.72466475 -0.7071755 0.4253364 0.64942855 0.22300738 0.44193348
-0.41905951 0.030921867 -0.15497899 0.48080382 0.0013658969 -0.06959983 -0.05052506 -0.5683285
0.31926337 -0.17332894 -0.20984285 0.11482179 -0.28891748 -0.19715153 0.1602945 0.15745366
-0.16432865 0.7069298 -0.18665874 -0.2091608 -0.29631552 -0.09290224 -0.111675106 -0.027464809
-0.14485018 -0.0035882574 0.3353342 -0.33810708 0.4566323 0.70547414 0.90505975 -0.28877988
0.048061747 0.17653818 -0.23021057 -1.2654976 0.5010557 -0.35952607 -0.19985838 -0.32110548
0.41637772 0.30233455 -0.33272263 -0.01572227 0.27881092 -0.2269644 -0.5834949 -0.49758437
0.3541963 -0.16148041 0.06820204 0.23038432 0.42553303 -0.026279815 0.2360305 -0.025155786
-0.3293051 -0.55952644 0.01695665 -0.38567924 0.07494811 0.100263745 -0.05251281 0.24006642
-0.054768875 0.09661779 -0.012326792 -0.027771775 0.004911408 -0.032582097 0.20261842 -0.15390734
0.1660235 -0.20885143 0.22383034 0.3758109 -0.6255973 0.78916883 0.08130537 -0.36469096
0.02671184 -0.2367601 0.29094806 -0.70564634 0.5545096 0.18442246 -0.029354975 0.46187493
-0.4966911 -0.38959444 0.65581805 -0.60233176 -0.26542225 -0.66568375 -0.08514148 0.06491615
0.06667845 0.09833666 -0.069045685 0.23497403 -0.68888366 -0.36578903 1.1385514 0.31333318
0.103937745 0.07436678 0.016061364 -0.09449577 -0.16481738 -0.016501976 0.09086604 -0.10959114
-0.03512908 0.037524447 0.004666232 0.19794162 0.019153759 -0.13798402 -0.02413939 0.084468216
-0.2835505 0.45042464 0.104400404 -0.08711816 -0.39771634 -1.3083205 -0.1509083 0.1529979
0.041813534 0.5775022 -0.3684692 0.5269709 -0.26197013 -0.2906192 0.019710748 0.21061246
0.65322715 -0.16305839 -0.30364677 0.26469666 0.30648407 -0.030793192 -0.22945221 0.10924413
-0.07404376 -0.3288251 -0.5083112 0.54927236 0.3580405 -0.2916346 -0.017444469 0.08141861
0.29900455 -0.12023546 -0.48352063 -0.2277479 0.24436492 0.0557673 0.024960883 0.31190085
0.05811913 0.061726287 -0.055662002 -0.0031642278 0.0055809203 0.0236704 -0.049514968 -0.12219007
-0.13490967 -0.1690888 -0.05609308 -0.039994296 -1.0638882 0.34900305 -0.1661656 -0.4597931
0.12357041 -0.08015858 -0.107080095 -1.1401939 0.2891729 0.31263188 -0.49605927 0.050094653
-0.24285845 -0.42722258 0.20993125 -0.32348558 0.46133107 0.3630284 0.3771471 0.8656447
0.49374512 0.8420517 -0.105793186 -0.33844987 -0.35771033 -0.02386813 0.08586723 -0.68574697
0.035956975 0.0057672076 0.4406631 0.4471272 0.026241554 -0.085339256 0.16196688 0.07984272
-0.04773836 -0.05227285 -0.23913248 0.06518379 0.093217015 0.02727535 0.14553615 -0.061895482
-0.18057632 -0.01684485 -0.0553644 -0.17297906 0.14707986 0.45644236 -0.67155445 -0.4068616
-0.07545489 -0.0147769 -0.060997766 -0.51296 0.6820966 -0.14667511 -0.02067378 0.6117965
00000000: 4273 0e3e ec40 b13d 2004 173d 54ca 803d
00000010: ce9e 6d3f 7dbf 193e 6c86 ce3f 2516 4ebf
00000020: 4c0f 7f3e b2eb eebd f391 6f3e 854f 27bf
00000030: fbe2 0c3f 455c cc3e a646 54be 8f8f fbbe
00000040: ae12 e03e f677 88be a183 39bf 7409 35bf
00000050: b1c5 d93e f340 263f 0c5c 643e 1b45 e23e
00000060: f88e d6be db4f fd3c d0b2 1ebe eb2b f63e
00000070: e507 b33a 5b8a 8ebd 5ef3 4ebd fa7d 11bf
00000080: 7d76 a33e 247d 31be 0be1 56be b027 eb3d
00000090: feec 93be 17e2 49be 3e24 243e 883b 213e
000000a0: c545 28be 5af9 343f 7823 3fbe 402e 56be
000000b0: abb6 97be 8843 bebd ebb5 e4bd e1fd e0bc
000000c0: 9b53 14be f828 6bbb edb0 ab3e 5f1c adbe
000000d0: b5cb e93e f499 343f ffb1 673f f5da 93be
000000e0: 65dc 443d 6dc6 343e 52bc 6bbe d3fb a1bf
000000f0: 3045 003f cd13 b8be ada7 4cbe f067 a4be
00000100: 762f d53e 98cb 9a3e 9f5a aabe fdcb 80bc
00000110: 4ec0 8e3e 5b69 68be ec5f 15bf 61c3 febe
00000120: 3859 b53e 1f5b 25be 83ad 8b3d dee9 6b3e
00000130: 77df d93e c448 d7bc fbb1 713e 8213 cebc
00000140: ae9a a8be 203d 0fbf ace8 8a3c c077 c5be
00000150: 657e 993d 1457 cd3d ac17 57bd f9d3 753e
00000160: 5455 60bd 8cdf c53d 50f6 49bc a281 e3bc
00000170: e0ef a03b ce74 05bd 347b 4f3e e399 1dbe
00000180: 1002 2a3e 26dd 55be c833 653e 496a c03e
00000190: 2527 20bf f806 4a3f 6e83 a63d c6b8 babe
000001a0: cad2 da3c 3d71 72be 25f7 943e 3da5 34bf
000001b0: 57f4 0d3f 3ed9 3c3e d879 f0bc df7a ec3e
000001c0: 4c4e febe ec78 c7be b1e3 273f 6a32 1abf
000001d0: 6de5 87be 406a 2abf a85e aebd c2f2 843d
000001e0: b68e 883d bb64 c93d d367 8dbd 089d 703e
000001f0: ae5a 30bf b348 bbbe 0dbc 913f 356d a03e
00000200: 50dd d43d 9c4d 983d 1f93 833c 0087 c1bd
00000210: e3c5 28be 272f 87bc f917 ba3d 5271 e0bd
00000220: 83e3 0fbd 3cb3 193d 31e7 983b 35b1 4a3e
00000230: 58e8 9c3c af4b 0dbe f8bf c5bc acfd ac3d
00000240: 882d 91be 0f9e e63e e1cf d53d 026b b2bd
00000250: 7aa1 cbbe 0c77 a7bf b587 1abe 7bab 1c3e
00000260: ab44 2b3d 2fd7 133f ffa7 bcbe 91e7 063f
00000270: f320 86be 0acc 94be 6f78 a13c cbaa 573e
00000280: e539 273f c7f8 26be 9777 9bbe 5286 873e
00000290: 7beb 9c3e 0142 fcbc 85f5 6abe 63bb df3d
000002a0: 41a4 97bd c35b a8be af20 02bf 1d9d 0c3f
000002b0: 1651 b73e 2151 95be b4e7 8ebc cdbe a63d
000002c0: 2017 993e 023e f6bd 0490 f7be bf36 69be
000002d0: cc3a 7a3e 416c 643d c47a cc3c 78b1 9f3e
000002e0: 530e 6e3d b4d4 7c3d d7fd 63bd ef5e 4fbb
000002f0: 27e0 b63b 6de8 c13c 35d0 4abd ca3e fabd
00000300: c325 0abe 9d25 2dbe dcc1 65bd 0fd1 23bd
00000310: 7d2d 88bf 87b0 b23e 5127 2abe 006a ebbe
00000320: 7c12 fd3d 2e2a a4bd cf4c dbbd e0f1 91bf
00000330: 780e 943e 4911 a03e 7bfb fdbe 0d30 4d3d
00000340: e3af 78be ebbc dabe 38f8 563e e79f a5be
00000350: 9633 ec3e dcde b93e 6d19 c13e e49a 5d3f
00000360: 29cc fc3e b390 573f 19aa d8bd 4d49 adbe
00000370: cf25 b7be 1987 c3bc 29db af3d 1d8d 2fbf
00000380: 9f47 133d d8fa bc3b 989e e13e dbed e43e
00000390: 87f8 d63c 59c6 aebd a5da 253e 9484 a33d
000003a0: 4c89 43bd 0e1c 56bd 25df 74be 147f 853d
000003b0: 90e8 be3d 8e70 df3c 6e07 153e 1e86 7dbd
000003c0: 00e9 38be 36fe 89bc c8c5 62bd 6c21 31be
000003d0: 1a9c 163e d0b2 e93e feea 2bbf 2a50 d0be
000003e0: 1888 9abd d01a 72bc cbd8 79bd 5951 03bf
000003f0: e29d 2e3f 0032 16be 0f5c a9bc b29e 1c3f

actor.0.bias f4 [128]
-0.044517957 -0.06699765 -0.013982172 -0.14290501 -0.20940796 0.0050471937 -0.29269597 -0.26770604
-0.29505083 -0.19005883 -0.20301907 0.070405915 -0.15594985 -0.08372355 -0.12503903 -0.040468752
0.03469261 -0.16900697 -0.049382232 -0.1037143 -0.05397874 -0.07764826 -0.15368825 0.072641864
0.092485175 0.038308598 -0.26203868 -0.2067876 -0.26746005 0.106194705 -0.08406221 -0.027014958
0.027194817 0.018903038 -0.18838863 -0.031527136 -0.02291756 -0.05066714 0.06022051 0.10006975
-0.059487145 -0.011128155 -0.061499815 -0.05653859 -0.09612504 -0.1689719 -0.17170073 -0.1973933
0.034744687 -0.026576253 0.022344148 0.09754579 -0.086118616 -0.034374915 -0.056892447 -0.012168541
-0.14093079 -0.116756134 -0.079101995 -0.047582537 -0.10569417 -0.08732276 -0.0935476 -0.034058295
-0.1746425 -0.37865928 -0.23296075 -0.16288437 -0.38124213 -0.024543958 0.10363506 -0.06746169
-0.24726129 0.047256127 -0.14566045 0.06921035 -0.0070583834 -0.1919409 -0.16815536 -0.0820172
0.009045654 -0.19641699 -0.00208018 -0.22508562 -0.09252578 -0.0814425 0.030539595 -0.3300054
-0.2079119 -0.13513722 0.0750971 -0.29729185 -0.14883125 -0.34543708 -0.0752851 -0.04674252
-0.18832172 0.10878352 -0.2946287 -0.24019952 0.04414557 0.006164691 -0.08565816 -0.08412523
-0.074023254 0.008018531 0.12351472 -0.30687818 -0.21060017 -0.03203142 -0.44300935 0.1283124
-0.1132908 0.13847454 -0.010099626 -0.23945178 -0.2599027 -0.08025178 -0.14188345 0.098777995
-0.021493917 0.13394456 0.17366749 -0.2539269 -0.31987083 -0.2227964 -0.22985074 -0.019012494
00000000: 7658 36bd 1036 89bd 7b15 65bc b155 12be
00000010: 0a6f 56be ee62 a53b 3fdc 95be c410 89be
00000020: e710 97be c89e 42be 3be4 4fbe fa30 903d
00000030: 51b1 1fbe 4177 abbd 3b0a 00be 90c2 25bd
00000040: d719 0e3d 2a10 2dbe 0645 4abd 2a68 d4bd
00000050: d018 5dbd 0d06 9fbd 7460 1dbe 42c5 943d
00000060: de68 bd3d 7ae9 1c3d ef29 86be 21c0 53be
00000070: 86f0 88be 9c7c d93d cf28 acbd 794e ddbc
00000080: aac7 de3c 8bda 9a3c f3e8 40be 9922 01bd
00000090: 9bbd bbbc 5988 4fbd c8a9 763d 5ef1 cc3d
000000a0: cba8 73bd dd52 36bc 3be7 7bbd 0295 67bd
000000b0: 34dd c4bd f806 2dbe 51d2 2fbe 7821 4abe
000000c0: 7250 0e3d 71b6 d9bc 130b b73c 16c6 c73d
000000d0: f55e b0bd b6cc 0cbd 0e08 69bd 8f5e 47bc
000000e0: 2950 10be d71d efbd 3a00 a2bd e8e5 42bd
000000f0: 2f76 d8bd 46d6 b2bd e295 bfbd b680 0bbd
00000100: 7cd5 32be a1df c1be 438d 6ebe 29cb 26be
00000110: 2b32 c3be 6910 c9bc 9e3e d43d 5b29 8abd
00000120: 1032 7dbe a48f 413d 0328 15be 28be 8d3d
00000130: 034a e7bb 288c 44be eb30 2cbe a2f8 a7bd
00000140: 3934 143c 8921 49be a153 08bb d87c 66be
00000150: 287e bdbd 53cb a6bd 2c2e fa3c 78f6 a8be
00000160: dbe6 54be 6961 0abe 82cc 993d a336 98be
00000170: 3867 18be 21dd b0be 132f 9abd 1675 3fbd
00000180: 69d7 40be e5c9 de3d 93d9 96be ddf6 75be
00000190: fcd1 343d 2d01 ca3b 8c6d afbd d949 acbd
000001a0: 8199 97bd 2860 033c 49f5 fc3d 231f 9dbe
000001b0: 92a7 57be 6133 03bd 1fd2 e2be 5364 033e
000001c0: 0205 e8bd 45cc 0d3e e778 25bc d932 75be
000001d0: f711 85be 0c5b a4bd e549 11be 1e4c ca3d
000001e0: 0314 b0bc c328 093e e4d5 313e b502 82be
000001f0: 1cc6 a3be bd24 64be fe5d 6bbe 17c0 9bbc

actor.2.weight f4 [64, 128]
-0.014713564 0.3131311 -0.14254513 0.30061802 0.02852483 0.10844132 -0.110227145 0.07085348
0.27967045 -0.14254087 0.04816972 -0.22796433 -0.021762984 -0.16011912 0.27695337 -0.17203398
-0.23223522 -0.0931929 0.10391988 0.05923225 0.070661776 0.009384688 -0.2222412 -0.32566598
0.37950653 -0.034902997 -0.086297125 0.07080924 0.0076992405 -0.048069764 -0.014693481 -0.11874723
0.08832522 0.24316423 0.09549733 0.14341834 -0.07384973 -0.11750001 0.27093646 -0.33116567
-0.06268151 -0.04658568 0.1103113 -0.06671288 -0.18198484 0.27535275 0.20479518 -0.2050406
0.26134226 0.013061718 -0.16033874 0.31070507 -0.14967921 -0.029365284 -0.077058166 0.02413118
0.072194174 -0.2971796 -0.16268742 0.3835604 -0.13255802 0.07526935 -0.30281046 -0.08027996
-0.1592636 0.0681568 -0.12396004 0.11526901 0.3345065 -0.20717679 -0.3307552 0.15697643
-0.21852058 0.29844007 0.35376045 0.038809463 0.069613986 0.25983304 0.22680393 -0.042167943
-0.0747728 -0.16274278 0.17318153 0.014733264 0.00079795136 -0.3729501 -0.13437656 -0.09660867
0.17898984 -0.4359299 -0.07412827 -0.057548262 -0.16476989 0.108847715 0.14941837 -0.0050553936
0.030270182 -0.27722302 -0.27204806 -0.10897638 0.13695534 0.16604744 -0.08305942 -0.18018039
-0.10270304 -0.054481678 -0.41384888 0.039299414 0.008186503 -0.21997957 0.5883111 -0.26558813
-0.06622285 -0.010785925 -0.01791759 0.17734085 0.15965645 -0.052416883 -0.13462782 0.100421116
0.1754391 0.22364023 -0.42700383 0.020788174 0.29244646 0.15399827 -0.05069648 -0.37379736
-0.013772523 -0.29581454 -0.20150876 0.07755948 -0.084755 -0.16102372 -0.05525582 -0.055041917
-0.14452972 -0.28343898 -0.04674332 0.04684936 0.05233559 -0.20301224 0.30256158 -0.13375418
-0.2551532 -0.35020542 0.14729996 -0.016984927 -0.14925146 0.2426862 0.02695645 -0.19815601
-0.242397 -0.2284582 0.1572958 0.0838808 0.03817816 -0.05926282 0.1904723 -0.13343492
-0.06397099 -0.21313244 -0.15634191 -0.22622696 -0.16121478 0.13135669 -0.06213191 -0.22786349
0.011863649 0.020415109 0.03078484 -0.07577575 -0.026026372 -0.17422642 -0.2634719 0.42819595
-0.5052671 -0.14672095 -0.1497839 -0.5036106 0.10702201 0.08309653 -0.11235465 -0.112264656
0.4824911 -0.3365599 0.04660252 0.10883866 0.07688734 0.08166011 0.0488821 0.61113095
0.19653887 0.059033714 0.0369366 0.048737075 -0.25239712 0.08001933 0.13682677 0.07929709
0.11406284 -0.15580584 0.12046368 0.0846175 -0.34028754 0.18976267 0.12212777 0.024280794
0.14083612 -0.120873936 0.080126226 -0.13840267 0.14821061 -0.07355226 0.020293407 0.0077241915
0.12850188 -0.2846009 -0.008573487 0.10960179 0.24049911 0.12769172 -0.08174588 -0.21094413
-0.16056164 -0.06511157 0.26275435 0.07211293 -0.3340593 -0.4858896 0.009881346 -0.04793021
0.05018926 -0.11929112 -0.16145132 0.3194185 0.08405657 0.41499272 -0.18708017 -0.13252582
0.33159897 0.04720641 -0.37305826 -0.40877473 0.093798555 -0.064473964 0.5234208 0.0824818
0.35843715 -0.1436914 0.32368037 0.02603559 -0.3454871 0.11624939 -0.12365188 -0.23337637
00000000: 2911 71bc b852 a03e 5af7 11be 9bea 993e
00000010: e7ac e93c 7c16 de3d c5be e1bd a11b 913d
00000020: f730 8f3e 3cf6 11be 9d4d 453d 7b6f 69be
00000030: 4948 b2bc 44f6 23be d5cc 8d3e ad29 30be
00000040: 12cf 6dbe ebdb bebd f2d3 d43d 849d 723d
00000050: 1fb7 903d 3cc2 193c 3293 63be b1bd a6be
00000060: ae4e c23e 72f6 0ebd 8cbc b0bd 6f04 913d
00000070: e949 fc3b cde4 44bd edbc 70bc bf31 f3bd
00000080: dae3 b43d 0b00 793e 1b94 c33d 42dc 123e
00000090: 873e 97bd d8a3 f0bd 2fb8 8a3e 8c8e a9be
000000a0: 2a5f 80bd a0d0 3ebd e4ea e13d c3a0 88bd
000000b0: 3c5a 3abe 09fb 8c3e d4b5 513e 2af6 51be
000000c0: a7ce 853e d100 563c d72f 24be bc14 9f3e
000000d0: 8245 19be 778f f0bc acd0 9dbd c1ae c53c
000000e0: 8ada 933d ed27 98be 8897 26be 0762 c43e
000000f0: 4abd 07be d126 9a3d f909 9bbe d269 a4bd
00000100: ff15 23be cb95 8b3d c3de fdbd 2912 ec3d
00000110: 7044 ab3e 2726 54be bf58 a9be 6ebe 203e
00000120: dcc3 5fbe 23cd 983e 1720 b53e acf6 1e3d
00000130: c791 8e3d d608 853e 4a3f 683e 4bb8 2cbd
00000140: 7b22 99bd 0ba6 26be 8056 313e ca63 713c
00000150: 9c2d 513a 51f3 bebe 029a 09be c4da c5bd
00000160: 1d49 373e 3432 dfbe 90d0 97bd bab7 6bbd
00000170: 70b9 28be 8deb de3d 2101 193e b7a7 a5bb
00000180: 2cf9 f73c 2df0 8dbe e249 8bbe 022f dfbd
00000190: 053e 0c3e 5708 2a3e 0f1b aabd 3581 38be
000001a0: f955 d2bd 2e28 5fbd 00e4 d3be 6cf8 203d
000001b0: af20 063c 5342 61be 8e9b 163f 2bfb 87be
000001c0: d89f 87bd 73b7 30bc e9c7 92bc d798 353e
000001d0: fb7c 233e 16b3 56bd e0db 09be 96a9 cd3d
000001e0: 4fa6 333e f201 653e 3fa0 dabe f64b aa3c
000001f0: 8bbb 953e b9b1 1d3e 1da7 4fbd 5e62 bfbe
00000200: 26a6 61bc 0175 97be 5058 4ebe 81d7 9e3d
00000210: 0894 adbd 67e3 24be ed53 62bd a273 61bd
00000220: 99ff 13be ea1e 91be ec75 3fbd 1de5 3f3d
00000230: d85d 563d 71e2 4fbe 5ae9 9a3e dbf6 08be
00000240: 71a3 82be 204e b3be cdd5 163e f923 8bbc
00000250: 60d5 18be bb82 783e c6d3 dc3c 69e9 4abe
00000260: eb36 78be f2f0 69be 2612 213e b2c9 ab3d
00000270: b460 1c3d 92bd 72bd 2c0b 433e 2aa3 08be
00000280: 3903 83bd 643f 5abe 1818 20be 0aa8 67be
00000290: 7d15 25be 5e82 063e 087e 7ebd 0c55 69be
000002a0: c05f 423c 963d a73c 7d30 fc3c 5130 9bbd
000002b0: 4235 d5bc 6968 32be cae5 86be 803c db3e
000002c0: 2f59 01bf 043e 16be f360 19be a0ec 00bf
000002d0: 5b2e db3d 832e aa3d 321a e6bd 03eb e5bd
000002e0: 1309 f73e 9451 acbe 49e2 3e3d cee6 de3d
000002f0: 1c77 9d3d 6a3d a73d 9938 483d 1473 1c3f
00000300: 7c41 493e 56cd 713d d54a 173d 87a0 473d
00000310: 323a 81be 2de1 a33d 511c 0c3e 8366 a23d
00000320: c799 e93d 918b 1fbe a9b5 f63d f14b ad3d
00000330: 2b3a aebe 2551 423e 201e fa3d 84e8 c63c
00000340: 5837 103e c18c f7bd 3819 a43d 6eb9 0dbe
00000350: 86c4 173e 91a2 96bd 5c3e a63c 371b fd3b
00000360: ff95 033e 36b7 91be d077 0cbc e776 e03d
00000370: 6645 763e 9ec1 023e 626a a7bd bd01 58be
00000380: 456a 24be 3759 85bd bd87 863e f2af 933d
00000390: d209 abbe 86c6 f8be 5ee5 213c 7852 44bd
000003a0: 4193 4d3d e74e f4bd 7f53 25be d28a a33e
000003b0: da25 ac3d ed79 d43e f291 3fbe d9b4 07be
000003c0: 57c7 a93e 825b 413d 7e01 bfbe ec4a d1be
000003d0: 7519 c03d ed0a 84bd e8fe 053f 38ec a83d
000003e0: 1385 b73e d723 13be 6fb9 a53e 9748 d53c
000003f0: afe3 b0be 2914 ee3d 323d fdbd 37fa 6ebe

actor.2.bias f4 [64]
-0.10075355 -0.08767814 -0.11514545 -0.24039428 -0.0873792 -0.01892794 -0.025024205 0.036436215
-0.36116314 -0.2409863 -0.069031306 0.11108594 -0.26057807 -0.23502842 -0.31790274 -0.085816644
-0.18441881 -0.14407511 -0.11823545 -0.25471458 -0.17472151 0.16239642 -0.18824212 -0.35528108
-0.176404 -0.1328184 -0.21369101 -0.06127452 -0.11549085 -0.14709567 -0.03269965 -0.17106506
-0.31834713 0.034495622 -0.0075057545 -0.15850121 -0.31576356 -0.0944915 0.024988497 -0.19079877
-0.22745727 -0.25737682 -0.10319053 -0.24361113 -0.03636706 -0.2435308 -0.0535867 -0.25263202
-0.26694962 -0.1396814 -0.049149446 -0.16071282 -0.11390565 -0.08715087 -0.18285763 -0.28769702
-0.12755123 -0.256393 -0.17692521 0.013096285 -0.212896 -0.078208044 -0.07319191 -0.19448937
00000000: e157 cebd 9990 b3bd 61d1 ebbd eb29 76be
00000010: def3 b2bd c40e 9bbc 90ff ccbc 243e 153d
00000020: 60ea b8be 1dc5 76be 4960 8dbd 0681 e33d
00000030: 7d6a 85be 4aab 70be 26c4 a2be a3c0 afbd
00000040: 49d8 3cbe 6d88 13be 6d25 f2bd f369 82be
00000050: 32ea 32be 3f4b 263e 8bc2 40be 67e7 b5be
00000060: 40a3 34be 8c01 08be d1d1 5abe fefa 7abd
00000070: 7786 ecbd 3fa0 16be 11f0 05bd ae2b 2fbe
00000080: 65fe a2be 484b 0d3d d5f2 f5bb 244e 22be
00000090: c3ab a1be c284 c1bd adb4 cc3c c160 43be
000000a0: 8fea 68be e5c6 83be 8e55 d3bd 3275 79be
000000b0: a0f5 14bd 2360 79be ba7d 5bbd fc58 81be
000000c0: 9fad 88be a408 0fbe ee50 49bd e791 24be
000000d0: 5e47 e9bd 287c b2bd 083f 3bbe 064d 93be
000000e0: ca9c 02be f145 83be e22b 35be cd91 563c
000000f0: 6901 5abe 8a2b a0bd a4e5 95bd 3928 47be

actor.4.weight f4 [32, 64]
0.09873828 -0.06464502 -0.037303995 0.39832336 -0.13858932 -0.026025271 0.09062855 -0.17354065
0.13614784 -0.039912958 -0.2937585 -0.042234644 -0.1076319 -0.08616432 0.19978048 -0.13691215
0.04851036 -0.11657943 -0.021104533 -0.068257526 0.286886 -0.22162533 0.2955376 0.06228074
-0.0033581185 -0.037851468 -0.11522239 -0.13777736 -0.17444418 0.09772578 0.20701075 -0.07927045
0.32241988 -0.27466625 0.0019230387 0.0056985044 0.1813794 0.13940261 -0.043771036 0.038285863
-0.117719695 -0.13959439 0.0025014738 0.26927826 0.15849261 -0.088102505 0.0015729709 -0.16494395
-0.012611334 -0.028417202 -0.18442306 -0.024923258 0.04703301 -0.09753753 -0.3317629 0.08303989
-0.19075829 -0.20856269 0.012815634 0.08924648 -0.0012646819 -0.20671639 0.09661473 0.17117368
-0.1682718 0.015672553 -0.17555068 0.021878328 0.3014186 -0.10451123 0.1892335 -0.048805967
0.12971817 0.07341201 0.010518961 -0.08250004 0.19259286 -0.12410512 0.22160733 0.18411538
-0.08013483 0.16371736 0.0069341594 -0.33538467 -0.08490917 0.06685359 0.047637474 0.22204967
0.1209074 -0.111434855 -0.0639189 -0.28992438 -0.10102348 0.073547065 -0.01619823 -0.0175307
0.092706226 0.17172906 0.044994082 -0.22717616 -0.19405904 0.01756542 -0.10494375 -0.12742797
0.21605504 -0.11605484 -0.10312102 -0.007957297 0.11558533 0.15969747 -0.047676593 -0.020920234
-0.11732499 -0.11167468 -0.051045846 0.20205678 0.19267824 -0.08721105 -0.0039030088 -0.32676983
0.16503462 -0.032241773 0.23865056 -0.145218 -0.02292736 0.19219172 0.03158614 -0.23328772
0.18147124 0.23901032 -0.03903126 0.032338653 0.002040389 0.0759904 -0.17617992 0.12619314
0.26294947 -0.09140236 -0.038227875 0.007093103 -0.17641078 0.06212141 0.13281333 0.13768764
0.16558066 -0.046600863 -0.19217731 -0.07411402 -0.10236199 -0.0099588055 0.011291165 0.13636485
0.25369805 -0.084978916 0.08891118 -0.04523423 0.15730678 -0.059268553 -0.3099051 0.21124569
0.3812518 0.17309073 -0.1303118 -0.08301928 0.04652144 -0.13408557 0.14077099 0.08379596
-0.1703242 0.15734613 0.21814157 0.042759597 0.070820756 0.11993024 0.21283098 0.011517194
-0.2822858 -0.13148068 -0.18193054 -0.10886735 -0.3479038 -0.35321856 0.10898537 0.12673454
0.040525354 0.09983739 -0.058280837 0.0031613605 -0.19521399 0.124609746 -0.061482705 0.07764494
0.106030874 -0.009884384 -0.17422491 0.07229775 0.045256436 -0.027542075 0.08015557 0.24736065
-0.0015960076 0.23530766 -0.091691025 -0.06703068 -0.05451939 0.17417414 -0.3725533 -0.018848058
0.11049819 0.104338534 -0.05187932 -0.049207933 -0.17587386 -0.28969622 0.12006386 0.08373202
0.1511144 0.12421479 -0.19048832 -0.029968522 0.091384895 0.17358069 -0.083968595 -0.19745143
0.050487388 0.047535386 -0.06980822 0.19899285 0.14588924 0.05479266 0.0982262 0.116689056
-0.18828033 -0.12388105 -0.08920852 -0.12496935 0.0454827 -0.15940182 0.14479513 -0.055250548
0.20269166 -0.31776908 0.19401132 -0.074848935 -0.02356302 0.13825488 0.20050608 0.14589138
-0.040497385 0.14268667 -0.04371384 -0.25007755 0.037725993 -0.009759683 0.04853918 -0.17116041
00000000: 4c37 ca3d 9c64 84bd 13cc 18bd 0af1 cb3e
00000010: 5cea 0dbe f332 d5bc 769b b93d a4b4 31be
00000020: 576a 0b3e c57b 23bd 8467 96be 3cfe 2cbd
00000030: 1d6e dcbd eb76 b0bd 4193 4c3e b332 0cbe
00000040: cdb2 463d 32c1 eebd 6ae3 acbc 9aca 8bbd
00000050: b9e2 923e c0f1 62be b450 973e 171a 7f3d
00000060: e113 5cbb 240a 1bbd b7f9 ebbd 8215 0dbe
00000070: 7fa1 32be 7424 c83d a0fa 533e 8c58 a2bd
00000080: 3814 a53e 0ea1 8cbe 790e fc3a 85ba ba3b
00000090: 85bb 393e 8fbf 0e3e 4249 33bd a3d1 1c3d
000000a0: 0617 f1bd d5f1 0ebe c4ef 233b d7de 893e
000000b0: e34b 223e 166f b4bd 252c ce3a 11e7 28be
000000c0: c59f 4ebc 31cb e8bc 66d9 3cbe dc2b ccbc
000000d0: afa5 403d c2c1 c7bd d4dc a9be d110 aa3d
000000e0: 2456 43be 7591 55be aaf8 513c dcc6 b63d
000000f0: afc3 a5ba 76ad 53be f2dd c53d 2748 2f3e
00000100: 714f 2cbe ba63 803c 8fc3 33be 2e3a b33c
00000110: 8a53 9a3e fc09 d6bd 6dc6 413e c4e8 47bd
00000120: d7d4 043e 0959 963d b857 2c3c c8f5 a8bd
00000130: 1037 453e d32a febd 08ed 623e be88 3c3e
00000140: bb1d a4bd 86a5 273e f237 e33b 8ab7 abbe
00000150: dce4 adbd 89ea 883d 831f 433d fd60 633e
00000160: 4d9e f73d f537 e4bd eae7 82bd f870 94be
00000170: 66e5 cebd d89f 963d 27b2 84bc 8b9c 8fbc
00000180: c3dc bd3d bed9 2f3e b74b 383d dea0 68be
00000190: 6ab7 46be 5be5 8f3c c0ec d6bd 7a7c 02be
000001a0: 883d 5d3e 29ae edbd 1d31 d3bd 535f 02bc
000001b0: 00b8 ec3d bc87 233e 8848 43bd e960 abbc
000001c0: 1648 f0bd b2b5 e4bd 7315 51bd f9e7 4e3e
000001d0: 724d 453e b59b b2bd 9fc9 7fbb 604e a7be
000001e0: d6fe 283e f30f 04bd d060 743e 07b4 14be
000001f0: 29d2 bbbc e8cd 443e 7860 013d fae2 6ebe
00000200: 99d3 393e 1fbf 743e 3edf 1fbd 8975 043d
00000210: 0cb8 053b dba0 9b3d 8268 34be c638 013e
00000220: 50a1 863e 2931 bbbd d594 1cbd 436d e83b
00000230: 07a5 34be 0573 7e3d 3800 083e fdfd 0c3e
00000240: fa8d 293e 8ce0 3ebd 21ca 44be 17c9 97bd
00000250: 2aa3 d1bd 422a 23bc 94fe 383c 3aa3 0b3e
00000260: b6e4 813e 6d09 aebd 1117 b63d 8747 39bd
00000270: 0715 213e 95c3 72bd e2ab 9ebe ca50 583e
00000280: 7033 c33e b23e 313e 7570 05be 0306 aabd
00000290: 448d 3e3d ba4d 09be 4526 103e 379d ab3d
000002a0: 7869 2ebe 581f 213e 8160 5f3e b024 2f3d
000002b0: 790a 913d fc9d f53d 5df0 593e 9db2 3c3c
000002c0: c487 90be dfa2 06be 004c 3abe d8f5 debd
000002d0: 7220 b2be 10d9 b4be b933 df3d b3c6 013e
000002e0: eafd 253d 8c77 cc3d e3b7 6ebd d42e 4f3b
000002f0: 2de6 47be 6533 ff3d 4ad5 7bbd 4f04 9f3d
00000300: b726 d93d 1df2 21bc 0468 32be d810 943d
00000310: d05e 393d eb9f e1bc 9a28 a43d 1c4c 7d3e
00000320: 2131 d1ba 7ef4 703e 81c8 bbbd 6247 89bd
00000330: b94f 5fbd b55a 323e 4ebf bebe 3e67 9abc
00000340: e04c e23d 71af d53d 697f 54bd 428e 49bd
00000350: 4718 34be 1053 94be 0be4 f53d b17b ab3d
00000360: bcbd 1a3e 5364 fe3d 5f0f 43be 8c80 f5bc
00000370: 0128 bb3d 23bf 313e baf7 abbd b530 4abe
00000380: ddcb 4e3d 77b4 423d 9df7 8ebd c8c4 4b3e
00000390: fd63 153e 456e 603d d12a c93d acfa ee3d
000003a0: 8fcc 40be 59b5 fdbd f5b2 b6bd eeef ffbd
000003b0: 114c 3a3d 3b3a 23be 2d45 143e 664e 62bd
000003c0: 678e 4f3e a1b2 a2be e7aa 463e 664a 99bd
000003d0: 3c07 c1bc b092 0d3e 7751 4d3e 8d64 153e
000003e0: 96e0 25bd 741c 123e 490d 33bd 2a0a 80be
000003f0: 9286 1a3d 14e7 1fbc 05d1 463d ad44 2fbe

actor.4.bias f4 [32]
-0.009964951 0.16008021 -0.34100908 -0.2198174 -0.14589228 -0.09825829 0.0395606 0.022612697
-0.2863268 0.16884631 -0.4119003 -0.10514087 -0.111074485 -0.072165914 -0.146937 -0.21506399
-0.17003785 -0.26936004 -0.14164783 0.054245364 0.17523384 -0.15941508 -0.17531645 -0.2667564
-0.08783255 -0.118405096 -0.16586836 0.0063007637 -0.17231934 0.07790507 -0.17319268 -0.07820956
00000000: 0944 23bc 11ec 233e be98 aebe d017 61be
00000010: c964 15be a43b c9bd 4c0a 223d 433e b93c
00000020: 6d99 92be 0ce6 2c3e 99e4 d2be 1954 d7bd
00000030: 057b e3bd b9cb 93bd a776 16be bc39 5cbe
00000040: 671e 2ebe 8fe9 89be 210c 11be 6330 5e3d
00000050: 8070 333e b53d 23be 2886 33be 4b94 88be
00000060: 8de1 b3bd 5f7e f2bd 65d9 29be a376 ce3b
00000070: 7b74 30be b18c 9f3d 6c59 31be 552c a0bd

actor.6.weight f4 [12, 32]
-0.0012604046 0.00043943297 0.069184475 0.05787349 0.10739758 -0.067209244 0.12654643 -0.1463753
0.074218966 -0.041918814 0.16954775 -0.16768226 0.041381482 0.028549448 0.062027413 0.13953444
-0.0036352153 0.045148667 -0.15936989 -0.03072747 -0.09983424 0.008728652 -0.040359516 0.0707945
0.07797568 -0.0023071417 -0.06734085 0.092207976 0.046024118 -0.15125033 -0.109787524 -0.1721511
-0.044834893 -0.171649 -0.011071973 0.035317726 -0.11394379 0.009574924 -0.07173718 -0.16449067
0.04947152 0.040388733 -0.00037840047 -0.22505598 -0.19167715 0.023913877 -0.029711641 0.0471197
-0.02628897 -0.053627238 0.14823294 -0.012996033 0.12847978 0.06949659 0.06904412 -0.013994701
0.12969297 0.004862702 0.09924328 0.09823813 -0.07125028 -0.058427893 0.061664242 0.16194955
-0.008244142 -0.022038134 0.0017800097 -0.012400382 -0.037180666 -0.06591314 0.1312171 0.1259972
0.10271569 0.022552988 0.0074650394 0.09228782 0.11568286 -0.054194786 0.065509975 -0.063785695
-0.13980946 0.022450663 -0.11352738 -0.011108628 0.11393981 0.070310466 0.2973228 -0.08962079
-0.13416946 0.045601025 0.15038209 0.0446798 -0.00492715 0.0008319296 -0.2930049 0.007815258
-0.009278694 -0.13904358 0.0757994 -0.02082204 -0.028749265 -0.07369752 -0.05935411 -0.09272046
0.12969147 -0.0028025527 0.07177496 0.118479356 0.09613717 -0.0152231585 -0.18117286 -0.09800144
-0.0019513824 0.020461297 0.07254091 0.06447193 -0.08140446 -0.06340686 0.010002954 -0.10714174
0.027019331 0.121636994 0.11072234 -0.111528955 0.01924855 0.1596624 0.07615858 -0.06005886
0.1669716 -0.03030682 -0.16605711 -0.12755533 -0.046470195 -0.013693607 0.10856186 -0.09318661
-0.0893748 -0.09672438 0.04273203 -0.025597572 0.06453726 -0.042752773 0.017842963 0.13910407
-0.2144774 -0.012718424 -0.071700335 0.10735935 0.014544714 0.009754131 -0.20049778 -0.032447528
0.15596282 -0.0044293385 0.06247563 0.07391958 -0.018751662 0.0698289 0.028158158 0.027864948
0.09804638 -0.10742529 -0.035770763 0.08731596 -0.16748793 0.0445948 0.031639427 0.069614746
0.073158115 0.07166486 -0.15669689 0.17870414 0.15407899 0.120475106 -0.11296075 -0.29645956
0.027531456 -0.02381639 0.11172314 -0.14432873 -0.025449026 -0.0042063235 -0.095658146 -0.0041912873
-0.054593652 -0.056496248 0.023301132 0.03790428 0.027559677 -0.27984226 0.01922199 -0.023339517
0.025605783 0.021493545 -0.09866751 0.001082749 0.13089809 0.07403205 -0.011008555 -0.08898483
-0.07481155 0.16808218 -0.09011383 -0.08342504 0.029199157 -0.0022217555 0.054334838 -0.07380854
-0.06744821 0.046463724 -0.074441575 0.08351292 0.061414994 -0.0753154 0.08865029 -0.09180025
-0.046189662 -0.073866025 -0.086582646 0.1955786 -0.008900473 0.13350327 -0.00042771845 0.018125158
-0.020456852 0.14990142 0.01646095 -0.03837088 0.03681081 0.01200715 0.0029603112 0.019779433
-0.0016525979 0.11048181 0.058399253 0.050090857 -0.008621899 -0.06617668 -0.08653872 0.029397054
-0.26830104 -0.054259844 0.031162685 -0.091609076 -0.05186326 0.08441824 -0.041456513 0.008739115
0.23877999 -0.06438894 0.12251294 -0.12315949 0.022701088 0.0022978014 0.029400615 0.08272743
00000000: 2934 a5ba b263 e639 97b0 8d3d c10c 6d3d
00000010: 43f3 db3d 00a5 89bd 6395 013e 68e3 15be
00000020: 1d00 983d 10b3 2bbd ed9d 2d3e e6b4 2bbe
00000030: a17f 293d 88e0 e93c 7510 7e3d 1ee2 0e3e
00000040: cb3c 6ebb cfed 383d dc31 23be 2db8 fbbc
00000050: e575 ccbd 9f02 0f3c 0550 25bd b5fc 903d
00000060: b7b1 9f3d 6a33 17bb 00ea 89bd 89d7 bc3d
00000070: c983 3c3d 5ee1 1abe 48d8 e0bd 6148 30be
00000080: cba4 37bd c1c4 2fbe 3867 35bc 52a9 103d
00000090: 5d5b e9bd 24e0 1c3c f1ea 92bd 3e70 28be
000000a0: a6a2 4a3d a86e 253d 0d64 c6b9 1375 66be
000000b0: 0447 44be 09e7 c33c d465 f3bc 9600 413d
000000c0: f75b d7bc 3ca8 5bbd 60ca 173e 50ed 54bc
000000d0: 3490 033e 3a54 8e3d 0167 8d3d 084a 65bc
000000e0: 3cce 043e 4d57 9f3b 1040 cb3d 1331 c93d
000000f0: abeb 91bd 1652 6fbd a593 7c3d 1ad6 253e
00000100: 7012 07bc 5189 b4bc 374f e93a f92a 4bbc
00000110: c14a 18bd 78fd 86bd c75d 063e 6905 013e
00000120: 9b5c d23d 0bc1 b83c 4a9d f43b 6601 bd3d
00000130: 23eb ec3d 5afb 5dbd 182a 863d 13a2 82bd
00000140: 362a 0fbe 74ea b73c 0b81 e8bd f600 36bc
00000150: 4659 e93d effe 8f3d b23a 983e 1b8b b7bd
00000160: b863 09be 24c8 3a3d c3fd 193e 2a02 373d
00000170: ee73 a1bb da15 5a3a bd04 96be 910b 003c
00000180: aa05 18bc 7161 0ebe b73c 9b3d fc92 aabc
00000190: 9483 ebbc baee 96bd 4c1d 73bd 39e4 bdbd
000001a0: d7cd 043e 08ab 37bb c0fe 923d 4ea5 f23d
000001b0: 91e3 c43d 8e6a 79bc 6185 39be fbb4 c8bd
000001c0: 87c5 ffba 739e a73c 5490 943d dc09 843d
000001d0: 62b7 a6bd 75db 81bd 6ee3 233c 216d dbbd
000001e0: a557 dd3c d11c f93d 65c2 e23d 4b69 e4bd
000001f0: 23af 9d3c 8a7e 233e 08f9 9b3d 4700 76bd
00000200: 9afa 2a3e 0246 f8bc e00a 2abe dd9d 02be
00000210: 8857 3ebd 275b 60bc ae55 de3d 9fd8 bebd
00000220: 230a b7bd 6f17 c6bd c807 2f3d 00b2 d1bc
00000230: 1c2c 843d 881d 2fbd 682b 923c 4c71 0e3e
00000240: f79f 5bbe f060 50bc a0d7 92bd 38df db3d
00000250: f44c 6e3c cacf 1f3c 4a4f 4dbe b3e7 04bd
00000260: b8b4 1f3e fc23 91bb 72e6 7f3d 2663 973d
00000270: 169d 99bc 7402 8f3d f0ab e63c 0845 e43c
00000280: 8acc c83d ca01 dcbd 5d84 12bd b6d2 b23d
00000290: f581 2bbe 09a9 363d 5898 013d 2d92 8e3d
000002a0: ecd3 953d 07c5 923d 2675 20be 38fe 363e
000002b0: e2c6 1d3e a7bb f63d f757 e7bd 8cc9 97be
000002c0: a689 e13c 971a c3bc 1acf e43d e9ca 13be
000002d0: 7a7a d0bc 33d5 89bb 6be8 c3bd 1157 89bb
000002e0: 989d 5fbd 9c68 67bd 04e2 be3c 8541 1b3d
000002f0: d5c4 e13c 7c47 8fbe 6f77 9d3c 8432 bfbc
00000300: 38c3 d13c 3b13 b03c 3112 cabd 07eb 8d3a
00000310: 260a 063e 1e9e 973d 3a5d 34bc ae3d b6bd
00000320: cc36 99bd bc1d 2c3e 9a8d b8bd bfda aabd
00000330: 1233 ef3c df9a 11bb 358e 5e3d ef28 97bd
00000340: 4a22 8abd bf50 3e3d d374 98bd d208 ab3d
00000350: 4a8e 7b3d f63e 9abd 498e b53d c501 bcbd
00000360: 5f31 3dbd 1247 97bd 3e52 b1bd c245 483e
00000370: 4ad3 11bc 15b5 083e 663f e0b9 367b 943c
00000380: 2195 a7bc c27f 193e 1dd9 863c c92a 1dbd
00000390: efc6 163d a3b9 443c c801 423b 7a08 a23c
000003a0: fc9b d8ba 4a44 e23d 0e34 6f3d 122c 4d3d
000003b0: de42 0dbc a487 87bd 363b b1bd 17d2 f03c
000003c0: c15e 89be 923f 5ebd e348 ff3c 8a9d bbbd
000003d0: 926e 54bd 78e3 ac3d 4ece 29bd 812e 0f3c
000003e0: be82 743e 59de 83bd 10e8 fa3d 0b3b fcbd
000003f0: a2f7 b93c b696 163b 8fd9 f03c 006d a93d

actor.6.bias f4 [12]
-0.23340496 0.08524899 0.13632385 -0.13559309 -0.16495624 -0.051581748 0.16489138 0.046336718
-0.112817034 0.25445694 -0.122614086 -0.19930534
00000000: b601 6fbe 0697 ae3d 7b98 0b3e ead8 0abe
00000010: 4aea 28be 6247 53bd 49d9 283e 92cb 3d3d
00000020: 9e0c e7bd 2e48 823e 181d fbbd b316 4cbe

critic.0.weight f4 [128, 48]
-0.07624652 0.02051457 0.31754768 -0.33717185 0.44800547 -0.5726045 0.71510607 1.1827949
0.08944178 0.09908923 -0.202816 0.774759 0.20588775 0.18197565 0.39973658 -0.4290093
-0.85927266 -0.7379993 0.113918744 0.79578406 0.6776761 -0.26366916 -0.40273067 -0.17840894
-0.106174685 -0.1050001 0.18921702 -0.47809562 -0.78732145 -0.035858743 -0.4550277 0.7720902
0.24327438 -0.11450801 0.59873426 -0.11704252 0.04401766 -0.0069339983 0.044689987 0.013292418
0.018626116 -0.018697603 -0.0382538 0.034729976 0.015510125 -0.003070449 0.03983283 0.023206452
0.1766519 0.14273389 0.20960025 -0.02295299 -0.18896593 -0.21120957 0.3143364 0.56665236
-0.11247934 -0.24358973 -0.0699917 -0.34238604 0.4217607 -0.13433602 0.23267676 0.6576086
0.32918113 -0.12981912 0.015659293 0.02256974 0.29616708 -0.3879794 -0.289492 0.34326935
-0.03198724 0.28684586 0.008309744 -0.12601139 -0.04735055 -0.20445545 0.075881034 -0.7613478
0.6014723 0.121817395 -0.484318 0.14455225 -0.039600223 0.048666716 0.077317216 0.10394585
0.01171005 0.097914934 0.01371703 -0.059504382 -0.23054199 0.06827393 -0.025549546 -0.13004394
0.057359852 0.0025140047 0.01846751 0.046461243 0.3223465 0.11902438 -0.052990995 0.12294121
0.0768775 -0.16921113 -0.028848693 -0.31074852 0.09358448 -0.547311 -0.13999647 0.22781514
-0.24536467 0.053355724 0.14438485 0.029699594 0.021503575 -0.47571498 -0.57701164 0.029494105
0.41106442 -0.21979025 -0.11387948 -0.18477164 0.27829576 0.09473516 -0.069127634 -0.104569055
-0.15591425 -0.08387312 -0.26714316 -0.1736091 0.123521775 -0.014761058 -0.006786845 -0.12755606
-0.044818234 0.0025391956 -0.018792251 0.02175698 0.063216 -0.0028320663 -0.03829843 -0.018607862
0.2536712 -0.4607899 -0.20215935 0.0619488 -0.40577734 -0.6520044 0.3260651 -2.2794845
0.014525353 -0.40695804 0.5560485 1.4527416 0.45773298 0.099966146 -0.18414608 0.89985675
0.15580375 0.63019574 0.093823515 -0.22553691 0.1940045 0.24283418 0.3101499 -0.04936278
-0.09704111 0.006164234 0.040438037 0.06088896 -0.14947256 0.11220043 -0.14947824 -0.33428493
0.008291381 -0.09411056 -0.092474714 0.026572797 -0.0179781 -0.016321527 0.025186734 -0.042282104
0.011589459 -0.031830788 -0.017561298 -0.02827428 -0.042224545 -0.03153598 -0.01860394 0.0226516
0.09465577 -0.20464571 0.2839968 0.034038823 0.37181926 0.5142431 0.41846758 0.41648072
0.008810847 -0.18399295 0.06708216 -0.0364744 0.14434347 -0.20389885 -0.15989009 -0.78121936
0.13997133 -0.18195324 -0.17428434 0.040265415 -0.07309028 -0.3546688 0.0670981 0.015190312
0.15136024 0.01932076 0.19038038 0.34614083 0.20969412 0.16969739 -0.22931378 -0.31328857
0.11854399 -0.6520397 -0.16653079 0.06705206 -0.0097972825 0.021772256 -0.029616572 0.07540134
-0.10909483 0.15935582 -0.03415938 -0.008366758 -0.07634926 0.063844495 0.08268412 0.056652915
-0.05475894 -0.0853558 -0.06257989 0.31561005 0.46307984 0.32548368 0.07032651 -0.8047376
-0.04409636 0.041436967 0.11189532 0.46017075 0.30327627 0.06961431 -0.13907227 0.035397988
00000000: 2327 9cbd 2c0e a83c 9c95 a23e caa1 acbe
00000010: f960 e53e 3596 12bf 3111 373f d365 973f
00000020: 402d b73d 4bef ca3d ffae 4fbe 9b56 463f
00000030: 3dd4 523e d357 3a3e 46aa cc3e 1ba7 dbbe
00000040: 4bf9 5bbf 86ed 3cbf 3b4e e93d 81b8 4b3f
00000050: 2e7c 2d3f a5ff 86be b732 cebe d5b0 36be
00000060: 1d72 d9bd 4b0a d7bd 1bc2 413e f3c8 f4be
00000070: e68d 49bf 9ee0 12bd 64f9 e8be b4a7 453f
00000080: eb1c 793e 2d83 eabd a646 193f fdb3 efbd
00000090: dd4b 343d 9836 e3bb d90c 373d 71c8 593c
000000a0: cc95 983c b72b 99bc 04b0 1cbd 0541 0e3d
000000b0: 2e1e 7e3c 9639 49bb c027 233d 751b be3c
000000c0: 3ce4 343e d528 123e 73a1 563e e907 bcbc
000000d0: 4980 41be 5247 58be b3f0 a03e 2110 113f
000000e0: 915b e6bd 966f 79be cf57 8fbd 394d afbe
000000f0: 05f1 d73e 628f 09be d142 6e3e 0a59 283f
00000100: 6e8a a83e 4eef 04be eb47 803c 2de4 b83c
00000110: 36a3 973e 3ca5 c6be 4c38 94be 00c1 af3e
00000120: 0d05 03bd 76dd 923e 9825 083c 2109 01be
00000130: a6f2 41bd c55c 51be 8467 9b3d b0e7 42bf
00000140: 17fa 193f 667b f93d 87f8 f7be 8105 143e
00000150: d833 22bd c056 473d 7d58 9e3d 90e1 d43d
00000160: 82db 3f3c a087 c83d 65bd 603c deba 73bd
00000170: 3313 6cbe 34d3 8b3d 484d d1bc 3d2a 05be
00000180: 2af2 6a3d 00c2 243b 2d49 973c 254e 3e3d
00000190: 9a0a a53e 0ec3 f33d 160d 59bd 9ac8 fb3d
000001a0: f371 9d3d af45 2dbe 1854 ecbc 6e1a 9fbe
000001b0: 38a9 bf3d 931c 0cbf 3c5b 0fbe 5f48 693e
000001c0: e040 7bbe 888b 5a3d 9fd9 133e 904c f33c
000001d0: 4428 b03c ea90 f3be 09b7 13bf 9f9d f13c
000001e0: 0977 d23e b210 61be a539 e9bd c734 3dbe
000001f0: c87c 8e3e 8204 c23d ca92 8dbd 4d28 d6bd
00000200: fca7 1fbe acc5 abbd fdc6 88be 95c6 31be
00000210: fcf8 fc3d 5dd8 71bc 2f64 debb 0e9e 02be
00000220: 5393 37bd a268 263b 35f2 99bc b23b b23c
00000230: 6477 813d 309a 39bb d1de 1cbd 846f 98bc
00000240: 31e1 813e a7ec ebbe dc02 4fbe 06be 7d3d
00000250: 0cc2 cfbe c3e9 26bf 01f2 a63e 13e3 11c0
00000260: bffb 6d3c ce5c d0be 3259 0e3f 70f3 b93f
00000270: fa5b ea3e 0dbb cc3d ca90 3cbe 035d 663f
00000280: 058b 1f3e 8254 213f 8b26 c03d 26f3 66be
00000290: 1ea9 463e 86a9 783e f8cb 9e3e a030 4abd
000002a0: 7dbd c6bd 58fd c93b 5ba2 253d b466 793d
000002b0: 560f 19be 57c9 e53d d310 19be 6527 abbe
000002c0: 93d8 073c 0abd c0bd 6263 bdbd 32af d93c
000002d0: cf46 93bc b9b4 85bc 6954 ce3c 0030 2dbd
000002e0: b7e1 3d3c 0061 02bd b6dc 8fbc 769f e7bc
000002f0: a5f3 2cbd df2b 01bd 4a67 98bc d98f b93c
00000300: e2da c13d a58e 51be 0768 913e 4b6c 0b3d
00000310: 185f be3e 70a5 033f 6241 d63e f63c d53e
00000320: 5f5b 103c a668 3cbe 5f62 893d 2e66 15bd
00000330: c6ce 133e dcca 50be 3aba 23be fefd 47bf
00000340: a554 0f3e f351 3abe 9877 32be 59ed 243d
00000350: 5bb0 95bd 2697 b5be bb6a 893d c9e0 783c
00000360: 2efe 1a3e 9246 9e3c 13f3 423e 5f39 b13e
00000370: 0eba 563e 27c5 2d3e 3bd1 6abe 5c67 a0be
00000380: 31c7 f23d 13ec 26bf 0c87 2abe 9752 893d
00000390: c884 20bc bb5b b23c 749e f2bc 056c 9a3d
000003a0: 1c6d dfbd 2c2e 233e b5ea 0bbd ba14 09bc
000003b0: 005d 9cbd e7c0 823d 4b56 a93d e30c 683d
000003c0: e94a 60bd 06cf aebd e329 80bd a497 a13e
000003d0: cd18 ed3e cca5 a63e 5807 903d 4903 4ebf
000003e0: 639e 34bd cfb9 293d 6029 e53d 809b eb3e
000003f0: 0747 9b3e f391 8e3d f668 0ebe 7bfd 103d

critic.0.bias f4 [128]
-0.13735668 0.20336021 -0.2129265 -0.34831208 0.00917233 0.117438056 -0.21016097 -0.020281382
0.097852446 -0.19424795 -0.27549478 0.08377457 -0.2664344 -0.093081795 0.07447186 0.0960547
0.23645197 -0.15939057 0.062693104 -0.24723667 0.23701978 -0.0051267617 -0.014228422 -0.013448217
-0.1755996 -0.34027365 0.09024906 0.0838083 0.03860034 -0.3199025 -0.1679339 -0.24876058
-0.2363692 -0.37452528 -0.12726827 0.024069667 0.08140255 -0.060745694 -0.2120169 -0.13295464
0.15632637 -0.26268518 0.008239031 -0.34424016 -0.23809376 -0.41159797 -0.04107672 -0.15087803
-0.3311379 -0.24250656 -0.26809627 -0.05599991 -0.2717262 -0.19937883 -0.15867361 0.03711886
-0.30521846 0.078926556 -0.35508534 0.2185702 0.025913002 0.052254744 -0.35706365 -0.13352036
-0.27509114 -0.0054320567 0.093019195 0.07875678 0.02473924 0.19864225 0.12505247 0.13281663
-0.2867275 -0.1796739 -0.079045914 -0.30456004 -0.15531036 -0.2429484 0.14752117 -0.21765178
0.20256156 -0.26454934 -0.16399656 -0.1760729 0.14215244 0.18882449 -0.26965368 -0.31287512
0.07797462 -0.03632836 -0.05536366 -0.1897512 0.11798616 -0.26093692 0.06965354 -0.32328072
-0.01647369 -0.028458996 0.054421112 -0.05329255 0.13717726 -0.3670807 -0.26939085 -0.06985607
0.11481087 0.20660783 -0.3821878 -0.32401896 0.17501718 -0.077704094 -0.17924419 -0.064750955
0.06896986 0.27246848 -0.34083146 -0.094208755 0.024680797 -0.21094033 0.035370562 0.10660484
-0.31011468 -0.18563493 -0.22099538 -0.0076771425 -0.32661155 -0.14408512 0.08747907 -0.43466455
00000000: 3ba7 0cbe a93d 503e 6809 5abe f655 b2be
00000010: 8a47 163c 5d83 f03d 7034 57be 2425 a6bc
00000020: dd66 c83d efe8 46be a70d 8dbe 0092 ab3d
00000030: 176a 88be aba1 bebd b484 983d 54b8 c43d
00000040: 7720 723e 4837 23be 3e65 803d 9c2b 7dbe
00000050: 50b5 723e 65fe a7bb 541e 69bc e955 5cbc
00000060: 62d0 33be 5938 aebe 80d4 b83d b0a3 ab3d
00000070: 641b 1e3d 43ca a3be ddf6 2bbe 18bb 7ebe
00000080: c40a 72be c7c1 bfbe 9d52 02be c02d c53c
00000090: 61b6 a63d 7ad0 78bd f51a 59be 4325 08be
000000a0: 0514 203e ac7e 86be 00fd 063c 3f40 b0be
000000b0: dace 73be f8bc d2be 1040 28bd c57f 1abe
000000c0: e88a a9be a453 78be ea43 89be 2960 65bd
000000d0: b21f 8bbe f729 4cbe 567b 22be f209 183d
000000e0: 9845 9cbe 3fa4 a13d bfcd b5be ded0 5f3e
000000f0: 8147 d43c 1209 563d 0cd1 b6be 90b9 08be
00000100: bfd8 8cbe 65ff b1bb d980 be3d 3c4b a13d
00000110: f2a9 ca3c e068 4b3e c10d 003e 1501 083e
00000120: f2cd 92be 6ffc 37be d3e2 a1bd 4bef 9bbe
00000130: ae09 1fbe 77c7 78be ca0f 173e 1ce0 5ebe
00000140: 4c6c 4f3e 0373 87be b7ee 27be 744c 34be
00000150: 6990 113e 355b 413e 0c10 8abe 2b31 a0be
00000160: 28b1 9f3d 0ccd 14bd 01c5 62bd 234e 42be
00000170: baa2 f13d 8699 85be 84a6 8e3d 0d85 a5be
00000180: d5f3 86bc d722 e9bc ace8 5e3d 4a49 5abd
00000190: 3278 0c3e 00f2 bbbe 99ed 89be b310 8fbd
000001a0: f621 eb3d 0191 533e 1fae c3be d0e5 a5be
000001b0: b437 333e 5323 9fbd ca8b 37be 269c 84bd
000001c0: 1240 8d3d fd80 8b3e 7681 aebe 85f0 c0bd
000001d0: 622f ca3c be00 58be b9e0 103d a353 da3d
000001e0: 5ac7 9ebe 1517 3ebe 9d4c 62be 8a90 fbbb
000001f0: a139 a7be 0d8b 13be 3a28 b33d 5a8c debe

critic.2.weight f4 [64, 128]
0.26293257 0.047028698 -0.0018849219 -0.24563363 -0.06722591 -0.096558146 0.010541604 0.06288073
0.03602716 -0.05948173 0.22620818 -0.28570107 -0.11653583 -0.22881429 0.10718006 0.06800797
0.11260581 0.14251994 -0.0005982271 0.041442122 0.11426743 0.22517453 -0.11458519 0.07546247
0.042695686 -0.11403189 0.033079617 0.11433471 0.051352277 0.09647749 -0.10587284 0.058106247
0.19302401 0.25904226 -0.050844707 0.087866046 0.021089328 0.11530034 -0.0536865 0.07613569
0.102416694 0.2083492 0.046102766 0.3110311 0.10175093 0.15119635 -0.574655 0.022281954
0.08381705 0.025849555 0.19825421 0.062089555 0.067725174 0.027555402 -0.010263608 0.0060023395
0.058281604 -0.20796685 -0.084931456 0.03609807 0.030421466 0.028923836 0.113776796 -0.09880232
-0.1646341 -0.022277797 0.020323908 -0.11671177 0.08270817 0.0068740505 0.11664634 0.07185162
-0.16092955 0.17797945 0.03680309 0.0707037 -0.10382873 -0.18266903 -0.030115446 -0.060432088
-0.117990635 -0.10765098 -0.093709104 0.110906616 0.15162545 -0.017958319 -0.39079964 -0.14526798
0.16426313 0.09706071 -0.022232145 0.037514295 -0.014419852 0.016680887 0.07820008 0.18254451
0.04529792 0.021294124 0.10983368 -0.012037714 -0.1501114 0.1266891 0.060868703 -0.008132805
-0.08052324 0.040312514 -0.01245071 0.076828256 0.050230693 0.14014713 -0.021887241 0.17123725
-0.0201867 -0.08857448 0.12812456 -0.021425331 -0.015858596 -0.044421818 0.12307068 0.045616504
-0.031989086 0.10378011 0.0968281 -0.016698968 0.067302816 -0.18185925 0.007908323 0.13780423
0.5800781 -0.19106293 0.17253931 0.3674498 0.052794073 0.0054624444 0.026517702 0.2251344
0.019465754 0.17118806 0.14693701 -0.2871811 0.7250061 0.52175224 0.10305968 0.010353361
-0.10825321 -0.10360123 0.16788521 0.6245633 0.082501955 0.19223627 0.1807225 0.15405393
0.19164413 0.45370936 0.033693723 0.09000279 -0.12045516 0.5744948 -0.13467772 0.17835045
0.65104717 0.5204172 0.15945224 0.096388705 0.15569742 0.06510634 0.31665358 0.11161823
-0.022693742 0.29812142 0.10938186 0.28106302 0.14108895 0.5921334 0.7048575 -0.24890657
0.31137845 0.28210694 0.23952863 0.06309682 0.045700587 0.30113494 0.31060207 0.044017736
0.29908723 0.021338308 0.5298383 0.013882639 0.13813902 0.14957118 0.39223856 0.07666953
0.34879035 -0.013979479 -0.063661 0.07729437 0.14320736 -0.1723379 -0.013612387 -0.10076218
0.45156914 0.20736721 0.011942354 0.2554599 -0.039691772 0.22971587 -0.18079503 0.03245312
-0.193644 0.34669423 0.722446 0.24297166 0.041209698 -0.08111436 0.120986216 0.059781812
0.071646914 0.062574804 0.21543221 0.57133293 -0.08180334 0.28257167 0.016891418 0.352774
0.24726415 -0.27512226 0.16654772 0.22249001 -0.24274841 0.08774849 0.21442805 0.22294526
0.02704471 -0.23569748 0.81556314 0.4050416 -0.09676549 0.31994036 0.17218655 0.19413625
-0.010150039 0.064520866 0.5450284 0.13221174 0.19584772 0.44451326 0.071473904 0.18849766
0.2925129 0.10080178 0.25948572 0.19944943 0.3758003 0.042158827 -0.051519565 0.29975036
00000000: 199f 863e 2aa1 403d 7c0f f7ba 6287 7bbe
00000010: bdad 89bd 47c0 c5bd b1b6 2c3c 9dc7 803d
00000020: 3791 133d 1da3 73bd 1ea3 673e 6947 92be
00000030: 56aa eebd 4b4e 6abe 3881 db3d c347 8b3d
00000040: e09d e63d bff0 113e 57d2 1cba 37bf 293d
00000050: 0b05 ea3d 2794 663e a4ab eabd 118c 9a3d
00000060: ace1 2e3d 8d89 e9bd 7e7e 073d 5128 ea3d
00000070: c456 523d fe95 c53d dcd3 d8bd d100 6e3d
00000080: 16a8 453e 30a1 843e 8a42 50bd 1df3 b33d
00000090: 87c3 ac3c 9622 ec3d 60e6 5bbd 07ed 9b3d
000000a0: d8bf d13d 7e59 553e 41d6 3c3d 783f 9f3e
000000b0: cb62 d03d 37d3 1a3e 971c 13bf a588 b63c
000000c0: 46a8 ab3d 72c2 d33c 2703 4b3e 9e51 7e3d
000000d0: 7fb3 8a3d debb e13c b128 28bc 46af c43b
000000e0: b1b8 6e3d 43f5 54be 8bf0 adbd 92db 133d
000000f0: 7036 f93c aef1 ec3c cf03 e93d df58 cabd
00000100: d795 28be ed7f b6bc 537e a63c 9506 efbd
00000110: e762 a93d b73f e13b 47e4 ee3d f126 933d
00000120: b7ca 24be 3f40 363e d6be 163d 1acd 903d
00000130: 28a4 d4bd 970d 3bbe abb4 f6bc a387 77bd
00000140: 13a5 f1bd 1e78 dcbd 8fea bfbd 0223 e33d
00000150: b443 1b3e 531d 93bc e416 c8be 21c1 14be
00000160: 9834 283e c4c7 c63d 3020 b6bc 97a8 193d
00000170: 3e41 6cbc 5ba6 883c 5d27 a03d f3ec 3a3e
00000180: 508a 393d 0471 ae3c 7bf0 e03d d539 45bc
00000190: ceb6 19be caba 013e 7651 793d 753f 05bc
000001a0: 5ee9 a4bd bc1e 253d 10fe 4bbc 2258 9d3d
000001b0: b3be 4d3d bb82 0f3e df4c b3bc d158 2f3e
000001c0: 945e a5bc 8966 b5bd 1633 033e 2d84 afbc
000001d0: e3e9 81bc a7f3 35bd 7b0c fc3d 5fd8 3a3d
000001e0: fd06 03bd ab8a d43d d04d c63d 46cc 88bc
000001f0: 0fd6 893d 5039 3abe e991 013c 8d1c 0d3e
00000200: 0080 143f 00a6 43be 25ae 303e 6122 bc3e
00000210: 993e 583d 4efe b23b a73b d93c a289 663e
00000220: a576 9f3c ec4b 2f3e a876 163e 6709 93be
00000230: 009a 393f 8e91 053f f410 d33d 25a1 293c
00000240: dcb3 ddbd e22c d4bd 1aea 2b3e 61e3 1f3f
00000250: c9f6 a83d 96d9 443e 520f 393e 50c0 1d3e
00000260: 5c3e 443e 984c e83e 6e02 0a3d 6253 b83d
00000270: 32b1 f6bd 1712 133f f5e8 09be 80a1 363e
00000280: 07ab 263f 103a 053f 7347 233e 7167 c53d
00000290: 256f 1f3e 7956 853d 6b20 a23e 1998 e43d
000002a0: 3ae8 b9bc 5fa3 983e 9903 e03d 7ee7 8f3e
000002b0: 9f79 103e 0e96 173f 8b71 343f 5de1 7ebe
000002c0: ff6c 9f3e 5270 903e fe46 753e e838 813d
000002d0: 8a30 3b3d 5c2e 9a3e 3c07 9f3e f14b 343d
000002e0: f621 993e adcd ae3c 7ca3 073f 0274 633c
000002f0: 5174 0d3e 3029 193e 7ed3 c83e ea04 9d3d
00000300: a694 b23e 2f0a 65bc b360 82bd 834c 9e3d
00000310: f3a4 123e 5979 30be 7d06 5fbc 675c cebd
00000320: 1234 e73e 1258 543e dda9 433c a4cb 823e
00000330: d793 22bd a33a 6b3e 5522 39be 90ed 043d
00000340: 9d4a 46be e881 b13e 39f2 383f 90cd 783e
00000350: 80cb 283d 491f a6bd 9fc7 f73d c6dd 743d
00000360: 9ebb 923d 3827 803d 439a 5c3e e042 123f
00000370: 8288 a7bd 3cad 903e df5f 8a3c cb9e b43e
00000380: d032 7d3e d3dc 8cbe 7c8b 2a3e 6cd4 633e
00000390: 0a93 78be 7bb5 b33d 0793 5b3e c34b 643e
000003a0: de8c dd3c ae5a 71be bfc8 503f 9d61 cf3e
000003b0: fc2c c6bd 39cf a33e ac51 303e a7cb 463e
000003c0: 594c 26bc 8423 843d fb86 0b3f 8462 073e
000003d0: 4e8c 483e 3e97 e33e e960 923d 8805 413e
000003e0: 40c4 953e 2a71 ce3d 50db 843e 793c 4c3e
000003f0: e668 c03e bcae 2c3d 2e06 53bd e178 993e

critic.2.bias f4 [64]
-0.030591734 -0.025770195 -0.060148783 -0.01555908 -0.057744477 0.105691016 -0.115722746 -0.08383235
-0.061993908 -0.008939069 -0.32618055 0.056328386 -0.43891427 -0.088875316 0.03490584 0.16023749
-0.0072452514 -0.017582756 0.01819727 -0.20942363 0.015547309 0.036839526 0.0033684608 -0.21561722
0.13429196 0.07041496 0.006778587 0.06900528 -0.20761843 -0.13991763 0.08623356 0.1489704
-0.1871568 -0.25497165 -0.19814444 -0.43012187 -0.1022678 -0.14297019 0.061787307 -0.22401215
0.084683254 -0.23043539 -0.10509646 -0.21185456 -0.38113883 -0.18718535 -0.23820756 0.0045450195
-0.019680187 0.017810185 0.1030562 0.027875442 0.23528123 -0.0901855 -0.07669468 -0.22588937
0.012532935 0.08657056 -0.13329451 0.2543962 0.008717074 -0.019087987 0.010757212 -0.37020946
00000000: 849b fabc 041c d3bc 925e 76bd 83eb 7ebc
00000010: 7985 6cbd 8874 d83d 0c00 edbd 4cb0 abbd
00000020: 53ed 7dbd 2c75 12bc 2301 a7be 98b8 663d
00000030: 5fb9 e0be 4304 b6bd 6df9 0e3d 4c15 243e
00000040: 9369 edbb b609 90bc 7112 953c 2673 56be
00000050: 24ba 7e3c 0be5 163d 65c1 5c3b c3ca 5cbe
00000060: d583 093e b835 903d e91e de3b a452 8d3d
00000070: ed99 54be 9146 0fbe 399b b03d b28b 183e
00000080: 08a6 3fbe a58b 82be 60e6 4abe ef38 dcbe
00000090: c871 d1bd c766 12be b014 7d3d 7163 65be
000000a0: 6a6e ad3d 41f7 6bbe d03c d7bd 67f0 58be
000000b0: a124 c3be 84ad 3fbe afec 73be 63ee 943b
000000c0: 5838 a1bc aae6 913c 210f d33d 0a5b e43c
000000d0: 90ed 703e 2db3 b8bd 1a12 9dbd 8b4f 67be
000000e0: f056 4d3c e84b b13d 5b7e 08be 3840 823e
000000f0: 0fd2 0e3c 695e 9cbc 043f 303c 188c bdbe
