isaacgym/legged_gym/logs/flat_anymal_c/Mar26_18-44-56_/model_100.pt (torch, 418700 bytes, 48 tensors)

std f4 [12]
0.60729605 0.7341784 0.6813487 0.62117374 0.73367435 0.6715707 0.61131215 0.75215536
0.6877913 0.5966144 0.7241417 0.6832322
00000000: c177 1b3f 1ef3 3b3f de6c 2e3f 3e05 1f3f
00000010: 15d2 3b3f 0fec 2b3f f47e 1c3f 418d 403f
00000020: 1713 303f b9bb 183f 5a61 393f 4ee8 2e3f

actor.0.weight f4 [128, 48]
0.11374589 0.099233046 -0.024505178 0.21520185 0.80585814 0.09930044 1.0593501 -0.7547193
0.19375984 -0.0016296402 0.20600054 -0.65297115 0.50624937 0.17295171 -0.2393013 -0.031236079
0.47690853 -0.3913787 -0.4914839 -0.277388 0.39348003 0.28972518 0.19045222 0.5228165
-0.009370185 0.110079765 -0.20268658 0.563147 0.05655276 0.3104516 -0.06379296 -0.48946196
0.24990259 0.0036455311 0.05839536 0.026032748 -0.299924 0.010944451 0.121084 0.1670159
-0.2178056 0.51524 -0.20932244 -0.06401684 -0.27601886 -0.15418638 -0.07724951 -0.03565769
-0.1322566 0.0014883882 0.1262511 -0.44088486 0.664695 0.6677806 0.78773063 0.28796595
0.058061615 0.23355098 -0.24193013 -1.1574304 0.36728138 -0.36874437 -0.28354624 -0.3286775
0.44060028 0.30593753 -0.3550133 -0.15610182 0.2084058 -0.14416043 -0.38125533 -0.42178467
0.2599464 -0.12708545 -0.013575992 -0.11841054 -0.040070143 0.16575259 0.23853558 0.0038684988
-0.18616222 -0.6977896 0.07076974 -0.1744459 0.10464763 0.14100967 0.030224182 0.22817396
-0.080204196 0.054802846 -0.07495902 -0.0062530246 0.032546334 -0.073295586 0.025093133 -0.040088914
0.0845242 -0.21936789 0.22354154 0.46549684 -0.64621246 0.6961134 -0.2020568 -0.43750545
0.023811353 -0.22035626 0.3160704 -0.80166346 0.38998115 0.027426928 -0.042556323 0.34744042
-0.40975338 -0.4410504 0.6591738 -0.40505478 -0.14460635 -0.58375555 -0.05750882 0.09420517
0.3794034 0.251492 -0.11971425 0.5063278 -0.62238926 -0.306611 1.2656754 0.3632562
-0.09759468 0.1420845 -0.2579775 -0.16510713 -0.22391433 0.0057473877 0.039482396 -0.049557064
-0.0024198336 0.10205148 -0.0007897348 0.12233387 -0.029122876 -0.222605 -0.08440136 0.106610805
-0.30605862 0.3671324 -0.055375706 -0.25661755 -0.47344196 -1.034019 -0.17639072 0.37955207
0.0042121722 0.5281389 -0.39584917 0.744255 -0.12158183 -0.35185254 0.03699656 0.25787303
0.47915614 -0.1124867 -0.5017419 0.15754028 0.2703639 0.020362934 -0.1545312 0.15481487
-0.06336351 -0.313552 -0.3509758 0.5688858 0.1762265 -0.24431546 -0.12076342 -0.053914096
0.15328984 -0.27472657 -0.53098875 -0.32583395 0.18640666 0.12151554 -0.031533513 0.31837624
0.0814243 0.08837864 -0.15726067 -0.07548984 0.044909883 0.04128059 -0.032963105 -0.24857982
-0.12987697 -0.21984296 -0.0717146 -0.1182472 -0.907597 0.4585175 -0.010976719 -0.4581009
0.10675202 -0.051927797 -0.13811383 -0.9739939 0.38715065 0.3514246 -0.43829724 0.123877764
-0.18274151 -0.3106032 0.21081753 -0.08838008 0.45890576 0.20493323 0.42444378 0.78110313
0.4665793 0.98078805 -0.25922048 -0.2542961 -0.33591753 0.121296234 -0.012246643 -0.8280722
0.10524155 0.2597716 0.014176502 0.37501258 0.009956116 -0.07658365 0.12616594 0.059845857
0.033489343 -0.035253588 -0.29428634 -0.08418786 -0.0022434886 0.100738615 0.15424183 -0.09304993
-0.20031668 -0.063302204 -0.12422273 -0.124361895 0.36007634 0.41145432 -0.7231213 -0.26669994
-0.06723289 -0.04592793 -0.07291224 -0.55669516 0.5080053 -0.028321497 -0.053856745 0.5131995
00000000: 9bf3 e83d b23a cb3d 15bf c8bc e05d 5c3e
00000010: b84c 4e3f 075e cb3d c998 873f 4935 41bf
00000020: fb68 463e a799 d5ba cef1 523e 1e29 27bf
00000030: 8f99 013f 411a 313e 660b 75be cee2 ffbc
00000040: 5b2d f43e ca62 c8be c7a3 fbbe cd05 8ebe
00000050: 3776 c93e dc56 943e e805 433e 4dd7 053f
00000060: 6885 19bc 8071 e13d 128d 4fbe 672a 103f
00000070: dea3 673d 83f3 9e3e e2a5 82bd c29a fabe
00000080: 77e6 7f3e dde9 6e3b f92f 6f3d a142 d53c
00000090: a38f 99be 5b50 333c e3fa f73d 3706 2b3e
000000a0: 6e08 5fbe c5e6 033f 9f58 56be 431b 83bd
000000b0: 5852 8dbe 09e3 1dbe fe34 9ebd cc0d 12bd
000000c0: 466e 07be 0516 c33a f847 013e a9bb e1be
000000d0: 7429 2a3f abf3 2a3f b7a8 493f 4670 933e
000000e0: 04d2 6d3d fd27 6f3e 88bc 77be ae26 94bf
000000f0: 4e0c bc3e 10cc bcbe f92c 91be 6b48 a8be
00000100: 5c96 e13e d8a3 9c3e 4ec4 b5be 28d9 1fbe
00000110: 5468 553e cb9e 13be e633 c3be 29f4 d7be
00000120: b217 853e b022 02be d66d 5ebc 3a81 f2bd
00000130: 9720 24bd 0cbb 293e ac42 743e a486 7d3b
00000140: 4fa1 3ebe 57a2 32bf baef 903d f2a1 32be
00000150: 7f51 d63d d764 103e b498 f73c 6fa6 693e
00000160: 1942 a4bd f378 603d 1d84 99bd 2ce6 ccbb
00000170: 4e4f 053d ff1b 96bd 1d90 cd3c 4634 24bd
00000180: 061b ad3d faa1 60be 13e8 643e 9a55 ee3e
00000190: 2e6e 25bf 7d34 323f fae7 4ebe b700 e0be
000001a0: 0710 c33c 12a5 61be fbd3 a13e d139 4dbf
000001b0: 9cab c73e 70ae e03c 8a4f 2ebd b6e3 b13e
000001c0: 32cb d1be 5cd1 e1be 9dbf 283f 5763 cfbe
000001d0: b013 14be 0171 15bf 5e8e 6bbd a4ee c03d
000001e0: 2a41 c23e 8fc3 803e bf2c f5bd b39e 013f
000001f0: e754 1fbf 1efc 9cbe a701 a23f b7fc b93e
00000200: b8df c7bd 997e 113e a015 84be d811 29be
00000210: cc49 65be 9554 bc3b 4bb8 213d 59fc 4abd
00000220: 1296 1ebb 5e00 d13d 3506 4fba 2e8a fa3d
00000230: 1993 eebc 91f2 63be 9fda acbd c456 da3d
00000240: b7b3 9cbe c7f8 bb3e a3d1 62bd 6063 83be
00000250: fc66 f2be bc5a 84bf c59f 34be a654 c23e
00000260: 4306 8a3b 1c34 073f beac cabe 7f87 3e3f
00000270: e5ff f8bd 0426 b4be b489 173d ef07 843e
00000280: f453 f53e 6d5f e6bd 2872 00bf 3d52 213e
00000290: 236d 8a3e 2bd0 a63c 6d3d 1ebe ca87 1e3e
000002a0: bac4 81bd e389 a0be 1ab3 b3be 80a2 113f
000002b0: b874 343e d52d 7abe d052 f7bd 07d5 5cbd
000002c0: 03f8 1c3e f6a8 8cbe e1ee 07bf b5d3 a6be
000002d0: 63e1 3e3e 24dd f83d 4929 01bd 3602 a33e
000002e0: c9c1 a63d dcff b43d f108 21be 6b9a 9abd
000002f0: 6df3 373d d615 293d 5204 07bd b58b 7ebe
00000300: 78fe 04be 831e 61be 1bdf 92bd 972b f2bd
00000310: 4758 68bf cec2 ea3e b2d7 33bc 338c eabe
00000320: cea0 da3d 3eb2 54bd b66d 0dbe aa57 79bf
00000330: 9c38 c63e eded b33e 7f68 e0be a0b3 fd3d
00000340: 9720 3bbe 6207 9fbe 8de0 573e 9e00 b5bd
00000350: b2f5 ea3e 04da 513e b250 d93e 60f6 473f
00000360: 7be3 ee3e ed14 7b3f 8cb8 84be 1933 82be
00000370: 62fd abbe 296a f83d 25a6 48bc 8afc 53bf
00000380: e288 d73d c800 853e 8f44 683c a601 c03e
00000390: fa1e 233c e4d7 9cbd a531 013e ee20 753d
000003a0: 1f2c 093d 1166 10bd b3ac 96be af6a acbd
000003b0: 7e07 13bb 0c50 ce3d 92f1 1d3e f690 bebd
000003c0: d11f 4dbe 96a4 81bd 7d68 febd 73b1 febd
000003d0: ed5b b83e 24aa d23e 7a1e 39bf e58c 88be
000003e0: 66b1 89bd ed1e 3cbd 0353 95bd 9383 0ebf
000003f0: a30c 023f 7c02 e8bc e498 5cbd 0b61 033f

actor.0.bias f4 [128]
0.008347109 -0.07545837 -0.009618415 -0.11119919 -0.1887408 0.0047184806 -0.30496398 -0.27668488
-0.26625448 -0.22403531 -0.17228825 0.06974687 -0.06535213 -0.0071994816 -0.07823386 -0.024986988
0.006770966 -0.19335204 -0.020916546 -0.04244158 -0.017237468 -0.08343952 -0.11908318 0.0018954786
0.057268657 0.025163407 -0.22610159 -0.16111156 -0.29570228 0.13674578 -0.1079457 -0.049546555
0.03345812 0.03158451 -0.17086895 0.017252339 0.0061799996 -0.05615627 0.12777108 0.075217575
-0.0065971036 0.016333668 -0.06847456 -0.035557494 -0.074953794 -0.13692875 -0.10355221 -0.20872124
0.057525426 0.011768791 0.025624383 0.1000961 -0.08625396 0.030224232 -0.06665954 0.013148558
-0.121045284 -0.10661365 -0.05264595 0.018319651 -0.10349033 -0.021006329 -0.11071544 -0.015339344
-0.07055508 -0.32027936 -0.21477142 -0.122520976 -0.28899053 -0.011552217 0.09469672 -0.024137018
-0.2675033 0.08353267 -0.12429329 0.04388178 -0.020592637 -0.124389865 -0.08392992 -0.040900443
0.03120339 -0.21278541 -0.018777194 -0.18101323 -0.11016822 -0.07505381 0.014243037 -0.3216336
-0.16613771 -0.14265347 0.06206889 -0.26754433 -0.17724481 -0.27929962 -0.056214098 -0.08021129
-0.20211065 0.10592983 -0.23544976 -0.26718053 0.016696172 0.03146314 -0.08806127 -0.08414348
-0.09904082 -0.006281179 0.07969289 -0.31129754 -0.1984851 -0.015901016 -0.3410974 0.096229784
-0.07123952 0.13259135 -0.022329533 -0.20379166 -0.22945602 -0.10558404 -0.14002924 0.12890594
0.0045453273 0.15425475 0.11685336 -0.22350423 -0.3115877 -0.17795412 -0.15463646 -0.029605364
00000000: 50c2 083c eb89 9abd 8e96 1dbc 67bc e3bd
00000010: 4545 41be 7c9d 9a3b 3d24 9cbe a4a9 8dbe
00000020: 8252 88be 8369 65be 556c 30be 72d7 8e3d
00000030: 56d7 85bd a1e9 ebbb 1339 a0bd 83b1 ccbc
00000040: fbde dd3b 14fe 45be 2d59 abbc 39d7 2dbd
00000050: 9735 8dbc 57e2 aabd e2e1 f3bd b571 f83a
00000060: 8a92 6a3d 7d23 ce3c 2d87 67be 6efa 24be
00000070: 4a66 97be 1607 0c3e a312 ddbd 54f1 4abd
00000080: 620b 093d c25e 013d 45f8 2ebe c754 8d3c
00000090: 9881 ca3b 1e04 66bd 6cd6 023e ac0b 9a3d
000000a0: 842c d8bb 2fce 853c 643c 8cbd bca4 11bd
000000b0: 6081 99bd 0d37 0cbe 2e13 d4bd 05bb 55be
000000c0: c89f 6b3d e3d1 403c 3aea d13c 2fff cc3d
000000d0: eba5 b0bd cf98 f73c cc84 88bd 0d6d 573c
000000e0: 97e6 f7bd 4258 dabd 48a3 57bd 1813 963c
000000f0: bdf2 d3bd 7715 acbc c7be e2bd df51 7bbc
00000100: 2f7f 90bd a8fb a3be 0aed 5bbe 47ec fabd
00000110: 91f6 93be 8345 3dbc 5bf0 c13d ffba c5bc
00000120: 31f6 88be 2d13 ab3d 7b8d febd 62bd 333d
00000130: e4b1 a8bc 1dc0 febd 73e3 abbd 3987 27bd
00000140: 409e ff3c 6be4 59be a1d2 99bc 885b 39be
00000150: e09f e1bd d0b5 99bd a15b 693c 29ad a4be
00000160: 0120 2abe c013 12be f33b 7e3d 92fb 88be
00000170: aa7f 35be 5c00 8fbe c140 66bd d145 a4bd
00000180: 18f6 4ebe bdf1 d83d be19 71be e3cb 88be
00000190: 69c6 883c 7edf 003d 7859 b4bd 6b53 acbd
000001a0: ead5 cabd 59d2 cdbb 0736 a33d 6462 9fbe
000001b0: ae3f 4bbe d942 82bc 52a4 aebe 1f14 c53d
000001c0: 07e6 91bd 07c6 073e 6dec b6bc c3ae 50be
000001d0: 85f6 6abe 723c d8bd d363 0fbe ebff 033e
000001e0: f8f0 943b f5f4 1d3e d050 ef3d 4bde 64be
000001f0: 6c88 9fbe 9b39 36be 0559 1ebe f386 f2bc

actor.2.weight f4 [64, 128]
-0.04982244 0.29494286 -0.11540447 0.23198237 -0.052548233 0.25394666 -0.077432744 0.06435942
0.28079435 -0.07493657 -0.06887501 -0.14492704 0.05209404 -0.22080271 0.32370102 -0.12977736
-0.14265662 -0.07954536 0.05903189 0.06254498 0.12816462 0.11816299 -0.15296142 -0.31952795
0.37805274 0.11204138 -0.061861295 0.059970845 0.029458867 -0.05956844 -0.038148716 -0.13076167
0.058111917 0.17254254 0.093606606 0.2395318 0.05493585 -0.124375515 0.25672072 -0.18118998
-0.061662506 0.029252948 0.080825835 -0.11112224 -0.1269385 0.21133573 0.11004613 -0.095628574
0.21841972 -0.052671462 0.019673677 0.24681164 -0.072066344 0.12782511 -0.0070375544 0.017429488
0.11738663 -0.22190422 -0.18100962 0.25016353 -0.12277475 0.055820376 -0.21231219 0.008723342
-0.32356295 0.07816897 -0.115966514 -0.062326513 0.32596743 -0.08386621 -0.1648769 -0.05913713
-0.17581251 0.20039308 0.22273533 0.09473963 0.08682369 0.21913722 0.12408187 0.077343814
-0.07556007 -0.14726958 0.2624495 -0.0071101063 0.07042137 -0.3046515 -0.09223255 -0.07720993
0.21263161 -0.5430861 0.04962284 0.0029581604 -0.09585292 0.12906091 0.19664207 -0.023950301
0.037132896 -0.12585448 -0.26052806 -0.10035975 0.36486748 0.1675146 0.031241892 -0.16809852
-0.12684634 0.0061521735 -0.2836463 0.022672513 -0.048356317 -0.10050236 0.525839 -0.17956099
-0.10274251 0.040987436 0.17683376 0.15393323 0.031057617 0.066141784 -0.20763578 -0.10040998
0.09080448 0.097807944 -0.27045354 0.027980017 0.11934865 0.30354232 -0.021700783 -0.40881732
-0.03956272 -0.27860177 -0.234444 0.16115084 -0.15384461 -0.21447629 -0.13610286 -0.060651205
-0.16955662 -0.29521266 0.004446902 -0.06626029 0.026601447 -0.23304166 0.33409896 -0.12835233
-0.22809172 -0.4005959 0.17940855 -0.040165097 -0.20886391 0.23959957 -0.052778795 -0.14787903
-0.21185358 -0.29532275 0.15050216 0.12610695 -0.062181093 -0.0064503327 0.20527019 -0.16916333
0.033345744 -0.18616584 -0.17993855 -0.26560944 -0.07726337 0.10849152 0.019219235 -0.22041728
-0.028481424 0.05195539 -0.0036214667 -0.1013729 -0.0987676 -0.23611397 -0.2847338 0.4720497
-0.508878 -0.09185569 -0.120066084 -0.42754367 0.13373473 0.058476564 -0.025678977 -0.03052023
0.44831425 -0.30384406 0.11086054 0.14479795 0.074023224 0.05777566 -0.030708306 0.6120419
0.17542374 0.06440145 0.042787984 0.038488932 -0.24746345 0.055809468 0.11314434 0.02006008
0.08318741 -0.16881594 0.20578977 -0.015574016 -0.36196765 0.18111405 0.20700261 -0.016006306
0.11743678 -0.044657376 0.04899771 -0.17175694 0.15157339 -0.08022871 0.08517969 0.0004016136
0.1486932 -0.2540437 -0.016297417 0.09500536 0.15853456 0.1926555 -0.11431526 -0.17624065
-0.25348026 -0.05316476 0.18232676 0.020550879 -0.3058439 -0.51505136 -0.02207963 0.0032129718
0.108075194 -0.21132259 -0.16847275 0.28021726 0.047941387 0.2582076 -0.13085885 -0.1528262
0.2302132 0.017379709 -0.3619864 -0.32822472 0.039919443 -0.08448444 0.5035583 -0.016978858
0.3531282 -0.074533276 0.17893672 0.04226204 -0.31755015 0.137307 -0.16423883 -0.31267166
00000000: 9d12 4cbd c002 973e 2e59 ecbd c98c 6d3e
00000010: d13c 57bd 4c05 823e 0f95 9ebd dfce 833d
00000020: 47c4 8f3e 5878 99bd 570e 8dbd c167 14be
00000030: 8f60 553d 1b1a 62be 24bc a53e 5be4 04be
00000040: 9414 12be ade8 a2bd 6ccb 713d 9517 803d
00000050: 963d 033e 70ff f13d eba1 1cbe 2b99 a3be
00000060: 2190 c13e f375 e53d 4562 7dbd fda3 753d
00000070: b953 f13c 09fe 73bd d441 1cbd 63e6 05be
00000080: c306 6e3d feae 303e d2b4 bf3d d347 753e
00000090: 6a04 613d 97b8 febd e670 833e de89 39be
000000a0: d391 7cbd e1a3 ef3c 0488 a53d 0f94 e3bd
000000b0: 2bfc 01be 6568 583e de5f e13d ead8 c3bd
000000c0: 6ba9 5f3e 08be 57bd b12a a13c 31bc 7c3e
000000d0: 8597 93bd 96e4 023e 499b e6bb 49c8 8e3c
000000e0: 6768 f03d dc3a 63be 965a 39be 6f15 803e
000000f0: 5471 fbbd e8a3 643d 5e68 59be 59ec 0e3c
00000100: 0baa a5be 0e17 a03d da7f edbd 164a 7fbd
00000110: 34e5 a63e 0cc2 abbd 7dd5 28be c639 72bd
00000120: 3208 34be d833 4d3e bb14 643e da06 c23d
00000130: 9ed0 b13d 8265 603e a31e fe3d 6f66 9e3d
00000140: 3dbf 9abd d6cd 16be c85f 863e e5fb e8bb
00000150: 1439 903d 48fb 9bbe 6be4 bcbd 3d20 9ebd
00000160: 1abc 593e b107 0bbf 5241 4b3d b2dd 413b
00000170: 894e c4bd 8b28 043e 8a5c 493e 6c33 c4bc
00000180: aa18 183d ffdf 00be ef63 85be 6a89 cdbd
00000190: e9cf ba3e f388 2b3e ffee ff3c 0522 2cbe
000001a0: 02e4 01be 2c98 c93b 163a 91be b5bb b93c
000001b0: 4611 46bd 2ed4 cdbd 629d 063f d6de 37be
000001c0: aa6a d2bd 71e2 273d e913 353e aca0 1d3e
000001d0: 8b6c fe3c 5875 873d 799e 54be bfa3 cdbd
000001e0: b3f7 b93d 884f c83d e378 8abe 5936 e53c
000001f0: 116d f43d e669 9b3e d7c5 b1bc 8150 d1be
00000200: 850c 22bd e4a4 8ebe 1712 70be ba04 253e
00000210: 7189 1dbe ac9f 5bbe 8c5e 0bbe 666d 78bd
00000220: 40a0 2dbe 1d26 97be 51b7 913b 7ab3 87bd
00000230: 47eb d93c 79a2 6ebe 050f ab3e cb6e 03be
00000240: e090 69be e81a cdbe e0b6 373e 2884 24bd
00000250: 6ce0 55be 9759 753e 942e 58bd 9a6d 17be
00000260: 25f0 58be 8b34 97be 3d1d 1a3e 2e22 013e
00000270: 9ab1 7ebd 505d d3bb 5932 523e 2739 2dbe
00000280: 8c95 083d 42a2 3ebe d041 38be f6fd 87be
00000290: 423c 9ebd cd30 de3d a871 9d3c 11b5 61be
000002a0: e051 e9bc 2dcf 543d 2156 6dbb 989c cfbd
000002b0: ab46 cabd dcc7 71be a1c8 91be 80b0 f13e
000002c0: d445 02bf d61e bcbd 35e5 f5bd 01e7 dabe
000002d0: c2f1 083e 1f85 6f3d b85c d2bc 9005 fabc
000002e0: 7289 e53e 7391 9bbe da0a e33d ea45 143e
000002f0: 7d99 973d 2ca6 6c3d fc8f fbbc c7ae 1c3f
00000300: 48a2 333e e8e4 833d 7442 2f3d 92a6 1d3d
00000310: 0f67 7dbe 7898 643d 38b8 e73d 0955 a43c
00000320: 295e aa3d 16de 2cbe 8eba 523e 282a 7fbc
00000330: d353 b9be f675 393e 7ef8 533e a81f 83bc
00000340: b282 f03d a7ea 36bd d3b1 483d 0de1 2fbe
00000350: 0e36 1b3e f34e a4bd b072 ae3d aa8f d239
00000360: 0843 183e 0412 82be 2982 85bc 2c92 c23d
00000370: e256 223e 7c47 453e 1e1e eabd 6e78 34be
00000380: 2ac8 81be 4bc3 59bd deb3 3a3e 515a a83c
00000390: 9297 9cbe 68da 03bf 57e0 b4bc b990 523b
000003a0: 8756 dd3d f364 58be 1f84 2cbe a378 8f3e
000003b0: 305e 443d c933 843e ddff 05be 797e 1cbe
000003c0: 02bd 6b3e e45f 8e3c 4856 b9be 120d a8be
000003d0: 9282 233d 2e06 adbd 32e9 003f 3f17 8bbc
000003e0: 38cd b43e e7a4 98bd 303b 373e f61a 2d3d
000003f0: ef95 a2be 359a 0c3e 392e 28be 8016 a0be

actor.2.bias f4 [64]
-0.03396176 -0.08746138 -0.116568506 -0.24728356 -0.08219917 -0.026281578 -0.023803497 0.022276353
-0.3009944 -0.21857052 -0.08487877 0.09767048 -0.29161552 -0.13376606 -0.34639367 -0.07227461
-0.19265805 -0.07890652 -0.08109343 -0.19081497 -0.14648616 0.13259335 -0.22050959 -0.32321694
-0.18925893 -0.1451796 -0.20341995 -0.04040032 -0.09987648 -0.12026264 -0.028811207 -0.17692743
-0.31156638 0.019072087 -0.004607282 -0.123360395 -0.24652478 -0.09415105 0.11278181 -0.1485027
-0.19776575 -0.18226051 -0.077806376 -0.1980717 -0.01128137 -0.18640685 -0.070664376 -0.23063871
-0.2107235 -0.16335379 0.016344707 -0.18614827 -0.1231781 -0.061934363 -0.15981938 -0.29341212
-0.09059499 -0.19164826 -0.17574908 0.034905475 -0.18095681 -0.08571708 -0.02478984 -0.17641754
00000000: 7d1b 0bbd f41e b3bd 78bb eebd e737 7dbe
00000010: 0a58 a8bd 774c d7bc 8dff c2bc e67c b63c
00000020: f01b 9abe f3d0 5fbe ecd4 adbd 7607 c83d
00000030: a14e 95be f8f9 08be 835a b1be b604 94bd
00000040: 2748 45be be99 a1bd 5014 a6bd 0065 43be
00000050: 7800 16be 8dc6 073e 44cd 61be b17c a5be
00000060: 18cd 41be f6a9 14be 524d 50be ce7a 25bd
00000070: 0a8c ccbd 424c f6bd 7b05 ecbc 772c 35be
00000080: a185 9fbe 113d 9c3c aff8 96bb 60a4 fcbd
00000090: fe70 7cbe 44d2 c0bd 26fa e63d 1711 18be
000000a0: 1b83 4abe 80a2 3abe f358 9fbd 4fd3 4abe
000000b0: 7fd5 38bc 70e1 3ebe 7cb8 90bd 8e2c 6cbe
000000c0: e7c7 57be 3746 27be 56e5 853c a79d 3ebe
000000d0: cd44 fcbd e3ae 7dbd b1a7 23be 1d3a 96be
000000e0: de89 b9bd 713f 44be 91f7 33be 0bf9 0e3d
000000f0: be4c 39be 708c afbd 1014 cbbc cda6 34be

actor.4.weight f4 [32, 64]
0.21477768 0.037180264 0.0036770627 0.32890928 -0.16954748 -0.156641 0.05438425 -0.11091057
0.07370382 0.0028015736 -0.3687597 0.052089345 -0.10666259 0.07596473 0.2546894 -0.09312284
-0.0132234655 -0.22118267 -0.0641436 -0.07001168 0.14488113 -0.18490519 0.23857684 0.012844814
-0.19012937 -0.022295155 -0.11245355 -0.09025827 -0.06386427 0.047979333 0.16039313 -0.12249757
0.3186597 -0.2705404 -0.056832593 0.039072096 0.16133788 0.026296897 -0.10432817 0.0021970537
-0.17936721 -0.14086545 -0.033289555 0.24950825 0.0808759 -0.015434951 -0.0391527 -0.2534915
0.023037497 -0.07058313 -0.06892062 0.039164376 0.1564557 -0.17166705 -0.27588984 0.09617905
-0.12025593 -0.15963788 0.15681598 0.085955955 0.0071890512 -0.017205771 -0.029796647 0.033103995
-0.15626988 0.030877814 -0.16724786 -0.0075266412 0.22187988 -0.039414946 0.17969102 -0.08966196
-0.009304661 0.064150386 -0.09143323 0.019771043 0.26019204 -0.17045479 0.25852686 0.14689802
0.065209754 -0.050277203 0.108969115 -0.26166698 -0.11384912 0.14985926 0.020903736 0.028827492
0.11271623 -0.07668303 0.009628124 -0.24156897 -0.17829442 0.036674365 0.06829238 -0.15369529
0.17739789 0.13967009 0.008907985 -0.18793854 -0.24431793 -0.011032467 -0.08437801 -0.021913439
0.21979533 -0.06591932 -0.1369851 -0.029805262 0.088509545 0.11352974 -0.05068228 -0.0050594746
-0.102651775 -0.08489358 0.011056058 0.19713528 0.17749262 -0.01584498 -0.09080987 -0.22273943
0.15572403 0.016748194 0.18386133 -0.17688812 0.081831194 0.34154046 -0.06310797 -0.1961761
0.2018086 0.113390476 -0.12308345 -0.037655488 0.12715134 0.09747734 -0.13592148 0.14972386
0.20093852 -0.018405683 -0.1100335 0.007786606 -0.24541436 0.16593795 0.15594171 0.15003979
0.1765644 -0.08444605 -0.23470278 -0.08654454 -0.11806252 -0.05159921 -0.035779126 0.09483548
0.24018767 -0.065769926 0.039722662 -0.10792615 0.13801649 -0.017467927 -0.2517571 0.06039624
0.35410753 0.17086151 -0.08966365 -0.043897334 -0.02028065 -0.021420935 0.14115389 -0.018695777
-0.19850782 0.1890139 0.2175582 0.0792937 0.040150292 0.080760874 0.11610166 0.006554405
-0.30944732 -0.23522434 -0.16552116 -0.13323057 -0.2856457 -0.21646835 0.17534214 0.0462591
0.09080144 0.06148637 -0.07556739 -0.0578851 -0.2286538 -0.033097763 -0.077326685 0.06620776
0.105345465 -0.11016357 -0.10094829 0.087609984 0.05548443 0.050194424 0.06903686 0.16302066
-0.0634143 0.19376753 -0.061990127 -0.061467063 -0.039425764 0.20975891 -0.27910814 0.013557549
0.18713768 0.050571974 0.059466112 -0.06996013 -0.18699485 -0.19460791 0.05252659 0.0011463404
0.23358434 0.10102306 -0.17074761 -0.073937625 0.11504511 0.006384805 -0.1577196 -0.14615169
0.12517433 -0.011008338 -0.1335514 0.18349357 0.18914999 0.053865023 -0.0019544966 0.14634024
-0.07789945 -0.1255041 -0.1884761 -0.26974252 0.006004301 -0.21294391 0.11074182 -0.1275896
0.17308238 -0.29097822 0.13708879 -0.11026868 -0.056574915 -0.031212587 -0.028848296 0.16223942
-0.10518638 0.13417064 -0.111146964 -0.251698 0.0866601 -0.041609954 0.04599511 -0.17835392
00000000: aeee 5b3e 554a 183d e0fa 703b cc66 a83e
00000010: db9d 2dbe 8066 20be 05c2 5e3d 1525 e3bd
00000020: 07f2 963d 9b9a 373b 12ce bcbe a35b 553d
00000030: ea71 dabd 6593 9b3d a666 823e 30b7 bebd
00000040: 3ca7 58bc b67d 62be b85d 83bd 4962 8fbd
00000050: b85b 143e c957 3dbe 7d4d 743e 0e73 523c
00000060: 46b1 42be 54a4 b6bc 0c4e e6bd 54d9 b8bd
00000070: 45cb 82bd fa85 443d 193e 243e 02e0 fabd
00000080: 5d27 a33e 4584 8abe 4bc9 68bd 100a 203d
00000090: c235 253e 976c d73c 02aa d5bd 72fc 0f3b
000000a0: 0aac 37be 083f 10be a15a 08bd 177f 7f3e
000000b0: 44a2 a53d e0e2 7cbc 955e 20bd a3c9 81be
000000c0: 22b9 bc3c e38d 90bd 4126 8dbd d36a 203d
000000d0: ec35 203e 7dc9 2fbe 6f41 8dbe 86f9 c43d
000000e0: be48 f6bd 1d78 23be 5e94 203e ad09 b03d
000000f0: 2292 eb3b 1ef3 8cbc 1918 f4bc 0e98 073d
00000100: 3605 20be 78f3 fc3c 0643 2bbe 0ba2 f6bb
00000110: 7b34 633e 9171 21bd ec00 383e b1a0 b7bd
00000120: 9472 18bc 4761 833d 5841 bbbd e2f6 a13c
00000130: e437 853e b38b 2ebe a25d 843e 6f6c 163e
00000140: b18c 853d 78ef 4dbd 332b df3d 37f9 85be
00000150: ba29 e9bd b574 193e 503e ab3c a227 ec3c
00000160: c4d7 e63d fe0b 9dbd 47bf 1d3c db5d 77be
00000170: d092 36be dc37 163d e0dc 8b3d 4c62 1dbe
00000180: cba7 353e ad05 0f3e ccf2 113c f672 40be
00000190: 7b2e 7abe 85c1 34bc 61ce acbd d083 b3bc
000001a0: 0712 613e b500 87bd d245 0cbe 2a2a f4bc
000001b0: 7e44 b53d 4882 e83d 3998 4fbd f3c9 a5bb
000001c0: 183b d2bd afdc adbd 7824 353c d5dd 493e
000001d0: a0c0 353e 55cd 81bc 86fa b9bd ce15 64be
000001e0: 1f76 1f3e 8233 893c 2546 3c3e 2922 35be
000001f0: 1d97 a73d 64de ae3e c03e 81bd 63e2 48be
00000200: eaa6 4e3e 4439 e83d 2d13 fcbd a43c 1abd
00000210: f633 023e 33a2 c73d 002f 0bbe 3651 193e
00000220: d4c2 4d3e 84c7 96bc 3e59 e1bd c926 ff3b
00000230: e74d 7bbe a3eb 293e 2faf 1f3e 08a4 193e
00000240: 4ccd 343e 0df2 acbd ed55 70be 443e b1bd
00000250: c3ca f1bd b159 53bd 228d 12bd 1b39 c23d
00000260: c2f3 753e 62b2 86bd 3bb4 223d 6308 ddbd
00000270: 3254 0d3e e618 8fbc 4ee6 80be 0c62 773d
00000280: 954d b53e 52f6 2e3e 93a1 b7bd b1cd 33bd
00000290: 9b23 a6bc f57a afbc a58a 103e e327 99bc
000002a0: a245 4bbe dc8c 413e 94c7 5e3e bc64 a23d
000002b0: a274 243d f565 a53d b5c6 ed3d 56c6 d63b
000002c0: e16f 9ebe a6de 70be 617e 29be 986d 08be
000002d0: 2740 92be e1a9 5dbe e48c 333e 2f7a 3d3d
000002e0: 1bf6 b93d 22d9 7b3d 13c3 9abd ed18 6dbd
000002f0: 3924 6abe 8591 07bd 745d 9ebd ef97 873d
00000300: 5dbf d73d 709d e1bd fabd cebd dd6c b33d
00000310: a443 633d ab98 4d3d 3263 8d3d e3ee 263e
00000320: 5bdf 81bd ff6a 463e 5ce9 7dbd e3c4 7bbd
00000330: e97c 21bd 0acb 563e 43e7 8ebe 7b20 5e3c
00000340: 05a1 3f3e 8f24 4f3d bd92 733d 4247 8fbd
00000350: 947b 3fbe 4c47 47be 1f26 573d cd40 963a
00000360: bc30 6f3e 2ee5 ce3d 76d8 2ebe 9c6c 97bd
00000370: c59c eb3d a037 d13b 3f81 21be caa8 15be
00000380: b32d 003e 515c 34bc b3c1 08be bde5 3b3e
00000390: 89b0 413e 92a1 5c3d 0317 00bb 37da 153e
000003a0: bf89 9fbd 2684 00be e1ff 40be b11b 8abe
000003b0: babf c43b f80d 5abe 9bcc e23d d9a6 02be
000003c0: 823c 313e 19fb 94be 0161 0c3e 8cd4 e1bd
000003d0: 19bb 67bd 8ab1 ffbc 4353 ecbc 1722 263e
000003e0: f56b d7bd 0764 093e 05a1 e3bd 8fde 80be
000003f0: da7a b13d 336f 2abd 5e65 3c3d 69a2 36be

actor.4.bias f4 [32]
-0.015570047 0.12681533 -0.34810495 -0.1765319 -0.16967015 -0.082234405 0.049313493 0.0011567759
-0.22962686 0.105558045 -0.32516977 -0.07046802 -0.1154479 -0.0402526 -0.16276006 -0.19237153
-0.17897853 -0.25352606 -0.17491436 0.02736087 0.12244231 -0.17165439 -0.1895098 -0.20172092
-0.08842145 -0.11845049 -0.17849812 -0.03775898 -0.17532672 0.053922333 -0.11960696 -0.115021005
00000000: 8319 7fbc e1db 013e d03a b2be c7c4 34be
00000010: 03be 2dbe 836a a8bd f2fc 493d f59e 973a
00000020: 4e23 6bbe d12e d83d a77c a6be 8a51 90bd
00000030: f36f ecbd e9df 24bd 93aa 26be 0bfd 44be
00000040: 2646 37be 2bce 81be c01c 33be e723 e03c
00000050: 09c3 fa3d 2bc6 2fbe db0e 42be ee8f 4ebe
00000060: 4e16 b5bd 2c96 f2bd 36c8 36be 29a9 1abd
00000070: d988 33be aadd 5c3d 7ef4 f4bd 2290 ebbd

actor.6.weight f4 [12, 32]
-0.025531717 -0.017994609 0.12040618 0.037565876 0.08855095 -0.082929626 0.053198725 -0.10015582
0.013559143 -0.035428878 0.18581522 -0.160554 -0.0046761334 0.06270177 0.04388467 0.046034448
0.0015518169 0.027249983 -0.17188863 -0.047707755 -0.06408457 -0.01155895 -0.022510646 0.1011116
0.13325773 0.05679929 -0.066178374 0.095223755 0.04050662 -0.15112399 -0.11287504 -0.14104179
-0.09332036 -0.20931242 -0.030248195 0.0037536833 -0.051184397 0.063922495 -0.018153107 -0.12977067
-0.03767269 0.073356666 -0.042049892 -0.23478481 -0.20728038 -0.080397494 -0.061977185 0.03454761
-0.0057692183 -0.03021264 0.18618272 0.024629483 0.029465802 0.0430209 0.039609544 -0.055204973
0.1964372 -0.004159289 0.10491239 0.077637285 -0.013456772 -0.07439273 0.07099762 0.1399609
0.049632568 -0.014706268 -0.01320195 -0.05831868 -0.017512986 -0.07700111 0.12886499 0.16199623
0.039653398 -0.026873251 0.075332776 0.010103079 0.099856384 0.011988597 0.0968926 -0.08860127
-0.17372574 0.0030845702 -0.15523726 -0.0357079 0.14404555 0.008176604 0.24989784 -0.07312636
-0.17293227 -0.007919437 0.19281763 0.12307754 0.007592254 -0.03528074 -0.3232602 -0.007262284
-0.025023675 -0.16699238 0.061671473 0.00040214916 -0.0036948128 -0.087831244 -0.091765575 -0.113492504
0.13764887 0.015851637 0.081907675 0.1114999 0.06795389 -0.025862165 -0.09865201 -0.055129252
0.012267598 0.008793936 0.045440517 0.06734259 -0.05764928 -0.013420902 0.03509527 -0.057972178
0.0006523443 0.111908615 0.1266593 -0.108044304 0.012103992 0.09840274 0.029975997 -0.09109645
0.113033384 -0.020737091 -0.20337076 -0.09246281 -0.055791516 0.011848025 0.06385342 -0.09838377
-0.13848396 -0.08509322 0.07560655 0.019153973 0.09189077 0.012326881 -0.020277273 0.018794434
-0.11924593 0.03787367 -0.15763773 0.1410197 0.026232487 0.03977069 -0.17472564 -0.1433706
0.1186864 0.06695094 0.011485673 0.12553576 -0.0067643686 0.015537638 -0.0051307166 0.04935996
0.061546814 -0.06506874 -0.040011708 0.086033076 -0.10587518 -0.012825684 0.019312771 0.08487378
0.056622095 0.020442236 -0.14865687 0.10219737 0.16935167 0.11581578 -0.10026474 -0.23121458
0.070648246 0.05167038 0.1879912 -0.2043767 -0.040690333 0.016657181 -0.11188317 0.03657295
-0.046223033 -0.092925034 -0.033794183 0.0626305 0.030653346 -0.20817015 0.020793015 -0.030797856
-0.0048739845 0.07627562 -0.052964013 0.07329406 0.08767599 0.07567593 0.05052172 -0.084853955
-0.015378093 0.1402919 -0.121163584 -0.07872593 0.043353625 -0.015437899 0.062516905 -0.047416367
-0.059593096 0.057830665 -0.028250365 0.04836227 0.1662257 -0.013993817 0.11144108 -0.080244035
-0.07642213 -0.056966957 -0.09247764 0.1569955 -0.013488817 0.12057438 -0.047076818 -0.012837648
-0.06462133 0.17916751 0.07978064 -0.028055068 0.06827774 -0.079777844 0.05783719 -0.05220605
0.07230808 0.14046648 0.011140438 -0.00097574334 -0.07770874 -0.0027436144 -0.1249521 0.048738394
-0.3238613 -0.0236245 0.037753504 -0.09559616 -0.06483392 0.113996774 -0.0362558 0.004186958
0.19954988 -0.07441778 0.09254008 -0.18090354 0.07258128 0.033047013 0.016370188 0.083560824
00000000: e427 d1bc 6e69 93bc 8497 f63d adde 193d
00000010: 335a b53d 02d7 a9bd e8e6 593d 7f1e cdbd
00000020: 2b27 5e3c df1d 11bd 5846 3e3e 4568 24be
00000030: 403a 99bb c969 803d 69c0 333d 9e8e 3c3d
00000040: 5666 cb3a 5b3b df3c 9303 30be 3569 43bd
00000050: c53e 83bd c061 3dbc 3f68 b8bc 9913 cf3d
00000060: b774 083e 5fa6 683d 8788 87bd ac04 c33d
00000070: 45ea 253d 3fc0 1abe 072b e7bd 426d 10be
00000080: bf1e bfbd ff55 56be 10cb f7bc 5b00 763b
00000090: bba6 51bd cce9 823d d3b5 94bc 9ae2 04be
000000a0: ae4e 1abd 053c 963d 823c 2cbd 6e6b 70be
000000b0: 4f41 54be 71a7 a4bd cadb 7dbd cb81 0d3d
000000c0: b60b bdbb 8080 f7bc afa6 3e3e c5c3 c93c
000000d0: 4462 f13c af36 303d 9e3d 223d 9c1e 62bd
000000e0: d526 493e a54a 88bb 4fdc d63d 4c00 9f3d
000000f0: cb79 5cbc 375b 98bd 3367 913d e951 0f3e
00000100: 854b 4b3d 8ff2 70bc fe4c 58bc 91df 6ebd
00000110: 6577 8fbc c2b2 9dbd 2ff5 033e 57e2 253e
00000120: 9a6b 223d 4b25 dcbc 1248 9a3d 6287 253c
00000130: 8181 cc3d d26b 443c a16f c63d 9574 b5bd
00000140: 29e5 31be 8026 4a3b 84f6 1ebe 7242 12bd
00000150: ad80 133e 2af7 053c 38e5 7f3e 46c3 95bd
00000160: 2815 31be 87c0 01bc fc71 453e 1410 fc3d
00000170: 71c8 f83b 8a82 10bd 5c82 a5be 74f8 edbb
00000180: 73fe ccbc 0d00 2bbe 3a9b 7c3d 8cd7 d239
00000190: ac24 72bb dee0 b3bd 97ef bbbd c26e e8bd
000001a0: d3f3 0c3e 4bdb 813c 36bf a73d 0f5a e43d
000001b0: 692b 8b3d e4dc d3bc 110a cabd 36cf 61bd
000001c0: 09fe 483c 7114 103c d61f 3a3d e9ea 893d
000001d0: a721 6cbd 58e3 5bbc 0fc0 0f3d 3c74 6dbd
000001e0: 1602 2b3a 5830 e53d fab2 013e 5546 ddbd
000001f0: d24f 463c 6087 c93d 3990 f53c c790 babd
00000200: 0c7e e73d d5e0 a9bc 6d40 50be 245d bdbd
00000210: a585 64bd 381e 423c 95c5 823d 6e7d c9bd
00000220: bdce 0dbe 5b45 aebd 9bd7 9a3d cbe8 9c3c
00000230: 3a31 bc3d b0f6 493c 861c a6bc c9f6 993c
00000240: 3637 f4bd 6c21 1b3d c96b 21be 7867 103e
00000250: 83e5 d63c 97e6 223d 47eb 32be becf 12be
00000260: db11 f33d 931d 893d 672e 3c3c 728c 003e
00000270: a3a7 ddbb 9491 7e3c 921f a8bb ab2d 4a3d
00000280: 8318 7c3d c242 85bd 51e3 23bd 1c32 b03d
00000290: 16d5 d8bd d122 52bc d135 9e3c 4ed2 ad3d
000002a0: 92ec 673d 7a76 a73c 8239 18be db4c d13d
000002b0: 866a 2d3e d330 ed3d 9a57 cdbd 84c3 6cbe
000002c0: 07b0 903d 52a4 533d c480 403e 2048 51be
000002d0: e8aa 26bd a474 883c 0123 e5bd 85cd 153d
000002e0: 5d54 3dbd 7b4f bebd c56b 0abd 6b44 803d
000002f0: ba1c fb3c 8e2a 55be 1d56 aa3c c94b fcbc
00000300: f2b5 9fbb 6436 9c3d cbf0 58bd 321b 963d
00000310: 788f b33d fbfb 9a3d ddef 4e3d e9c7 adbd
00000320: 66f4 7bbc aea8 0f3e 9d24 f8bd 0f3b a1bd
00000330: 9293 313d 3eef 7cbc dd08 803d aa37 42bd
00000340: e417 74bd d9df 6c3d 4f6d e7bc 8417 463d
00000350: 1237 2a3e 5346 65bc 393b e43d fc56 a4bd
00000360: 3583 9cbd 2f56 69bd eb64 bdbd 6ec3 203e
00000370: 3300 5dbc b3ef f63d 9fd3 40bd 0055 52bc
00000380: 3058 84bd b077 373e 0864 a33d bed3 e5bc
00000390: 33d5 8b3d 9162 a3bd b0e6 6c3d 03d6 55bd
000003a0: 4216 943d 72d6 0f3e 6286 363c 07c9 7fba
000003b0: c325 9fbd 36ce 33bb e3e6 ffbd e9a1 473d
000003c0: 26d1 a5be 2b88 c1bc 6ba3 1a3d ebc7 c3bd
000003d0: a5c7 84bd 2477 e93d f680 14bd c032 893b
000003e0: ce56 4c3e 5968 98bd a785 bd3d c73e 39be
000003f0: 7ea5 943d 4e5c 073d c61a 863c f021 ab3d

actor.6.bias f4 [12]
-0.13711834 0.07895521 0.14456221 -0.14287175 -0.12364475 -0.074119866 0.1316546 -0.007422051
-0.09720807 0.25848538 -0.07837532 -0.17011079
00000000: c068 0cbe 45b3 a13d 1e08 143e f94c 12be
00000010: 7539 fdbd 28cc 97bd 77d0 063e ad34 f3bb
00000020: 0615 c7bd 3258 843e 3d83 a0bd 8631 2ebe

critic.0.weight f4 [128, 48]
-0.10203256 -0.071363315 0.060788166 -0.2521246 0.46653378 -0.5481492 0.8750052 0.75621426
0.07259567 0.059684202 -0.17189857 0.6844192 0.307037 0.16506279 0.25082546 -0.34763426
-0.66319215 -0.66873825 0.069798164 0.63499177 0.6569738 -0.2446254 -0.22848956 -0.052655764
-0.17770916 0.03747832 0.0784508 -0.32342553 -0.42936453 0.04979773 -0.2886503 0.41797188
0.021814696 -0.21067758 0.38926354 -0.08385195 0.060267832 0.03255013 -0.015508615 -0.002662884
-0.023931315 -0.0028505465 -0.02871795 0.030541077 -0.018764492 0.010044519 -0.0021829908 0.02141616
0.14468163 0.1528545 0.1848142 -0.23369892 0.07063194 -0.13079979 0.1481203 0.5942183
-0.030038435 -0.21994495 0.066371694 -0.1976658 0.19225934 -0.22406234 0.262029 0.37017137
0.22042784 0.031218044 -0.07601578 0.00094987045 0.25324884 -0.08434217 0.05849402 -0.005514429
-0.055279855 0.08290238 -0.007883434 -0.07150103 0.19154163 -0.059709013 -0.19131202 -0.11931372
-0.008043621 -0.15213573 -0.0741015 0.048862033 -0.10222365 -0.011678804 0.013623096 0.05036142
0.11211323 -0.0062025143 0.023365593 -0.06073567 -0.14651029 0.08890978 -0.062174473 -0.099139325
-0.020506896 0.07962321 -0.10533481 0.0095748855 0.08916162 0.10897233 -0.09723106 0.09675931
0.10070962 -0.14973317 -0.040313967 0.031182148 0.048922453 -0.311898 -0.16761118 0.15764008
-0.18013273 0.08769091 0.24509601 0.0532224 0.09231249 -0.30978942 -0.29885975 -0.014921421
-0.034942597 0.00872976 -0.048125457 -0.13297969 0.17552878 -0.04040982 -0.0153211 -0.004287177
0.0034701286 -0.019405456 -0.022028757 -0.12920779 0.12337284 0.032813575 0.07112647 -0.12138969
-0.03308426 -0.003244281 0.017479597 0.09636851 0.06255731 0.07187319 0.067165315 -0.093473546
0.20385757 -0.4368112 -0.0678814 0.0011008458 -0.21159492 -0.37392238 0.39042482 -2.0706942
0.051681697 -0.404999 0.4915267 1.5499953 0.46788156 0.116966814 -0.1718064 0.9473167
0.1752297 0.6283426 -0.04703035 -0.22409788 0.20498714 0.31927523 0.27257138 -0.13005221
-0.13982625 0.029337535 0.045483913 0.017736867 -0.20856176 0.024703812 -0.15430978 -0.2081751
0.020939158 -0.052121785 -0.069344416 0.0032033343 0.001765687 -0.014876326 0.045782387 1.7764693e-05
0.021009423 -0.04111197 0.0012250554 -0.009624668 -0.041060098 -0.010975309 -0.016395917 0.031130053
0.08961858 -0.01967623 0.12773947 -0.0063839536 0.3696464 0.19550881 0.34172 0.2514161
0.0013789309 -0.21967565 0.119530566 -0.09507978 0.03638624 -0.21467656 -0.18667127 -0.54039055
0.12049757 -0.3173696 -0.11799228 -0.014006858 0.057526194 -0.2932301 0.14694639 -0.029392803
0.12935229 0.11093195 0.018151658 0.17036568 0.14866613 0.03996322 0.10418432 -0.014717836
0.02100767 -0.28636009 -0.07945629 -0.11315012 0.0068646157 -0.010698887 0.013385447 -0.026429266
0.02463656 0.05508752 0.0152781 -0.03444396 0.039262727 0.07673345 -0.04263854 0.11536908
0.08865529 -0.10695957 -0.1009484 0.22396563 0.1903369 0.17552087 -0.09170685 -0.53723544
-0.07752196 -0.0049452363 0.026100358 0.17362073 0.046247363 -0.012357819 -0.05257981 0.10447024
00000000: 72f6 d0bd ee26 92bd 03fd 783d 7a16 81be
00000010: 84dd ee3e 8253 0cbf 5700 603f 4297 413f
00000020: 0aad 943d 6c77 743d 2e06 30be 1936 2f3f
00000030: f433 9d3e 3806 293e 326c 803e 1efd b1be
00000040: f6c6 29bf 6e32 2bbf 57f2 8e3d d28e 223f
00000050: 6f2f 283f 157f 7abe 2bf9 69be 92ad 57bd
00000060: 64f9 35be de82 193d d0aa a03d 0898 a5be
00000070: abd5 dbbe b4f8 4b3d f9c9 93be 6900 d63e
00000080: bcb4 b23c ddbb 57be 8d4d c73e 92ba abbd
00000090: 67db 763d 4953 053d d917 7ebc c883 2ebb
000000a0: 9b0b c4bc 3cd0 3abb e841 ebbc 4831 fa3c
000000b0: feb7 99bc c491 243c 8210 0fbb f170 af3c
000000c0: 6c27 143e e485 1c3e ef3f 3d3e c54e 6fbe
000000d0: 7ba7 903d 61f0 05be d9ac 173e b11e 183f
000000e0: 2a13 f6bc 4039 61be e2ed 873d e768 4abe
000000f0: a2df 443e 9970 65be aa28 863e 1a87 bd3e
00000100: d6b7 613e fcbc ff3c 29ae 9bbd ba00 793a
00000110: d5a9 813e 96bb acbd 6d97 6f3d 62b2 b4bb
00000120: 216d 62bd b9c8 a93d 8529 01bc 226f 92bd
00000130: 7d23 443e 7091 74bd 4ce7 43be c05a f4bd
00000140: 64c9 03bc 78c9 1bbe 87c2 97bd 8e23 483d
00000150: a25a d1bd 7458 3fbc 6833 5f3c c747 4e3d
00000160: 9f9b e53d 763e cbbb 3369 bf3c f7c5 78bd
00000170: cb06 16be 5516 b63d a9aa 7ebd 8f09 cbbd
00000180: 14fe a7bc 7e11 a33d c7b9 d7bd fbdf 1c3c
00000190: 5e9a b63d e32c df3d 1421 c7bd bf29 c63d
000001a0: d840 ce3d a753 19be 4220 25bd b471 ff3c
000001b0: e962 483d 18b1 9fbe 44a2 2bbe 676c 213e
000001c0: b774 38be 4b97 b33d 73fa 7a3e bbff 593d
000001d0: 550e bd3d b89c 9ebe 2504 99be fa78 74bc
000001e0: f81f 0fbd 4407 0f3c 331f 45bd d42b 08be
000001f0: d1bd 333e c484 25bd 5a05 7bbc 737b 8cbb
00000200: 196b 633b 31f8 9ebc a775 b4bc 0c4f 04be
00000210: e6aa fc3d 8767 063d c1aa 913d 289b f8bd
00000220: 5c83 07bd 019e 54bb 5f31 8f3c da5c c53d
00000230: 0c1e 803d 4032 933d f88d 893d 0f6f bfbd
00000240: 0ac0 503e b8a5 dfbe 6705 8bbd 414a 903a
00000250: 57ac 58be c172 bfbe c3e5 c73e 4186 04c0
00000260: 30b0 533d 075c cfbe 63a9 fb3e 3f66 c63f
00000270: 2c8e ef3e 4c8c ef3d 04ee 2fbe 5983 723f
00000280: 6a6f 333e 10db 203f e5a2 40bd ea79 65be
00000290: 26e8 513e 0b78 a33e 7a8e 8b3e 682c 05be
000002a0: 9d2e 0fbe 4555 f03c 574d 3a3d e84c 913c
000002b0: 3791 55be a65f ca3c 6203 1ebe da2b 55be
000002c0: 9988 ab3c a77d 55bd 7204 8ebd 08ef 513b
000002d0: a06e e73a d5bb 73bc 5086 3b3d 6305 9537
000002e0: f41b ac3c 0665 28bd 0a92 a03a c9b0 1dbc
000002f0: a22e 28bd c8d1 33bc bb50 86bc 7404 ff3c
00000300: f289 b73d 0c30 a1bc 23ce 023e 7c30 d1bb
00000310: 4b42 bd3e 7633 483e edf5 ae3e 9cb9 803e
00000320: 3ebd b43a a7f2 60be 71cc f43d 30b9 c2bd
00000330: bd09 153d 2cd4 5bbe c126 3fbe 0957 0abf
00000340: 6ec7 f63d 457e a2be f0a5 f1bd 057d 65bc
00000350: 96a0 6b3d 4122 96be 1d79 163e 2dc9 f0bc
00000360: ed74 043e 4a30 e33d c9b2 943c 5774 2e3e
00000370: ef3b 183e 79b0 233d 975e d53d 1423 71bc
00000380: 4718 ac3c ca9d 92be fbb9 a2bd 40bb e7bd
00000390: 92f0 e03b 624a 2fbc a24e 5b3c 3082 d8bc
000003a0: 9cd2 c93c 74a3 613d ff50 7a3c 1c15 0dbd
000003b0: f4d1 203d 6d26 9d3d c0a5 2ebd a046 ec3d
000003c0: e890 b53d 9e0d dbbd 09be cebd 3f57 653e
000003d0: ade7 423e bebb 333e cdd0 bbbd 4388 09bf
000003e0: d5c3 9ebd a60b a2bb 6bd0 d53c a2c9 313e
000003f0: e06d 3d3d 7378 4abc ed5d 57bd 7ef4 d53d

critic.0.bias f4 [128]
-0.05855526 0.0640323 -0.17010151 -0.32094347 -0.019804174 0.09046391 -0.1473838 0.015318981
0.08421703 -0.12676124 -0.19176647 0.054675404 -0.13684088 0.0034115831 0.029112028 0.09736491
0.12202406 -0.08323388 0.07247542 -0.20413794 0.11870975 -0.08056901 -0.016853254 0.001804503
-0.13108385 -0.26192427 0.06416251 0.06914492 0.03220315 -0.27876574 -0.11986295 -0.2001344
-0.19588679 -0.2918836 -0.08282913 -0.052867662 0.08427381 -0.04847772 -0.16686888 -0.100324705
0.07555965 -0.20513526 0.03247988 -0.27856728 -0.1845148 -0.36173126 -0.025224058 -0.04582071
-0.28440315 -0.19241297 -0.13997176 -0.05815805 -0.1870237 -0.150199 -0.07187609 0.031475864
-0.20853528 0.044266026 -0.31052357 0.091157466 -0.0025656852 0.051204845 -0.29831412 -0.087874845
-0.124426246 0.025058502 0.09969551 0.009723127 0.032623883 0.10111279 0.051195554 0.105270885
-0.24622874 -0.118504554 -0.05119918 -0.24111886 -0.08361071 -0.14749627 0.06369628 -0.13272282
0.10803026 -0.104324214 -0.1603391 -0.11884194 0.10760521 0.14449248 -0.19399682 -0.26448208
0.095644 -0.026623154 -0.032168902 -0.15126483 0.034008317 -0.18180902 -0.008022482 -0.25728613
-0.024510613 -0.009866781 0.0037471703 -0.071134165 0.11121692 -0.3038652 -0.19413392 -0.059246503
0.060630277 0.11222533 -0.32650355 -0.25578356 0.13308184 -0.043767173 -0.12707151 -0.04845341
0.07199249 0.116247624 -0.2963433 0.0041351337 0.040608488 -0.09897997 -0.023549777 0.05356218
-0.27128908 -0.16342029 -0.17002258 -0.0015314665 -0.26578835 -0.11586324 0.04369638 -0.374809
00000000: a4d7 6fbd 5e23 833d 172f 2ebe b452 a4be
00000010: 5d3c a2bc 2445 b93d c7eb 16be 77fc 7a3c
00000020: fa79 ac3d b3cd 01be 6e5e 44be 51f3 5f3d
00000030: 0420 0cbe de94 5f3b 597c ee3c 4167 c73d
00000040: c0e7 f93d 8676 aabd fe6d 943d 8909 51be
00000050: 191e f33d 5d01 a5bd d60f 8abc 1385 ec3a
00000060: d83a 06be f01a 86be a267 833d da9b 8d3d
00000070: 73e7 033d 62ba 8ebe b57a f5bd 08f0 4cbe
00000080: 8c96 48be c471 95be 52a2 a9bd c38b 58bd
00000090: bf97 ac3d 9390 46bd addf 2abe 0a77 cdbd
000000a0: 05bf 9a3d fa0e 52be 9f09 053d 5fa0 8ebe
000000b0: 73f1 3cbe d734 b9be afa2 cebc 7fae 3bbd
000000c0: 4a9d 91be e807 45be c254 0fbe 2337 6ebd
000000d0: 2483 3fbe c4cd 19be c533 93bd d6ec 003d
000000e0: 468a 55be 4b50 353d f2fc 9ebe c4b0 ba3d
000000f0: 0e25 28bb 2cbc 513d a1bc 98be baf7 b3bd
00000100: 30d3 febd 7d47 cd3c 292d cc3d c04d 1f3c
00000110: 9fa0 053d 3914 cf3d 6eb2 513d 4398 d73d
00000120: 6323 7cbe 84b2 f2bd 3bb6 51bd dde7 76be
00000130: 183c abbd 4309 17be 3273 823d 7ee8 07be
00000140: f83e dd3d efa7 d5bd ef2f 24be 6763 f3bd
00000150: 1f60 dc3d d6f5 133e 1aa7 46be 326a 87be
00000160: 00e1 c33d cd18 dabc 8ac3 03bd 2be5 1abe
00000170: 4e4c 0b3d 252c 3abe ba70 03bc 02bb 83be
00000180: 7bca c8bc 47a8 21bc 1693 753b caae 91bd
00000190: b2c5 e33d 3894 9bbe 0bcb 46be 76ac 72bd
000001a0: 7457 783d 65d6 e53d 792b a7be 10f6 82be
000001b0: 9b46 083e 3545 33bd 091f 02be 1577 46bd
000001c0: cc70 933d 3c13 ee3d 4fba 97be 0480 873b
000001d0: 1655 263d 03b6 cabd 76eb c0bc 0464 5b3d
000001e0: 67e6 8abe a657 27be 661a 2ebe 7dbb c8ba
000001f0: 6915 88be b549 edbd fafa 323d f7e6 bfbe

critic.2.weight f4 [64, 128]
0.2660837 -0.018096266 0.004422215 -0.08065509 -0.074084386 -0.05734846 0.013291687 -0.045212246
0.046047937 -0.07465374 0.008498513 -0.08717341 -0.21025738 -0.1551305 0.08795115 0.062056974
0.0693877 -0.050018515 0.0006239718 -0.019762801 0.05439349 0.054319322 -0.1231362 0.016396295
0.008571815 -0.10619523 0.029203182 -0.0871026 0.07860847 -0.11342235 -0.06618558 0.030954229
0.1274569 0.112996615 -0.0103636375 0.034744915 -0.052353203 0.067464426 -0.08885723 0.02498089
0.093217626 0.15507789 0.051072832 0.09405808 0.06981068 0.045886647 -0.21131927 0.08449818
0.03821865 -0.014191569 0.08285015 0.05770681 0.097656675 0.015808923 -0.0117729595 -0.0340491
0.035693146 -0.14823036 -0.12556258 0.03457448 0.031563304 0.008579841 -0.06631529 -0.09487376
-0.18709508 0.01381949 0.019682202 -0.061265387 -0.0052984515 0.037337806 0.09538362 0.06890705
-0.16696595 0.18280949 0.03968289 0.025936099 -0.00833597 -0.10648064 -0.033054337 -0.0010323747
-0.02047546 -0.13783239 0.09229091 0.08698817 0.093266085 0.05337766 -0.28366917 -0.15342936
0.14395496 0.023257965 -0.048084922 -0.021379692 -0.035932142 -0.0012200548 0.120068826 0.058725
0.0119644655 0.13349429 0.037941493 -0.03434945 -0.1440376 0.15062383 0.051346164 0.0037560882
-0.090829484 0.068389975 -0.025664045 0.010051047 0.04718757 -0.040279653 -0.08232931 0.06944604
-0.03100827 -0.051793322 0.12024014 0.07266758 -0.034755737 -0.07784353 0.08323252 0.018535804
-0.053622764 0.07693777 0.00208017 -0.023052432 -0.0051609445 -0.16757032 0.0074448725 -0.00564164
0.3802579 -0.14964192 0.07759563 0.026420824 -0.07218479 -0.052877508 0.0981911 0.09421226
0.022196466 -0.041312035 0.03747059 -0.20646496 0.29948416 0.16124332 0.039036952 0.21263707
-0.117135294 -0.26695392 0.18164062 0.33498424 0.10150378 0.16350877 0.062987275 -0.10441602
-0.032446954 0.25978616 0.020647714 -0.027401801 0.009771022 0.2397877 -0.08561045 0.119024545
0.12485515 0.21287224 -0.0838129 -0.01867018 -0.07967611 0.009739117 0.15048273 0.08436753
-0.011191582 0.06953054 0.14701128 0.15644754 0.11161896 0.3628797 0.42842656 -0.094177745
0.1662726 0.21701382 0.07567245 0.14232017 0.055390324 0.15646179 0.11815613 -0.06718711
0.20179549 0.016551241 0.16601819 -0.033067208 0.01720555 -0.07202894 0.19180027 0.031773735
0.054847144 0.023980593 -0.07569192 -0.057979852 -0.009044684 -0.06935062 0.0093709985 -0.012379582
0.16876712 0.13471544 0.010068079 0.11176784 -0.048598137 0.15543894 -0.1599754 0.09685149
-0.040939488 0.11862109 0.35509434 0.17754921 0.045191295 -0.0054024532 -0.1851619 0.0754057
0.0021855354 -0.03088068 0.16747761 0.19602787 -0.1585967 0.081818536 -0.14293666 0.15940689
0.085396424 -0.15970965 0.02624103 0.14078058 -0.12363354 0.049433976 0.09063245 -0.058744084
0.06936737 -0.20930912 0.5299702 0.18042308 -0.09720235 0.09555243 -0.08336657 0.14083849
0.084007174 0.027501453 0.28906465 -0.12911318 0.1281306 0.13581835 -0.03780499 0.0175268
0.14663763 0.02726462 0.037730806 0.05753554 0.2885205 0.08822316 -0.08827484 0.12233288
00000000: 1f3c 883e 9f3e 94bc 3ae8 903b 7f2e a5bd
00000010: 8eb9 97bd 38e6 6abd 60c5 593c 7a30 39bd
00000020: c39c 3c3d 0fe4 98bd 593d 0b3c f987 b2bd
00000030: b64d 57be 88da 1ebe bc1f b43d 742f 7e3d
00000040: 231b 8e3d 37e0 4cbd 0a92 233a 99e5 a1bc
00000050: b5cb 5e3d f07d 5e3d d52e fcbd 8651 863c
00000060: cc70 0c3c e27c d9bd 833b ef3c d962 b2bd
00000070: 7afd a03d fa49 e8bd 4e8c 87bd b993 fd3c
00000080: 1084 023e c56a e73d 3fcc 29bc af50 0e3d
00000090: 5070 56bd ca2a 8a3d c8fa b5bd b9a4 cc3c
000000a0: e2e8 be3d bdcc 1e3e bf31 513d 86a1 c03d
000000b0: e7f8 8e3d a3f3 3b3d 1464 58be 620d ad3d
000000c0: 298b 1c3d c183 68bc 57ad a93d fa5d 6c3d
000000d0: 3900 c83d b781 813c 5fe3 40bc 1277 0bbd
000000e0: fa32 123d b3c9 17be 7a93 00be f89d 0d3d
000000f0: 8648 013d 7692 0c3c 50d0 87bd 2d4d c2bd
00000100: da95 3fbe 246b 623c 923c a13c 6af1 7abd
00000110: a29e adbb 87ef 183d 7d58 c33d 241f 8d3d
00000120: 1ff9 2abe 6932 3b3e 878a 223d f177 d43c
00000130: 9893 08bc 8612 dabd fc63 07bd bf50 87ba
00000140: 27bc a7bc ef23 0dbe 0403 bd3d db26 b23d
00000150: 4a02 bf3d 89a2 5a3d 163d 91be 961c 1dbe
00000160: ee68 133e 7d87 be3c b2f4 44bd 7724 afbc
00000170: 952d 13bd 3fea 9fba a5e6 f53d a089 703d
00000180: 9b06 443c bab2 083e 8a68 1b3d 02b2 0cbd
00000190: 987e 13be 223d 1a3e 5b50 523d b428 763b
000001a0: cf04 babd 0b10 8c3d 673d d2bc 26ad 243c
000001b0: c147 413d 47fc 24bd 459c a8bd ba39 8e3d
000001c0: 0e05 febc 3c25 54bd 7640 f63d bdd2 943d
000001d0: 085c 0ebd 6e6c 9fbd d075 aa3d 66d8 973c
000001e0: 8ba3 5bbd 8d91 9d3d 7653 083b 74d8 bcbc
000001f0: 241d a9bb 8e97 2bbe 1ef4 f33b 82dd b8bb
00000200: 2ab1 c23e bb3b 19be 75ea 9e3d 7c70 d83c
00000210: 9fd5 93bd 1696 58bd 6a18 c93d 5bf2 c03d
00000220: 5dd5 b53c cf36 29bd c37a 193d 8d6b 53be
00000230: fd55 993e f81c 253e 36e5 1f3d 88bd 593e
00000240: a1e4 efbd 2fae 88be 0000 3a3e 0e83 ab3e
00000250: 37e1 cf3d d86e 273e 79ff 803d 11d8 d5bd
00000260: 19e7 04bd b102 853e 6525 a93c be79 e0bc
00000270: a316 203c e88a 753e 8854 afbd 24c3 f33d
00000280: 0fb4 ff3d 2efb 593e 19a6 abbd 35f2 98bc
00000290: 3a2d a3bd d190 1f3c 2518 1a3e e2c8 ac3d
000002a0: e65c 37bc 0766 8e3d 208a 163e c933 203e
000002b0: 7b98 e43d 5ecb b93e ba5a db3e 43e0 c0bd
000002c0: 5d43 2a3e df38 5e3e 28fa 9a3d 61bc 113e
000002d0: f7e0 623d 8537 203e d7fb f13d 6599 89bd
000002e0: 7aa3 4e3e 7896 873c ac00 2a3e 7b71 07bd
000002f0: a7f2 8c3c e983 93bd 4a67 443e 2d25 023d
00000300: 66a7 603d f372 c43c 5e04 9bbd 487c 6dbd
00000310: 2730 14bc b307 8ebd d188 193c bbd3 4abc
00000320: 4ad1 2c3e d8f2 093e 96f4 243c 8ae6 e43d
00000330: d70e 47bd 632b 1f3e 97d0 23be 135a c63d
00000340: 2ab0 27bd 9def f23d edce b53e 76cf 353e
00000350: 821a 393d 1007 b1bb 159b 3dbe 4e6e 9a3d
00000360: 333b 0f3b 7bf9 fcbc 407f 2b3e 88bb 483e
00000370: 2c67 22be 7a90 a73d fd5d 12be 8f3b 233e
00000380: 52e4 ae3d ed8a 23be 6ef7 d63c c928 103e
00000390: 9533 fdbd 487b 4a3d 829d b93d a39d 70bd
000003a0: 7b10 8e3d 2155 56be 21ac 073f d4c0 383e
000003b0: 0712 c7bd feb0 c33d 18bc aabd f737 103e
000003c0: f40b ac3d ba4a e13c 4800 943e 3f36 04be
000003d0: ab34 033e f713 0b3e 68d9 1abd 5d94 8f3c
000003e0: 2d28 163e 0d5a df3c 9e8b 1a3d 63aa 6b3d
000003f0: f5b8 933e 58ae b43d 70c9 b4bd a989 fa3d

critic.2.bias f4 [64]
-0.0781318 -0.031916775 -0.0007018098 -0.0127255535 -0.0019881404 0.08225957 -0.07476284 -0.07895685
-0.012659348 -0.072324276 -0.24492362 -0.0019595227 -0.29498482 -0.043577474 0.042694326 0.12290419
-0.05467906 -0.034771938 0.015331859 -0.13375519 -0.057108387 -0.0009786569 0.019328471 -0.1732217
0.06861295 0.039762747 -0.03197499 0.08154871 -0.18983237 -0.115090474 0.068237714 0.111416385
-0.16834384 -0.22312629 -0.115036786 -0.23411483 -0.09876987 -0.15224011 -0.0062790615 -0.17234972
0.044996984 -0.18007031 -0.109345175 -0.2017874 -0.32761967 -0.15096462 -0.16186306 -0.085688844
0.021897743 0.005406775 0.06210391 0.015998702 0.1990552 -0.078662105 -0.099625155 -0.17616285
0.041993007 0.06107485 -0.06306276 0.20146076 0.013978624 0.019033086 -0.010405386 -0.2930864
00000000: 9103 a0bd 2abb 02bd a9f9 37ba d77e 50bc
00000010: 764b 02bb b577 a83d 431d 99bd 21b4 a1bd
00000020: 2769 4fbc c01e 94bd 42cd 7abe 566b 00bb
00000030: 4008 97be 4b7e 32bd 3fe0 2e3d 31b5 fb3d
00000040: 26f7 5fbd 056d 0ebd 7a32 7b3c 1ff7 08be
00000050: 7cea 69bd 4746 80ba be56 9e3c 0861 31be
00000060: f284 8c3d 43de 223d 35f8 02bd 0303 a73d
00000070: 6b63 42be 8eb4 ebbd 37c0 8b3d 462e e43d
00000080: 5462 2cbe 387b 64be 6898 ebbd ccbb 6fbe
00000090: dc47 cabd d5e4 1bbe 96c0 cdbb 727c 30be
000000a0: c24e 383d 5a64 38be 5df0 dfbd 5ba1 4ebe
000000b0: c4bd a7be 7896 1abe 6ebf 25be a27d afbd
000000c0: e562 b33c 512b b13b ab60 7e3d b60f 833c
000000d0: 20d5 4b3e 9919 a1bd 4608 ccbd 0964 34be
000000e0: dc00 2c3d 9f29 7a3d 0c27 81bd bb4b 4e3e
000000f0: 9906 653c 46eb 9b3c 5a7b 2abc 6c0f 96be
